models/model_epigenetic/checkpoint1.pt (torch, 267911 bytes, 47 tensors)

model.gnn.gnn_layers.0.graph_conv.weight f4 [30, 64]
0.16287594 0.28318113 0.1476633 0.11738549 -0.046222825 -0.25793728 0.22720367 -0.09094354
-0.1345828 -0.2123115 -0.12885843 0.1887591 -0.11868167 -0.3301428 0.17710239 0.22284389
0.14798515 0.118143685 0.07472768 -0.26145208 -0.2009363 -0.24014843 0.17091826 0.1880008
-0.31541702 -0.11344289 -0.028074786 0.043108765 0.00054253207 0.1746526 0.08020237 -0.29475895
-0.16449642 0.25479043 -0.21487688 0.087428614 0.003153983 -0.09305144 0.10737322 0.04247952
-0.26796535 0.104508325 -0.21442397 -0.008976744 0.23119557 -0.07909425 -0.025593078 -0.15238199
0.013846979 0.016220786 -0.18455113 -0.16186254 -0.086391285 0.08793048 0.1474692 0.035116605
0.046131805 -0.045764823 -0.6301392 0.029786607 -0.105622336 0.236718 0.16224633 0.16126394
-0.32457152 0.17038296 0.045167446 -0.10305947 0.16619453 0.18642564 -0.228701 0.07949914
-0.26865262 -0.05275824 0.21239868 0.18163344 -0.02521439 0.22633056 -0.018278807 -0.29011327
0.14653336 -0.044915628 0.026499312 0.0986515 0.20196907 0.23076138 0.30084202 0.040035103
0.04351809 0.1571489 -0.40174964 0.0035619747 -0.04036349 -0.13036896 -0.025127606 0.21879372
0.22605309 0.26364627 0.09287806 -0.46607313 0.06854303 0.10606054 0.08093071 -0.32552838
0.27937415 0.07085554 0.034056503 0.12961075 -0.007054173 -0.016996732 -0.11645126 -0.17344962
-0.090664454 0.20925187 -0.038471874 -0.01247475 0.08774237 -0.110982955 -0.16837731 0.20986201
0.004613307 0.026398743 0.39271444 -0.16796519 -0.24302864 -0.13873816 0.007038148 -0.117669344
0.09014464 -0.12671106 0.042775538 -0.19845352 0.1670437 -0.13148253 -0.0022616643 0.0644611
0.104855694 -0.13783872 0.34957182 -0.18762702 -0.26827845 0.010312859 -0.0061895796 -0.1271031
-0.20524667 -0.071295746 -0.11509596 0.18797047 -0.18813583 0.0493651 -0.080478355 -0.122154206
-0.09121099 -0.057662074 -0.12941182 -0.20849657 0.03263391 0.2729699 -0.01937381 -0.12024971
0.1078127 -0.04124951 0.0077948007 -0.13127692 -0.016324658 -0.19941898 -0.18134141 0.17269988
-0.012435632 -0.012514763 0.24100967 0.1965567 0.081661195 -0.012213001 0.14277111 -0.09584514
0.24612105 -0.21342035 0.13059056 0.021078851 0.21474896 -0.16340938 -0.14794602 -0.02548918
-0.308249 0.1949983 -0.24407694 0.23041758 -0.29515564 -0.19366218 -0.39217967 -0.2288633
0.027694441 0.1323114 -0.07664814 0.010662344 -0.21387218 -0.059722997 -0.11693558 -0.24103795
0.11315745 -0.1861388 0.26740822 0.093216956 0.20969138 -0.19247065 -0.1367126 -0.25290883
0.27412426 0.1912556 9.9097844e-05 -0.3280986 0.20482525 0.17442493 0.028654572 0.0058801575
0.047393948 -0.38153225 0.18276282 0.111515395 -0.2062628 0.178483 -0.14698671 0.15362921
0.011401174 0.1958428 0.23389879 -0.09544939 0.18942314 -0.13925135 -0.0154260015 0.17036346
-0.6010625 -0.1548496 0.014237083 -0.03685784 -0.0459875 0.21531776 0.32213685 0.08032427
0.2757636 0.17477976 -0.101101734 -0.12013294 -0.13043112 0.21581635 0.079004504 0.07793548
0.030043367 0.004520054 0.09732134 -0.3143835 -0.15215993 0.3359341 -0.33041435 -0.04560688
00000000: f3c8 263e 1efd 903e 0c35 173e ce67 f03d
00000010: 2554 3dbd 5b10 84be 14a8 683e 9b40 babd
00000020: 13d0 09be 3068 59be 77f3 03be 114a 413e
00000030: 600f f3bd 7a08 a9be 545a 353e 3031 643e
00000040: 6b89 173e 51f5 f13d d30a 993d 0cdd 85be
00000050: 3fc2 4dbe 78e9 75be 3205 2f3e 4883 403e
00000060: 577e a1be bf54 e8bd 18fd e5bc d192 303d
00000070: b638 0e3a 22d8 323e 2441 a43d a5ea 96be
00000080: c071 28be e473 823e af08 5cbe c60d b33d
00000090: 0eb3 4e3b c191 bebd 7ee6 db3d 01ff 2d3d
000000a0: c132 89be 7608 d63d f591 5bbe 3113 13bc
000000b0: 88be 6c3e 2bfc a1bd 93a8 d1bc 060a 1cbe
000000c0: 70de 623c 74e1 843c f9fa 3cbe 4bbf 25be
000000d0: eaed b0bd e514 b43d 2a02 173e 6ed6 0f3d
000000e0: b4f4 3c3d e573 3bbd cd50 21bf 0b03 f43c
000000f0: 8650 d8bd 3466 723e e723 263e 6022 253e
00000100: 3d2e a6be df78 2e3e 8001 393d d810 d3bd
00000110: e62e 2a3e 5de6 3e3e 9830 6abe 72d0 a23d
00000120: d68c 89be 0619 58bd 0a7f 593e 1efe 393e
00000130: 698e cebc 33c3 673e 70bd 95bc ba89 94be
00000140: d70c 163e 73f9 37bd 1615 d93c cc09 ca3d
00000150: fbd0 4e3e b64c 6c3e f707 9a3e d9fb 233d
00000160: 0640 323d a4eb 203e 21b2 cdbe 0570 693b
00000170: 3054 25bd 717f 05be 69d8 cdbc 760b 603e
00000180: 767a 673e a5fc 863e da36 be3d 23a1 eebe
00000190: 4a60 8c3d 4536 d93d 00bf a53d a8ab a6be
000001a0: 210a 8f3e b61c 913d d57e 0b3d aeb8 043e
000001b0: b126 e7bb bb3c 8bbc 007e eebd c79c 31be
000001c0: 49ae b9bd 1f46 563e af94 1dbd e562 4cbc
000001d0: 46b2 b33d 084b e3bd 1a6b 2cbe 11e6 563e
000001e0: 392b 973b 2d42 d83c de11 c93e 11ff 2bbe
000001f0: 80dc 78be 6011 0ebe 44a0 e63b a0fc f0bd
00000200: c19d b83d 8bc0 01be 6735 2f3d 6637 4bbe
00000210: 810d 2b3e 5ba3 06be 6e38 14bb 2e04 843d
00000220: 95be d63d 9825 0dbe 14fb b23e 4c21 40be
00000230: cb5b 89be 44f7 283c f5d1 cabb 5127 02be
00000240: 2f2c 52be 8103 92bd 6eb7 ebbd 557b 403e
00000250: aea6 40be 0f33 4a3d d6d1 a4bd fc2b fabd
00000260: d4cc babd 112f 6cbd 8884 04be 2080 55be
00000270: 23ab 053d b6c2 8b3e d3b5 9ebc 7b45 f6bd
00000280: e8cc dc3d 3ff5 28bd 876b ff3b 756d 06be
00000290: 4abb 85bc 7d34 4cbe 90b1 39be 3dd8 303e
000002a0: d2be 4bbc b80a 4dbc 3dcb 763e 2946 493e
000002b0: fc3d a73d 0a19 48bc 9732 123e 754a c4bd
000002c0: 2807 7c3e dd8a 5abe 88b9 053e 8ead ac3c
000002d0: 27e7 5b3e ca54 27be 297f 17be afce d0bc
000002e0: d0d2 9dbe a2ad 473e 4eef 79be 96f2 6b3e
000002f0: a41e 97be 614f 46be c6cb c8be 245b 6abe
00000300: 74df e23c a47c 073e b3f9 9cbd 1db1 2e3c
00000310: 4f01 5bbe 1aa0 74bd ec7b efbd a7d2 76be
00000320: 18bf e73d 2b9b 3ebe bbe9 883e 88e8 be3d
00000330: 56b9 563e 0717 45be 63fe 0bbe 447d 81be
00000340: 045a 8c3e 82d8 433e c0d2 cf38 8afc a7be
00000350: b6bd 513e 739c 323e febc ea3c 56ae c03b
00000360: 2820 423d 3258 c3be 2d26 3b3e 2f62 e43d
00000370: 8e36 53be 3fc4 363e af83 16be fa50 1d3e
00000380: fdcb 3a3c 048b 483e 2a83 6f3e f87a c3bd
00000390: 24f8 413e e897 0ebe 57bd 7cbc c273 2e3e
000003a0: 3bdf 19bf e590 1ebe a742 693c 3ff8 16bd
000003b0: 645d 3cbd 427c 5c3e 1fef a43e 0d81 a43d
000003c0: e330 8d3e 77f9 323e 6d0e cfbd 4208 f6bd
000003d0: bc8f 05be f6fe 5c3e 1dcd a13d a39c 9f3d
000003e0: 821d f63c f61c 943b 6950 c73d e0f6 a0be
000003f0: d0cf 1bbe 8eff ab3e 122c a9be 48ce 3abd

model.gnn.gnn_layers.0.graph_conv.bias f4 [64]
0.039388865 -0.052666634 0.00590395 0.027064368 -0.07841706 0.025946235 -0.029349195 -0.05949184
-0.07224687 -0.05298016 -0.03649111 -0.035069376 0.07280366 0.026748978 -0.0998973 0.005217345
-0.018175593 -0.051856786 -0.03928815 -0.084683776 0.080423295 0.024501503 -0.090297446 0.015565958
-0.07071288 -0.04175375 -0.0385959 0.006619191 -0.097017795 -0.06514562 -0.0010326637 -0.021738395
-0.0021626737 0.015892437 0.050769467 0.1060457 -0.017082784 -0.016459165 -0.051819317 -0.03542709
0.06547582 -0.07884468 -0.023984233 -0.005060264 -0.040589333 -0.018002866 0.030332386 0.003288358
-0.030531952 -0.022833247 0.03877345 0.0017705882 0.050222218 -0.091384895 0.03461691 0.0014403271
0.02211176 -0.037521355 0.11893102 -0.019722747 -0.005817076 -0.050382245 -0.014396086 -0.014083191
00000000: 3856 213d f8b8 57bd ec75 c13b 18b6 dd3c
00000010: 2099 a0bd 338d d43c b96d f0bc b7ad 73bd
00000020: 2bf6 93bd b901 59bd b477 15bd e8a4 0fbd
00000030: 161a 953d ac20 db3c f596 ccbd 43f6 aa3b
00000040: fbe4 94bc c867 54bd 9cec 20bd b06e adbd
00000050: f8b4 a43d 60b7 c83c deed b8bd 5c08 7f3c
00000060: ead1 90bd fb05 2bbd bc16 1ebd cce5 d83b
00000070: 44b1 c6bd 116b 85bd 725a 87ba b814 b2bc
00000080: a5bb 0dbb db30 823c a5f3 4f3d 7d2e d93d
00000090: 32f1 8bbc 5fd5 86bc 7e40 54bd ff1b 11bd
000000a0: 3018 863d 5279 a1bd 957a c4bc 92d0 a5bb
000000b0: 0041 26bd bf7a 93bc a07b f83c 7e81 573b
000000c0: 251e fabc ca0c bbbc e9d0 1e3d 1513 e83a
000000d0: d0b5 4d3d 0128 bbbd 76ca 0d3d 5cc9 bc3a
000000e0: b923 b53c feaf 19bd 1b92 f33d 9991 a1bc
000000f0: 2c9d bebb 9d5d 4ebd 90dd 6bbc 2fbd 66bc

model.gnn.gnn_layers.0.res_connection.weight f4 [64, 30]
0.056988373 0.024266174 -0.067534395 -0.20451374 -0.14690413 -0.14236446 0.046549816 0.20053782
0.004568263 -0.09593801 0.026390558 -0.20361686 -0.16833557 0.10439176 0.030319039 -0.14105536
-0.0048029125 -0.029601969 0.060950067 -0.020501861 -0.22394742 0.2188712 0.00016911328 -0.029711798
0.15178771 -0.31036273 -0.11907765 -0.012936779 0.13593686 -0.18103783 -0.2137064 -0.18076232
-0.013087074 0.0569928 0.081786156 0.08260814 -0.053663358 -0.024911493 -0.011964992 0.36582482
-0.03694664 -0.038171783 -0.12671593 0.044900604 -0.077981904 0.02568908 0.08469972 -0.04387601
-0.115837306 -0.15508734 -0.3347651 0.16791974 -0.1309904 -0.09053602 0.078540996 0.051941033
-0.01847002 0.056475475 0.022677824 0.1127277 0.09561797 0.0681345 0.009689007 0.07905027
-0.1650239 -0.008840627 0.16326393 -0.13577166 0.090705186 -0.17596926 0.19395885 -0.015706668
0.040517356 -0.2838794 0.22634383 -0.1408788 -0.28611454 -0.040898625 -0.09431759 -0.15769665
0.15030867 -0.15852676 -0.13634565 0.03725849 0.034542996 0.04255131 0.20680115 -0.035520837
-0.018437028 0.06683768 0.009201067 0.11885374 -0.16688475 0.0046142507 -0.022993675 0.1003655
0.030036446 -0.00033669174 -0.10496332 -0.13342635 0.18191421 -0.10891167 0.068473525 -0.41393268
-0.13549285 0.1835551 -0.18010682 0.08795894 -0.14754209 -0.12738478 0.16150759 -0.14377873
0.057642832 0.05286263 0.08516752 -0.10627091 -0.14591663 0.17254105 -0.06344378 -0.11688848
0.074260235 0.02691631 -0.12658218 -0.18859908 -0.039263308 -0.07931965 0.11493863 0.11906194
-0.1033113 -0.16389184 -0.24332517 0.085166596 0.023073953 0.02323975 0.21696664 -0.29623672
0.074131526 -0.23474267 -0.0642351 0.104045905 -0.13893022 -0.25348982 0.060109407 0.094001055
0.11474868 0.0012862415 -0.15929347 0.054607093 -0.15289275 -0.04106474 0.18019475 0.1468958
-0.111830175 -0.16258837 -0.13708659 -0.0063568945 -0.11736035 0.03973517 -0.17728329 -0.16552234
-0.17524649 0.008698898 0.18994832 -0.12208749 0.089549005 0.047100343 -0.19777453 -0.06176693
-0.212115 -0.064193234 0.16376948 -0.13582395 0.1500153 0.04518695 -0.09593312 -0.13746017
0.0012420405 -0.14490749 0.034382835 -0.037520826 -0.062353797 0.031131763 0.027033776 -0.07861906
0.07473509 0.05555072 -0.026178733 -0.10845907 -0.10767764 -0.09221281 0.25277033 0.1313254
0.16563481 0.014562635 0.027090702 -0.049401656 0.072970875 -0.22977789 -0.120334834 -0.19789636
0.12229236 0.024565954 -0.09805177 -0.034477636 -0.070925854 -0.24552464 0.11311325 -0.16707286
-0.028407201 0.008124456 -0.14283568 0.1274831 -0.117345996 -0.027588608 0.17506714 0.15551119
-0.15680191 -0.12975512 0.16011007 -0.045719948 0.029326832 -0.05877863 -0.121753246 -0.23854133
0.14794417 0.13031736 0.12309222 -0.13906138 0.029704284 0.12953973 -0.16461383 -0.109061
0.14841643 0.03790468 0.052340567 0.042810444 -0.17260796 0.16550237 0.15696862 -0.09060216
0.04677414 -0.02602001 0.14523757 -0.17703345 -0.09167757 0.025119433 0.045501597 0.14459418
-0.07832566 0.107936114 -0.23132981 -0.086195186 -0.06400445 -0.1485141 0.016879458 -0.1122883
00000000: a46c 693d dbc9 c63c 794f 8abd 0d6c 51be
00000010: 096e 16be fdc7 11be 05ab 3e3d c959 4d3e
00000020: 5eb1 953b 267b c4bd 0331 d83c f080 50be
00000030: 2960 2cbe 59cb d53d a25f f83c d170 10be
00000040: c061 9dbb d47f f2bc c7a6 793d 85f3 a7bc
00000050: 7952 65be c61f 603e 0054 3139 2866 f3bc
00000060: 3d6e 1b3e dde7 9ebe fcde f3bd c9f4 53bc
00000070: 0833 0b3e fb61 39be dad5 5abe c219 39be
00000080: 2b6b 56bc 4871 693d 807f a73d 752e a93d
00000090: 1cce 5bbd 3013 ccbc d008 44bc 644d bb3e
000000a0: 5c55 17bd 045a 1cbd d2c1 01be b2e9 373d
000000b0: fab4 9fbd e871 d23c 0c77 ad3d 55b7 33bd
000000c0: 1c3c edbd 37cf 1ebe 5566 abbe 27f3 2b3e
000000d0: 5922 06be f36a b9bd 1ada a03d 1fc0 543d
000000e0: 704e 97bc d452 673d d8c6 b93c c8dd e63d
000000f0: 5bd3 c33d 1a8a 8b3d a4be 1e3c 1ce5 a13d
00000100: 06fc 28be 47d8 10bc a92e 273e ba07 0bbe
00000110: a4c3 b93d 4931 34be 269d 463e 45ab 80bc
00000120: 87f5 253d a458 91be adc6 673e 8842 10be
00000130: 9b7d 92be 5185 27bd 9529 c1bd 3b7b 21be
00000140: 84ea 193e d754 22be 329e 0bbe 5c9c 183d
00000150: f57c 0d3d 484a 2e3d aec3 533e 4c7e 11bd
00000160: 4009 97bc 32e2 883d 12c0 163c 9769 f33d
00000170: d6e3 2abe 2433 973b 3b5d bcbc 6d8c cd3d
00000180: fe0e f63c 0086 b0b9 02f7 d6bd eba0 08be
00000190: b847 3a3e 150d dfbd d93b 8c3d fcee d3be
000001a0: a3be 0abe def5 3b3e ec6d 38be d123 b43d
000001b0: 4615 17be 2871 02be 3f62 253e bb3a 13be
000001c0: e41a 6c3d 7c86 583d 4f6c ae3d 90a4 d9bd
000001d0: 2b6b 15be 9aae 303e d0ee 81bd 3a63 efbd
000001e0: c015 983d 987f dc3c c29e 01be 1e20 41be
000001f0: 90d2 20bd 5772 a2bd f264 eb3d bfd6 f33d
00000200: e094 d3bd 43d3 27be 3c2a 79be d36b ae3d
00000210: 9605 bd3c 4a61 be3c 812c 5e3e 57ac 97be
00000220: 45d2 973d 6260 70be b18d 83bd 0516 d53d
00000230: b943 0ebe 6bc9 81be 4835 763d a083 c03d
00000240: 5b01 eb3d 1a97 a83a d41d 23be b0ab 5f3d
00000250: eb8f 1cbe 8033 28bd f984 383e da6b 163e
00000260: 3807 e5bd 917d 26be 6d60 0cbe 7f4d d0bb
00000270: a05a f0bd 58c1 223d c089 35be b07e 29be
00000280: d173 33be d385 0e3c d081 423e 0209 fabd
00000290: 7865 b73d 4aec 403d 6885 4abe 52ff 7cbd
000002a0: ad34 59be be77 83bd 30b3 273e 6f15 0bbe
000002b0: 9c9d 193e f415 393d 9578 c4bd 5cc2 0cbe
000002c0: f7cb a23a a162 14be 04d5 0c3d 70af 19bd
000002d0: b266 7fbd 0a08 ff3c f075 dd3c 0803 a1bd
000002e0: b60e 993d 2789 633d c874 d6bc ca1f debd
000002f0: 1886 dcbd 12da bcbd 1d6b 813e 2a7a 063e
00000300: 2c9c 293e 1e98 6e3c 52ed dd3c 6459 4abd
00000310: c171 953d e54a 6bbe 1c72 f6bd 58a5 4abe
00000320: 6b74 fa3d 8a3e c93c 5ecf c8bd 6c38 0dbd
00000330: 9341 91bd d06a 7bbe eba7 e73d 2615 2bbe
00000340: 38b6 e8bc 701c 053c 8443 12be ee8a 023e
00000350: 1953 f0bd 8101 e2bc cd44 333e 533e 1f3e
00000360: ae90 20be 87de 04be e5f3 233e d744 3bbd
00000370: d33e f03c dcc1 70bd c459 f9bd 2e44 74be
00000380: ad7e 173e ea71 053e c617 fc3d 1b66 0ebe
00000390: 6656 f33c 10a6 043e 8790 28be 605b dfbd
000003a0: 7afa 173e f041 1b3d 1063 563d 015a 2f3d
000003b0: 24c0 30be 7479 293e 62bc 203e a08d b9bd
000003c0: 3e96 3f3d ea27 d5bc 28b9 143e 4248 35be
000003d0: 73c1 bbbd 45c7 cd3c e25f 3a3d 7f10 143e
000003e0: 3469 a0bd 9c0d dd3d b9e1 6cbe 1a87 b0bd
000003f0: c414 83bd 1514 18be ca46 8a3c 69f7 e5bd

model.gnn.gnn_layers.0.res_connection.bias f4 [64]
-0.11463245 -0.140184 -0.098158665 0.022963237 0.028159706 -0.122327745 -0.11408873 -0.027341234
-0.093878105 -0.02902972 -0.09709951 -0.10338447 0.10996502 -0.010507818 -0.19333516 -0.15875068
0.0005762346 -0.032714143 -0.09792886 0.06661667 -0.018611282 -0.12359111 -0.10363043 0.14728628
-0.18773152 0.064716995 -0.07796643 0.10911482 -0.014432562 0.12160571 -0.059129667 -0.031698946
-0.13202837 -0.02365301 -0.0042809783 -0.129061 -0.024231464 -0.01220209 0.029429607 -0.086123265
-0.106382556 0.014521909 0.19391239 -0.10883504 0.075605094 0.00019197083 -0.19430926 -0.14992248
-0.031141445 -0.025114017 -0.20862071 0.10127626 -0.074584864 -0.06960756 0.018890094 0.12423726
0.15174784 0.06945629 0.038253833 0.014139339 -0.042394187 -0.028697811 0.07534704 -0.11568739
00000000: 6bc4 eabd 658c 0fbe 6907 c9bd 661d bc3c
00000010: 2faf e63c f886 fabd 5aa7 e9bd b9fa dfbc
00000020: 2a43 c0bd bccf edbc 1cdc c6bd 3dbb d3bd
00000030: 5735 e13d fc28 2cbc a7f9 45be 8a8f 22be
00000040: 730e 173a 44ff 05bd ed8e c8bd 526e 883d
00000050: b076 98bc 561d fdbd 313c d4bd 37d2 163e
00000060: b13c 40be 588a 843d ddac 9fbd 9777 df3d
00000070: 8d76 6cbc 6a0c f93d f331 72bd c1d6 01bd
00000080: 7232 07be f5c3 c1bc 7347 8cbb 9128 04be
00000090: 1081 c6bc 46eb 47bc 5c16 f13c 6561 b0bd
000000a0: 19df d9bd 4ded 6d3c f890 463e e8e4 debd
000000b0: d8d6 9a3d c74b 4939 02f9 46be 4785 19be
000000c0: 581c ffbc e9bb cdbc aba0 55be ee69 cf3d
000000d0: f3bf 98bd 698e 8ebd 66bf 9a3c 1b70 fe3d
000000e0: c963 1b3e 193f 8e3d 0db0 1c3d b0a8 673c
000000f0: 87a5 2dbd ac17 ebbc 8d4f 9a3d 83ed ecbd

model.gnn.gnn_layers.1.graph_conv.weight f4 [64, 64]
-0.39207065 0.037194632 -0.084958024 -0.051001407 0.0011472071 0.042365033 -0.26097062 0.16096981
0.038806293 -0.19698481 -0.24336764 0.018252635 -0.15450047 -0.025933666 0.061950397 -0.2979684
-0.21315126 -0.13666289 -0.012193549 0.0733615 -0.09618225 -0.083648026 0.10299426 0.027469397
-0.121259525 -0.24556696 0.08435811 0.14325143 -0.0063462444 -0.03447018 -0.22319995 0.060605038
-0.054129954 0.04688361 -0.2706361 0.18015632 -0.09777923 -0.046162006 0.01066381 -0.21802466
0.17603251 -0.05667705 0.055282027 0.19331808 -0.043393556 -0.34421495 0.093989335 0.1800296
-0.011489511 -0.043070097 0.051638898 -0.12427777 -0.14620693 -0.03592191 0.25206614 0.09602097
0.265402 -0.13231346 -0.1294173 0.108670965 -0.054631434 -0.018267231 0.07256361 -0.20545104
-0.08568887 -0.15710357 -0.14041549 -0.32048646 0.2422566 -0.29853898 0.026079034 0.08905525
-0.20797712 -0.12073081 -0.05429579 0.015409304 -0.028677505 -0.321749 0.19970962 -0.042124495
0.012746983 -0.15870976 0.030022971 -0.13881075 -0.18118785 -0.1963064 0.10143571 0.09252522
-0.3953453 0.120846 0.0726407 -0.29600903 -0.25439966 0.06728772 -0.19739628 0.17576104
0.13763125 -0.026120352 0.16291043 -0.08357028 0.12364019 -0.2202834 0.23454833 -0.03171019
-0.14192775 -0.029730732 0.11893045 -0.38169625 0.11146236 -0.31583244 -0.28235954 -0.0781223
0.1910313 0.13983396 -0.12390835 -0.23736985 -0.097484924 0.07650195 0.08560374 -0.17120309
0.024290552 0.14970519 -0.22153863 -0.17880028 0.23845378 -0.079270095 -0.18640387 -0.06621469
-0.07345518 -0.08240912 -0.07670567 0.018882792 0.19087218 -0.039213676 0.017613312 0.17823958
-0.22102033 0.18506075 0.040713914 -0.026707636 -0.1467482 0.04677958 0.16113393 0.11169367
0.2019357 0.032989595 -0.16947998 -0.042997442 -0.18310453 -0.1534476 -0.10790914 0.039084595
0.07704139 0.12461079 -0.018160336 0.20419843 0.09365373 -0.14767171 0.19117478 0.03204775
0.15844737 -0.14069773 0.24979013 0.16389704 0.28087118 -0.25423044 0.13975845 -0.14895532
0.060453057 0.034012076 -0.10744244 0.08959642 0.198112 0.054549605 0.0054688496 -0.06801902
0.16973825 -0.09534802 -0.18779072 0.020411376 -0.18690844 -0.18067168 -0.15884276 -0.19218293
0.18169893 0.0355683 -0.073926665 0.072337456 -0.24181384 -0.18538909 0.05870594 -0.104902096
-0.19729578 -0.034549855 0.094674885 -0.114946954 -0.09527376 0.015830731 -0.13994044 0.12810153
-0.08939552 -0.043638542 0.123464115 -0.03185013 -0.33435306 0.113800645 -0.08926544 0.16804847
0.12051312 0.058684804 -0.1454775 -0.17371547 -0.051410668 0.08362049 0.028365364 0.046264075
0.15738204 0.039608218 -0.13236964 0.20811369 -0.058689866 -0.07874721 0.110296816 -0.162703
-0.08309526 0.20315889 -0.17845057 0.03199478 -0.14076373 -0.038333725 -0.1985449 -0.08748239
0.005753107 0.06259753 -0.12355511 0.06990667 -0.08907936 -0.16848345 0.15188438 -0.12859806
-0.21364313 -0.27467448 -0.18789929 0.121853545 -0.09289261 0.20394903 -0.015437176 0.010933675
-0.52612936 0.22552234 -0.091997445 -0.018439094 -0.20376961 0.06702815 -0.2345818 0.07638218
00000000: 7cbd c8be 6659 183d 79fe adbd dae6 50bd
00000010: e25d 963a f586 2d3d f19d 85be 45d5 243e
00000020: 59f3 1e3d 63b6 49be 5e35 79be 8d86 953c
00000030: 5f35 1ebe d772 d4bc b3bf 7d3d 508f 98be
00000040: 5344 5abe 5bf1 0bbe 74c7 47bc 8e3e 963d
00000050: 33fb c4bd a84f abbd a8ee d23d 8007 e13c
00000060: ea56 f8bd e875 7bbe f2c3 ac3d 81b0 123e
00000070: 28f4 cfbb 9a30 0dbd 878e 64be fd3c 783d
00000080: 5fb7 5dbd 0709 403d d190 8abe e67a 383e
00000090: 7a40 c8bd 5f14 3dbd 43b7 2e3c db41 5fbe
000000a0: de41 343e 3226 68bd 686f 623d 2df5 453e
000000b0: 71bd 31bd f13c b0be 7b7d c03d ae59 383e
000000c0: 803e 3cbc 456a 30bd 4f83 533d 5885 febd
000000d0: 45b7 15be da22 13bd d00e 813e a4a6 c43d
000000e0: c5e2 873e 2e7d 07be f885 04be e28e de3d
000000f0: 36c5 5fbd 29a5 95bc 3b9c 943d c261 52be
00000100: a57d afbd c2df 20be 14c9 0fbe cd16 a4be
00000110: 1d12 783e 1ada 98be b3a3 d53c 9962 b63d
00000120: f4f7 54be b741 f7bd 4365 5ebd 4e77 7c3c
00000130: 16ed eabc 49bc a4be ae80 4c3e bc8a 2cbd
00000140: b9d8 503c d084 22be bcf2 f53c 6824 0ebe
00000150: 4f89 39be 8b04 49be 87bd cf3d dd7d bd3d
00000160: b36a cabe 1c7e f73d a6c4 943d 7f8e 97be
00000170: ac40 82be 25ce 893d 4022 4abe b4fa 333e
00000180: 35ef 0c3e 59fa d5bc fed1 263e e526 abbd
00000190: 1137 fd3d f991 61be 702d 703e 8be2 01bd
000001a0: 8255 11be dd8d f3bc cf91 f33d b16d c3be
000001b0: 6146 e43d cab4 a1be 6e91 90be 96fe 9fbd
000001c0: b69d 433e a230 0f3e a9c3 fdbd 1511 73be
000001d0: 2da6 c7bd 0ead 9c3d 0351 af3d dd4f 2fbe
000001e0: fbfc c63c 514c 193e 06db 62be 6c17 37be
000001f0: 3a2d 743e 5c58 a2bd a8e0 3ebe 919b 87bd
00000200: ab6f 96bd 1dc6 a8bd dd17 9dbd 16b0 9a3c
00000210: ff73 433e 859e 20bd cb49 903c 7084 363e
00000220: 2753 62be 9180 3d3e a2c3 263d f9c9 dabc
00000230: 2945 16be f29b 3f3d 4b00 253e a7bf e43d
00000240: 3bc8 4e3e 1920 073d 298c 2dbe 161e 30bd
00000250: c17f 3bbe 5e21 1dbe 78ff dcbd 2b17 203d
00000260: e0c7 9d3d f133 ff3d fcc4 94bc 6519 513e
00000270: 87cd bf3d 4137 17be 52c3 433e 8044 033d
00000280: 0740 223e 1113 10be fcc8 7f3e a0d4 273e
00000290: 59ce 8f3e 7e2a 82be d71c 0f3e be87 18be
000002a0: a09d 773d 3f50 0b3d c80a dcbd 547e b73d
000002b0: dfdd 4a3e 686f 5f3d 0934 b33b 8e4d 8bbd
000002c0: ddcf 2d3e d345 c3bd 364c 40be c235 a73c
000002d0: ed64 3fbe ff01 39be ada7 22be 9acb 44be
000002e0: 490f 3a3e 11b0 113d dd66 97bd a925 943d
000002f0: 0c9e 77be a3d6 3dbe a475 703d e9d6 d6bd
00000300: e807 4abe 2684 0dbd e8e4 c13d 4f69 ebbd
00000310: e41e c3bd 73af 813c 8c4c 0fbe 0c2d 033e
00000320: 0015 b7bd 54be 32bd c1da fc3d 4875 02bd
00000330: 5330 abbe 5010 e93d cdd0 b6bd e614 2c3e
00000340: 95cf f63d 7a5f 703d 0ef8 14be 78e2 31be
00000350: fe93 52bd 3841 ab3d 7b5e e83c 667f 3d3d
00000360: c228 213e 3a3c 223d e88b 07be c11b 553e
00000370: c964 70bd 3846 a1bd 4ce3 e13d 9d9b 26be
00000380: d92d aabd e208 503e bfbb 36be f50c 033d
00000390: 5e24 10be d303 1dbd 5b4f 4bbe f829 b3bd
000003a0: 8f84 bc3b 2233 803d 760a fdbd 3a2b 8f3d
000003b0: 3d6f b6bd ed86 2cbe 9487 1b3e 36af 03be
000003c0: 44c5 5abe 22a2 8cbe ac68 40be 5a8e f93d
000003d0: 7b3e bebd 04d8 503e 36ec 7cbc 2823 333c
000003e0: 6ab0 06bf 54ef 663e 2869 bcbd 950d 97bc
000003f0: fba8 50be 0e46 893d 3636 70be 436e 9c3d

model.gnn.gnn_layers.1.graph_conv.bias f4 [64]
0.012048563 -0.08125071 -0.02253709 -0.10139759 -0.01183996 -0.029584548 0.0009969972 -0.036364604
-0.09078293 -0.03647894 -0.04979703 -0.04465498 0.0080538 -0.18775342 -0.017122926 -0.03631485
-0.06193979 -0.047673915 -0.07833133 -0.024660567 -0.0056468407 -0.072950564 -0.04966646 -0.1771425
-0.13099189 -0.12319494 -0.07626577 -0.12651944 -0.10818063 -0.08844468 -0.07956003 -0.08196977
-0.031519156 -0.0965507 -0.022341525 -0.047132477 -0.01621143 -0.02441419 -0.09305003 -0.024272643
-0.028258545 -0.07221593 0.003901908 -0.026083507 -0.060268264 -0.06581037 -0.0036991078 -0.03898731
-0.0704115 -0.03421409 -0.1320274 -0.09171691 -0.05714034 -0.031856254 -0.053449467 0.0011813038
0.0013546585 -0.054095436 0.06542597 -0.029386848 -0.0625066 -0.021499751 -0.049628947 -0.09661621
00000000: 5667 453c c666 a6bd b49f b8bc 8aa9 cfbd
00000010: 64fc 41bc 4b5b f2bc adad 823a 0df3 14bd
00000020: 67ec b9bd f16a 15bd f8f7 4bbd 24e8 36bd
00000030: 16f4 033c 6f42 40be 6145 8cbc e1be 14bd
00000040: 94b4 7dbd b945 43bd 2d6c a0bd f504 cabc
00000050: 2209 b9bb 1b67 95bd 0f6f 4bbd d864 35be
00000060: bd22 06be a14d fcbd 3a31 9cbd 508e 01be
00000070: ce8d ddbd 7c22 b5bd 5ef0 a2bd c4df a7bd
00000080: 3b1a 01bd 60bc c5bd 9305 b7bc fc0d 41bd
00000090: d5cd 84bc 4400 c8bc 0491 bebd 6cd7 c6bc
000000a0: 777e e7bc f2e5 93bd 27b7 7f3b 14ad d5bc
000000b0: dbdb 76bd 96c7 86bd bb6c 72bb 28b1 1fbd
000000c0: e833 90bd 1324 0cbd 3132 07be 13d6 bbbd
000000d0: fd0b 6abd b47b 02bd d4ed 5abd fad5 9a3a
000000e0: cc8e b13a 2d93 5dbd 0dfe 853d b0bc f0bc
000000f0: 7603 80bd 3f20 b0bc b947 4bbd b8de c5bd

model.gnn.gnn_layers.1.res_connection.weight f4 [64, 64]
-0.17723353 0.09513341 -0.091705136 -0.07463666 -0.020162879 -0.20391552 0.083043896 -0.05062049
-0.027064513 0.028186118 -0.031568788 -0.047070444 -0.1495162 -0.05545415 -0.0062784366 -0.005056999
-0.17623064 -0.09209786 0.074110605 -0.04895157 -0.0004792235 -0.2907159 -0.13110806 -0.033282302
-0.02796083 -0.017976983 0.1742426 -0.08590431 0.12363377 0.013808799 -0.14715087 0.10228039
-0.045637324 0.047844313 0.032413296 -0.04045356 0.05261752 0.054632578 -0.00043754326 -0.12696825
0.023873344 -0.09679107 -0.029786976 0.01788167 0.06976819 0.040060893 -0.027846498 -0.047805935
0.08074319 0.0327722 -0.19745138 0.06333965 -0.030506495 -0.06665177 -0.050198488 -0.095763475
0.046736933 -0.08265421 0.08372557 -0.13745846 -0.0576637 -0.037474655 0.0198009 0.008921243
-0.111993544 -0.49218604 0.14054239 0.08278813 0.09085353 0.0538919 -0.13326137 -0.082184166
-0.031735435 0.08991752 0.16038084 -0.038609724 0.029642634 -0.16710272 -0.038771696 0.17571363
-0.0012657776 -0.13700387 0.0022215317 0.17714323 0.003697112 -0.08719718 -0.16591616 0.0592855
0.003071547 -0.188699 0.08054172 0.21238284 -0.039021093 0.07899341 0.29051933 -0.23959729
-0.0047269957 -0.14740527 0.10571825 -0.07622549 -0.12969433 -0.0064378637 0.2547141 -0.15745625
0.036197096 -0.000531903 0.008173378 -0.17000903 -0.07132103 -0.06091147 -0.26622337 -0.08485226
0.0047746957 -0.12959492 0.15882912 -0.012274517 0.013517676 -0.124122 0.12323648 -0.16419204
0.027631674 -0.23752709 0.23330452 -0.08380267 0.1790043 0.064867765 0.004436035 -0.16525505
0.0834833 -0.042533856 -0.13124461 -0.14936368 -0.0074279476 -0.23751529 -0.10441496 0.25779688
0.1390955 0.037549842 -0.054196008 0.09926935 -0.10926558 0.48714352 -0.17549232 -0.24061652
0.06453201 -0.01293132 -0.15702154 -0.08124121 -0.120298885 0.083079174 0.15739869 -0.34566733
-0.19062382 0.035854056 -0.33037952 -0.10898576 0.002727182 0.0058515216 -0.15243027 0.1440959
0.0007930865 0.034519725 0.08565111 0.111285806 0.05238029 0.07284327 0.09914028 -0.11971081
0.16481735 -0.021054562 -0.10110966 0.13979256 0.07161346 -0.076808624 -0.021074155 0.019552624
-0.06432186 0.1155175 -0.08738106 -0.16699466 0.12997153 0.06194725 0.08259592 0.084792465
0.059271295 -0.039663095 0.007249157 -0.13893132 -0.01439988 -0.13686132 0.030582111 -0.25392637
-0.13368459 -0.2323763 -0.02637218 0.05741654 -0.26756147 0.21315156 -0.02033619 -0.20520607
0.15379125 0.15333949 -0.0841948 -0.026873866 -0.41806749 -0.0938955 0.074119315 0.0037989786
0.11604736 -0.12404498 0.07738623 -0.007510335 -0.06726812 0.10094322 0.04861877 -0.19015543
-0.3099662 -0.086632825 0.21071231 -0.1940884 -0.008289436 0.03365604 -0.50977725 -0.2687701
0.12676355 0.10478118 -0.3359667 -0.092222035 0.07592026 -0.068532854 0.051956095 0.21905154
-0.017323177 -0.16639286 0.06593234 0.050309878 0.062290948 0.1623566 0.08555231 -0.34044737
0.058497764 -0.15367743 -0.097663596 -0.14919214 0.02528715 -0.06729272 0.3132487 0.10542107
0.14091633 -0.19773705 0.013317928 -0.13013788 0.073882185 0.02756071 -0.049595434 -0.09689341
00000000: b57c 35be 4ed5 c23d e7cf bbbd 1bdb 98bd
00000010: 9f2c a5bc 3bcf 50be eb12 aa3d 6e57 4fbd
00000020: 66b6 ddbc 93e6 e63c 464e 01bd f0cc 40bd
00000030: c61a 19be e423 63bd 58bb cdbb 2fb5 a5bb
00000040: ce75 34be ce9d bcbd 4dc7 973d 7181 48bd
00000050: 4a40 fbb9 b7d8 94be 3141 06be 0653 08bd
00000060: 1c0e e5bc 7744 93bc a76c 323e 99ee afbd
00000070: b433 fd3d 4d3e 623c b8ae 16be 6278 d13d
00000080: 34ee 3abd 66f8 433d cec3 043d a2b2 25bd
00000090: 7885 573d 69c6 5f3d 1066 e5b9 f703 02be
000000a0: 0892 c33c 663a c6bd d103 f4bc 947c 923c
000000b0: a0e2 8e3d e416 243d 571e e4bc 28d0 43bd
000000c0: b05c a53d 243c 063d b230 4abe 38b8 813d
000000d0: c2e8 f9bc b980 88bd ee9c 4dbd a41f c4bd
000000e0: 3a6f 3f3d 9c46 a9bd 5078 ab3d e9c1 0cbe
000000f0: c630 6cbd 067f 19bd 7f35 a23c 682a 123c
00000100: df5c e5bd cfff fbbe 58ea 0f3e d38c a93d
00000110: 6a11 ba3d c1bd 5c3d ab75 08be 2c50 a8bd
00000120: 04fd 01bd ad26 b83d e03a 243e 3b25 1ebd
00000130: 1cd5 f23c fa1c 2bbe 12cf 1ebd 46ee 333e
00000140: 73e8 a5ba be4a 0cbe 1e97 113b 0965 353e
00000150: 3f4b 723b 6f94 b2bd ede5 29be 5ad5 723d
00000160: 024c 493b 503a 41be 0ff3 a43d e37a 593e
00000170: 95d4 1fbd 4cc7 a13d f3be 943e fe58 75be
00000180: eae4 9abb 68f1 16be cf82 d83d 1c1c 9cbd
00000190: 97ce 04be b7f4 d2bb e369 823e 363c 21be
000001a0: 6843 143d 686f 0bba a2e9 053c d916 2ebe
000001b0: c310 92bd 4e7e 79bd 6e4e 88be 06c7 adbd
000001c0: 0d75 9c3b 88b4 04be 1aa4 223e 0e1b 49bc
000001d0: 3e79 5d3c ad33 febd 6863 fc3d f521 28be
000001e0: d25b e23c 4d3a 73be 61e7 6e3e bca0 abbd
000001f0: e74c 373e 64d9 843d 295c 913b 9f38 29be
00000200: 4bf9 aa3d fb37 2ebd fd64 06be cbf2 18be
00000210: 2466 f3bb 3537 73be 83d7 d5bd f4fd 833e
00000220: 0d6f 0e3e ddcd 193d a2fc 5dbd bb4d cb3d
00000230: a2c6 dfbd e06a f93e 42b4 33be 2d64 76be
00000240: 5c29 843d e3dd 53bc 41ca 20be cb61 a6bd
00000250: 435f f6bd 6a25 aa3d 1f2d 213e 4ffb b0be
00000260: e432 43be b4db 123d 8127 a9be ed33 dfbd
00000270: 86ba 323b 1fbe bf3b ae16 1cbe e08d 133e
00000280: 22e7 4f3a 8e64 0d3d d969 af3d d0e9 e33d
00000290: b78c 563d da2e 953d 0f0a cb3d f12a f5bd
000002a0: e1c5 283e 9e7a acbc 9512 cfbd c825 0f3e
000002b0: 14aa 923d d74d 9dbd b5a3 acbc d32c a03c
000002c0: 2ebb 83bd 7094 ec3d d7f4 b2bd a600 2bbe
000002d0: 4217 053e 66bc 7d3d 0d28 a93d aca7 ad3d
000002e0: 75c6 723d c575 22bd 568a ed3b 0344 0ebe
000002f0: 79ed 6bbc 6025 0cbe 5687 fa3c a302 82be
00000300: 9de4 08be 0ef4 6dbe 780a d8bc 9b2d 6b3d
00000310: d1fd 88be 6744 5a3e 1598 a6bc 8a21 52be
00000320: 747b 1d3e 0705 1d3e 536e acbd 9526 dcbc
00000330: f10c d6be 494c c0bd decb 973d 49f8 783b
00000340: 3daa ed3d 4b0b febd ac7c 9e3d 4219 f6bb
00000350: dec3 89bd 52bb ce3d 7a24 473d 1bb8 42be
00000360: e4b3 9ebe 8d6c b1bd f8c4 573e 1cbf 46be
00000370: 6ad0 07bc eada 093d c380 02bf 3c9c 89be
00000380: 4ece 013e 8497 d63d d403 acbe e8de bcbd
00000390: 157c 9b3d f45a 8cbd eacf 543d 0c4f 603e
000003a0: 56e9 8dbc e462 2abe 8907 873d bb11 4e3d
000003b0: cb24 7f3d cf40 263e 0d36 af3d 1e4f aebe
000003c0: 5a9b 6f3d 9e5d 1dbe da03 c8bd d3c5 18be
000003d0: ff26 cf3c c4d0 89bd 2262 a03e 00e7 d73d
000003e0: 5f4c 103e 957b 4abe 7033 5a3c dd42 05be
000003f0: 8b4f 973d 00c7 e13c 9524 4bbd 0d70 c6bd

model.gnn.gnn_layers.1.res_connection.bias f4 [64]
0.013559947 0.082967214 -0.13431005 -0.12741657 -0.04177645 -0.20835648 0.103446655 -0.060734566
-0.08094341 0.08303264 0.04595026 -0.06776669 0.025426531 0.0020766065 -0.09547212 0.07943365
0.076894954 -0.0678874 -0.07964668 -0.17418846 -0.08002209 -0.07957496 -0.06447692 0.1159681
-0.09172703 -0.06018019 0.010297418 -0.12862386 -0.059165586 0.007421934 0.020693747 -0.10699804
0.10444773 -0.13131198 0.06526828 -0.15285462 0.010496095 -0.072328515 0.09591035 0.010862163
-0.021602465 0.07960031 -0.019612877 -0.061991733 0.042162556 0.024875069 -0.105558835 -0.15556933
0.007853944 0.09328414 0.1000729 -0.12826008 -0.009158736 -0.068314865 0.078711264 -0.04750002
0.06806285 -0.04362083 0.08607354 0.017582776 0.07247144 -0.058224507 0.003729283 0.0033484297
00000000: 8a2a 5e3c b7ea a93d 9388 09be 7d79 02be
00000010: c81d 2bbd 675b 55be d7db d33d cfc4 78bd
00000020: a9c5 a5bd 040d aa3d 5736 3c3d 43c9 8abd
00000030: 4d4b d03c ad17 083b e386 c3bd 1cae a23d
00000040: 1a7b 9d3d 8d08 8bbd cc1d a3bd 765e 32be
00000050: 9fe2 a3bd 32f8 a2bd 7a0c 84bd af80 ed3d
00000060: 62db bbbd 817f 76bd 80b6 283c f9b5 03be
00000070: 9d57 72bd b233 f33b ef85 a93c ca21 dbbd
00000080: b1e8 d53d a676 06be 60ab 853d ec85 1cbe
00000090: d0f7 2b3c f920 94bd a56c c43d 37f7 313c
000000a0: a7f7 b0bc 7d05 a33d 2fab a0bc 0beb 7dbd
000000b0: a5b2 2c3d cdc6 cb3c 3b2f d8bd 914d 1fbe
000000c0: d4ad 003c c10b bf3d 05f3 cc3d 9c56 03be
000000d0: 860e 16bc aae8 8bbd 5f33 a13d 628f 42bd
000000e0: 8964 8b3d c1ab 32bd 5347 b03d c109 903c
000000f0: e86b 943d d27c 6ebd fd66 743b 5471 5b3b

model.readout.weight_and_sum.atom_weighting.0.weight f4 [1, 64]
-0.19510292 -0.08133858 -0.13528268 0.090538606 0.23544508 -0.050216507 0.014589596 -0.24571969
-0.10955019 -0.11012637 -0.19595298 -0.13148597 -0.047965318 -0.08156391 -0.24788675 0.025862072
0.12127702 -0.12145932 -0.122491755 -0.081076354 0.08145107 -0.062233984 -0.3250186 -0.07954468
-0.07897095 0.011306078 -0.26674637 0.025374701 -0.11531764 0.102354206 -0.15323384 -0.262682
0.0065158424 -0.11007078 -0.27098638 -0.20057486 -0.07415243 -0.1009209 -0.022187281 -0.21782063
0.12524565 0.024595283 -0.034849398 -0.11871005 -0.055434067 0.07944154 -0.08115686 -0.21541417
0.049826354 -0.27473238 -0.024906779 0.19179742 -0.12561047 -0.17748801 -0.23087679 -0.092056856
-0.009370652 0.012287312 0.10127171 -0.13700315 0.033801645 0.0020225162 -0.0151952375 -0.060091134
00000000: 0fc9 47be d794 a6bd 8b87 0abe 4e6c b93d
00000010: 8418 713e d3af 4dbd 3309 6f3c f19d 7bbe
00000020: da5b e0bd ef89 e1bd e6a7 48be 42a4 06be
00000030: 4877 44bd fb0a a7bd 06d6 7dbe b2dc d33c
00000040: 1660 f83d aabf f8bd f5dc fabd 5c0b a6bd
00000050: d2cf a63d 10e9 7ebd d768 a6be 52e8 a2bd
00000060: 85bb a1bd 213d 393c fb92 88be 9bde cf3c
00000070: a82b ecbd 159f d13d 55e9 1cbe 417e 86be
00000080: d982 d53b ca6c e1bd babe 8abe 7f63 4dbe
00000090: 3bdd 97bd 9eaf cebd 1ac2 b5bc 5f0c 5fbe
000000a0: 6540 003e 0c7c c93c 3ebe 0ebd 411e f3bd
000000b0: d50e 63bd 3fb2 a23d 9135 a6bd 8895 5cbe
000000c0: b816 4c3d b9a9 8cbe 4d09 ccbc 8b66 443e
000000d0: 08a0 00be 6bbf 35be f76a 6cbe 4e88 bcbd
000000e0: 5d87 19bc b950 493c 8b67 cf3d 8e4a 0cbe
000000f0: 9873 0a3d 318c 043b 72f5 78bc 1f22 76bd

model.predict.predict.1.weight f4 [64, 128]
-0.08691182 -0.059148304 0.038722668 0.026239363 -0.2545567 0.0822216 -0.16557196 0.042777658
0.034086037 -0.031200362 -0.08383419 0.07563486 -0.12949783 -0.23042268 0.0033969563 -0.050958257
0.023376267 -0.18926923 -0.15192989 0.047463536 -0.23966905 -0.12908219 -0.018887687 0.23507982
-0.046373487 0.0010406662 -0.03003131 -0.08273676 -0.062916264 0.037810616 -0.07388707 0.008309856
-0.07441979 -0.100034416 -0.03044239 -0.008646613 -0.0060936115 -0.07878464 -0.033593036 -0.054877035
-0.07810407 -0.014022937 -0.086606726 -0.025602184 0.08759545 -0.046304937 -0.007746834 -0.02041532
-0.041086275 -0.13953118 0.028183268 0.020661749 0.024417834 -0.02484667 -0.036970403 -0.09555868
-0.0018312562 0.04615104 -0.099094056 -0.08862579 0.036834564 -0.086291105 -0.101569116 -0.032339506
-0.04292237 -0.07107122 0.085231446 0.038698778 -0.26851368 0.020103903 -0.1748033 -0.004116379
0.030902397 0.066576935 0.061871678 0.053940676 -0.09364352 0.16268551 -0.03441072 -0.045925338
0.32525894 -0.112209156 0.084030785 -0.031447243 -0.0076154834 -0.0108892 0.08012507 0.20596702
0.01442013 0.03984666 0.027857685 -0.1491852 0.11117298 0.09582936 -0.052906904 0.025438262
0.01324724 0.03480028 -0.06545099 -0.09565861 -0.007352925 0.00791113 0.017433742 -0.0050080474
0.1661408 0.035507407 -0.06792552 0.102864526 0.055058762 -0.013567016 -0.112437256 -0.0006419489
-0.10355589 -0.24351826 0.08916779 -0.118401036 0.010656173 0.09060229 0.14089769 0.060780134
-0.029254172 -0.20959812 -0.058984064 0.046494734 0.061292354 0.034008626 -0.066112734 -0.024184005
0.008026478 0.0014125777 -0.0025545747 -0.001472629 -0.25900003 0.007003112 -0.046919227 -0.059303295
-0.011897762 -0.043119546 0.016300285 -0.025723252 0.021055967 0.14213105 0.040372543 0.08030181
-0.090308376 -0.15160912 -0.055820063 -0.06781322 -0.03578649 0.05342394 -0.0019061192 0.14182237
0.013099685 0.075035565 -0.029715518 0.022349745 -0.15962607 0.0010311039 0.028316123 0.0044085486
-0.015843837 -0.05339988 0.07116252 -0.011518175 -0.060268074 -0.020400187 -0.025304962 -0.008335141
0.060016416 -0.017522441 -0.08269703 0.009718105 0.017690351 0.020432575 0.011891183 -0.050571233
0.053579066 0.09979129 0.11080125 0.1024857 -0.1494274 -0.01832039 0.028345162 0.076180495
-0.2633248 0.015501525 -0.09095372 0.007257656 -0.059182037 -0.047356587 -0.098603256 0.0016812478
0.010455511 0.008358412 0.13874072 -0.0005183046 -0.14771324 0.12562361 0.10086179 -0.08587017
0.059894953 -0.04646491 0.04142451 -0.21409933 -0.14547823 0.14036055 0.052613873 0.13502468
0.08930973 -0.17908242 0.117146276 0.020939674 -0.08154828 0.01113659 0.011701884 0.1321946
-0.06901897 -0.054989673 -0.21491623 -0.0044934973 0.036088757 0.020280594 -0.01564506 -0.015830103
0.07150046 -0.06418808 -0.07101959 -0.018720035 0.09097379 -0.019734506 -0.17859152 -0.018699996
0.122876465 -0.028707614 -0.1447844 0.07100403 -0.118671015 0.070097856 -0.034070335 0.0038898224
-0.15822074 -0.036617063 0.02117883 0.09272354 -0.29793632 0.06105085 -0.055977605 -0.09496372
-0.3586545 -0.3098372 -0.078540325 0.031145945 0.08905611 -0.052535933 -0.02138929 0.039376423
00000000: d3fe b1bd 7e45 72bd a99b 1e3d eff3 d63c
00000010: 4155 82be cc63 a83d b28b 29be a037 2f3d
00000020: cd9d 0b3d e797 ffbc 43b1 abbd 73e6 9a3d
00000030: 149b 04be ecf3 6bbe 789f 5e3b 9bb9 50bd
00000040: 967f bf3c cbcf 41be 8293 1bbe 2069 423d
00000050: ce6b 75be 1f2e 04be 5aba 9abc c4b8 703e
00000060: 20f2 3dbd f766 883a 3904 f6bc e471 a9bd
00000070: 3eda 80bd 4edf 1a3d 1b52 97bd 1026 083c
00000080: 6769 98bd d8de ccbd 5262 f9bc 86aa 0dbc
00000090: ebac c7bb d759 a1bd da98 09bd bec6 60bd
000000a0: 07f5 9fbd 76c0 65bc de5e b1bd acbb d1bc
000000b0: 3e65 b33d 3faa 3dbd 27d9 fdbb 073e a7bc
000000c0: 154a 28bd 43e1 0ebe 99e0 e63c d442 a93c
000000d0: e907 c83c 3e8b cbbc 476e 17bd 45b4 c3bd
000000e0: c306 f0ba df08 3d3d d3f1 cabd 7081 b5bd
000000f0: d7df 163d 64b9 b0bd 7803 d0bd 6e76 04bd
00000100: 5ecf 2fbd ca8d 91bd d38d ae3d 9c82 1e3d
00000110: a07a 89be f1b0 a43c a3ff 32be b1e2 86bb
00000120: 0627 fd3c 7d59 883d 286d 7d3d e6f0 5c3d
00000130: 2cc8 bfbd 0897 263e 41f2 0cbd 351c 3cbd
00000140: 5788 a63e eacd e5bd 5518 ac3d d3ce 00bd
00000150: 4e8b f9bb 9d68 32bc 9d18 a43d 05e9 523e
00000160: 6942 6c3c 4036 233d cd35 e43c 01c4 18be
00000170: a9ae e33d 2f42 c43d e9b4 58bd e763 d03c
00000180: f40a 593c bd8a 0e3d 2b0b 86bd a9e8 c3bd
00000190: cef0 f0bb af9d 013c 35d1 8e3c 8c1a a4bb
000001a0: d020 2a3e 3770 113d 891c 8bbd a3aa d23d
000001b0: 4c85 613d 3148 5ebc 8145 e6bd 7648 28ba
000001c0: 1c15 d4bd da5c 79be 9a9d b63d 3e7c f2bd
000001d0: 3b97 2e3c b28d b93d 7c47 103e 97f4 783d
000001e0: 72a6 efbc e4a0 56be 4699 71bd 4371 3e3d
000001f0: b10d 7b3d a14c 0b3d 1d66 87bd 891d c6bc
00000200: 7d81 033c 3e26 b93a a76a 27bb 3b05 c1ba
00000210: a79b 84be 5d7a e53b 602e 40bd 03e8 72bd
00000220: d5ee 42bc 1f9e 30bd 2d88 853c 92b9 d2bc
00000230: 907d ac3c cd8a 113e ae5d 253d 4675 a43d
00000240: 99f3 b8bd 6c3f 1bbe 94a3 64bd a8e1 8abd
00000250: db94 12bd 10d3 5a3d bfd6 f9ba e239 113e
00000260: 10a0 563c 3fac 993d f56d f3bc d016 b73c
00000270: 0475 23be 1b26 873a 37f7 e73c 9675 903b
00000280: efca 81bc d5b9 5abd a8bd 913d bab6 3cbc
00000290: a8db 76bd 4b1e a7bc 5a4c cfbc 1e90 08bc
000002a0: c6d3 753d 398b 8fbc 0f5d a9bd b038 1f3c
000002b0: 5beb 903c 3762 a73c 3dd3 423c c823 4fbd
000002c0: b975 5b3d 605f cc3d c4eb e23d 06e4 d13d
000002d0: 7f03 19be a414 96bc 1d34 e83c 8504 9c3d
000002e0: 82d2 86be 1cfa 7d3c f245 babd a2d1 ed3b
000002f0: dd68 72bd fbf8 41bd 81f0 c9bd 515d dc3a
00000300: 974d 2b3c b9f1 083c 0c12 0e3e d5de 07ba
00000310: 2442 17be 7aa3 003e a090 ce3d b3dc afbd
00000320: 6954 753d fd51 3ebd bfac 293d db3c 5bbe
00000330: 3ff8 14be adba 0f3e a581 573d e943 0a3e
00000340: 05e8 b63d 6261 37be 63ea ef3d ae89 ab3c
00000350: c902 a7bd 3e76 363c 42b9 3f3c 055e 073e
00000360: d159 8dbd da3c 61bd 0013 5cbe 303e 93bb
00000370: ced1 133d 7d23 a63c 122a 80bc 22ae 81bc
00000380: d56e 923d 0a75 83bd b872 91bd c25a 99bc
00000390: 7750 ba3d 42aa a1bc b2e0 36be bc30 99bc
000003a0: a8a6 fb3d 3b2c ebbc 5d42 14be 906a 913d
000003b0: ca09 f3bd 778f 8f3d 568d 0bbd 64ec 7e3b
000003c0: 9e04 22be c6fb 15bd 3a7f ad3c d7e5 bd3d
000003d0: 1c8b 98be 7510 7a3d c648 65bd 577c c2bd
000003e0: 90a1 b7be fba2 9ebe c0d9 a0bd c825 ff3c
000003f0: 0d63 b63d eb2f 57bd 9838 afbc 2c49 213d

model.predict.predict.1.bias f4 [64]
0.18023588 0.10161309 0.028445505 0.090354934 0.0035548545 -0.044705637 0.0025758252 -0.099110894
0.06320722 0.00798166 -0.08365923 0.079266354 -0.113208406 -0.027940251 0.036028747 0.016083742
0.1469041 -0.094200894 -0.11829742 0.18970591 -0.24801226 -0.11031406 0.015426242 0.08299058
-0.043236934 0.05537076 -0.045366224 -0.11235147 -0.073930584 0.055799123 -0.016065951 0.021720374
-0.09090423 -0.009258307 -0.0784106 0.19951113 0.082598716 -0.10543176 0.102319516 -0.014378637
0.012427929 -0.019123495 -0.0147109395 0.0833265 0.056619532 -0.01678051 -0.05298347 0.14604078
-0.06624172 -0.021180201 -0.013753166 -0.0732716 0.00968819 0.058885977 -0.023389176 -0.08444144
-0.050986838 0.10118747 0.01608969 -0.03280943 -0.09975991 -0.14816357 -0.002111671 -0.0025008046
00000000: c18f 383e 861a d03d 8c06 e93c 020c b93d
00000010: 90f8 683b 421d 37bd 2dcf 283b a7fa cabd
00000020: c972 813d 82c5 023c 8855 abbd 6656 a23d
00000030: cfd9 e7bd f4e2 e4bc e192 133d 0dc2 833c
00000040: 076e 163e 66ec c0bd eb45 f2bd 4442 423e
00000050: edf6 7dbe 56ec e1bd 59be 7c3c f7f6 a93d
00000060: 3619 31bd 73cc 623d efd1 39bd 8718 e6bd
00000070: eb68 97bd 9f8d 643d be9c 83bc edee b13c
00000080: ff2b babd 27b0 17bc bd95 a0bd a54c 4c3e
00000090: 8429 a93d 9bec d7bd e58c d13d 6094 6bbc
000000a0: 839e 4b3c e0a8 9cbc 2706 71bc 16a7 aa3d
000000b0: e2e9 673d 4877 89bc 3205 59bd b78b 153e
000000c0: bda9 87bd 1a82 adbc f654 61bc 6c0f 96bd
000000d0: 37bb 1e3c 6c32 713d a89a bfbc a2ef acbd
000000e0: 93d7 50bd 603b cf3d 87ce 833c 2e63 06bd
000000f0: ec4e ccbd 31b8 17be f663 0abb 8ae4 23bb

model.predict.predict.3.weight f4 [64]
1.0998641 1.1316371 1.0769944 0.9579681 1.2109761 1.096574 1.0335923 1.051929
1.2050229 0.9358603 1.0295315 1.1176103 0.9571473 0.9316411 1.0856886 0.96947694
1.0854065 1.1006778 0.9826897 1.1123012 0.9815141 1.0781709 1.1498404 1.1018814
1.0980077 1.0243653 1.1285361 0.9830211 1.14175 0.87266475 1.1435088 1.0362839
1.0278666 1.1443586 0.9989744 1.1037992 0.9417395 1.0406688 1.1429136 1.1358895
0.93775755 1.0085193 1.0724629 0.9132857 1.1988117 1.0304214 1.0851904 1.1034846
1.0372214 1.0385103 0.9851389 0.97934496 1.1346424 1.1200101 1.0013529 1.1661654
1.027023 1.0339268 0.98278785 1.0102682 1.0035481 1.126226 1.1092354 1.030549
00000000: 59c8 8c3f 7cd9 903f f4da 893f 663d 753f
00000010: 4401 9b3f 895c 8c3f c14c 843f 9ca5 863f
00000020: 313e 9a3f 8a94 6f3f b0c7 833f db0d 8f3f
00000030: 9b07 753f 0880 6e3f d8f7 8a3f a42f 783f
00000040: 9aee 8a3f 03e3 8c3f 8d91 7b3f e35f 8e3f
00000050: 8244 7b3f 8101 8a3f f82d 933f 730a 8d3f
00000060: 848b 8c3f 671e 833f df73 903f 45a7 7b3f
00000070: dd24 923f f566 5f3f 7f5e 923f f3a4 843f
00000080: 2291 833f 587a 923f c9bc 7f3f 4b49 8d3f
00000090: d715 713f a334 853f fe4a 923f d464 913f
000000a0: e110 703f 2917 813f 7746 893f 17cd 693f
000000b0: a972 993f d9e4 833f 85e7 8a3f fc3e 8d3f
000000c0: acc3 843f e8ed 843f 1032 7c3f 5ab6 7a3f
000000d0: f63b 913f 7e5c 8f3f 552c 803f e844 953f
000000e0: 7d75 833f b757 843f fc97 7b3f 7850 813f
000000f0: 4474 803f 2c28 903f 6dfb 8d3f 08e9 833f

model.predict.predict.3.bias f4 [64]
0.015279204 0.010859389 0.006787003 -0.0013697025 0.013144883 -0.012807548 -0.010102033 0.010724176
0.014826086 -0.0047020414 -0.011049349 0.021053558 -0.0054111523 5.3648095e-05 -0.01298668 -0.0109229125
0.017745154 -0.012733591 0.008416192 0.014375807 -0.0075179483 -0.009031415 0.029922638 -0.010786713
0.010585222 -0.005415252 0.012950139 -0.010345838 -0.0120039545 -0.00052214024 0.02156137 -0.009782369
-0.0093498295 -0.011481711 0.024642186 0.010999828 -0.0062065497 -0.0102972025 0.030087946 -0.016797375
-0.002534136 0.009478325 -0.011817549 -0.005474187 -0.014410377 -0.013179839 -0.011167537 0.01389417
0.010804089 -0.014367076 0.0064495467 0.02060589 -0.013067222 -0.01528693 -0.0095075155 0.01142714
0.011625505 0.0101401005 -0.008630552 0.009862919 0.011226692 -0.010415755 -0.012744137 0.00971451
00000000: a055 7a3c 94eb 313c 8265 de3b 9787 b3ba
00000010: a35d 573c c0d6 51bc ff82 25bc 74b4 2f3c
00000020: 1de9 723c 9513 9abb 5408 35bc 8378 ac3c
00000030: 0950 b1bb 3404 6138 15c6 54bc 04f6 32bc
00000040: 495e 913c 8da0 50bc 11e4 093c 8188 6b3c
00000050: 1f59 f6bb 80f8 13bc 5220 f53c c1ba 30bc
00000060: a46d 2d3c 6d72 b1bb d22c 543c 9781 29bc
00000070: 3cac 44bc 3de0 08ba 78a1 b03c 3b46 20bc
00000080: 0730 19bc c91d 3cbc 69de c93c 9f38 343c
00000090: 5060 cbbb 99b5 28bc ff7a f63c a69a 89bc
000000a0: bf13 26bb fa4a 1b3c 659e 41bc cf60 b3bb
000000b0: 8019 6cbc 40f0 57bc 0cf8 36bc 5fa4 633c
000000c0: a203 313c e263 6bbc b856 d33b afcd a83c
000000d0: e717 56bc 0876 7abc 69c5 1bbc e638 3b3c
000000e0: e778 3e3c aa22 263c 2967 0dbc 1598 213c
000000f0: 29f0 373c d8a6 2abc c9cc 50bc 9c29 1f3c

model.predict.predict.3.running_mean f4 [64]
0.1783754 0.14137769 0.0006533621 0.69213027 0.29062888 0.026600767 0.0011770984 0.11737563
0.13494083 0.9338594 0.00013274293 0.32240754 0.37013495 0.09168679 0.14696276 0.6316318
0.06880885 0.75410837 6e-45 0.20319822 0.7336929 0.0018404226 0.19865195 0.11704477
0.0008814509 0.0018179553 0.036940575 0.71767205 0.27407986 0.10913242 0.51184803 0.33100617
0.08464816 0.6545576 0.0071359477 0.3932703 0.7420433 0.7447377 0.001044877 0.20555587
1.4217257 5.8892954e-07 0.010830623 0.92080337 0.08192185 0.03504479 0.18756545 0.13586478
0.024375228 0.11973171 2.8588444e-35 0.00063352275 0.5856205 0.06884418 0.47719026 0.318275
0.31389886 0.31829807 0.0047798557 0.5118262 0.42170107 0.45123067 0.34537578 0.0015495708
00000000: 0aa8 363e 50c5 103e 6346 2b3a 732f 313f
00000010: 4fcd 943e dae9 d93c de48 9a3a a262 f03d
00000020: ee2d 0a3e 6911 6f3f e930 0b39 9a12 a53e
00000030: 5482 bd3e 49c6 bb3d 687d 163e 9fb2 213f
00000040: a8eb 8c3d 3f0d 413f 0400 0000 3213 503e
00000050: 4cd3 3b3f 563a f13a 6b6b 4b3e 2bb5 ef3d
00000060: 2b11 673a 7548 ee3a 004f 173d 5bb9 373f
00000070: 3254 8c3e d180 df3d 7908 033f a479 a93e
00000080: 045c ad3d 1691 273f abd4 e93b ba5a c93e
00000090: 8df6 3d3f 21a7 3e3f 41f4 883a 3d7d 523e
000000a0: 1cfb b53f ee16 1e35 ed72 313c c5b9 6b3f
000000b0: a5c6 a73d 208b 0f3d 2811 403e 2320 0b3e
000000c0: 8fae c73c e635 f53d 9300 1806 fe12 263a
000000d0: 3aeb 153f 2dfe 8c3d 4852 f43e f1f4 a23e
000000e0: 5ab7 a03e f7f7 a23e 56a0 9c3b 0b07 033f
000000f0: 34e9 d73e b507 e73e 18d5 b03e f81a cb3a

model.predict.predict.3.running_var f4 [64]
0.07834669 0.078165814 0.000110034205 0.21378762 0.24192421 0.010745408 0.00022347158 0.06482473
0.07687724 0.49252954 4.7434473e-06 0.2141891 0.20353383 0.033314556 0.06870621 0.33620012
0.03305616 0.48545867 6e-45 0.093808606 0.6261316 0.0005171421 0.13397966 0.09596118
0.00021839279 0.00035410502 0.019975016 0.5929797 0.14708234 0.030809307 0.50640374 0.15447614
0.034575064 0.4967818 0.0042262487 0.22079518 0.38824302 0.5054834 0.0003186712 0.10083907
0.7733783 4.6003493e-08 0.0051355194 0.28233334 0.038108304 0.024701787 0.103107296 0.06776776
0.0144022675 0.048851203 4.6050255e-37 0.0001495814 0.3838592 0.030236853 0.49316043 0.27087855
0.1881431 0.13294601 0.0019115551 0.4175224 0.2638555 0.26916313 0.16511208 0.0007014769
00000000: 3b74 a03d 6615 a03d 2ac2 e638 24eb 5a3e
00000010: fbba 773e 820d 303c b253 6a39 d4c2 843d
00000020: d071 9d3d d52c fc3e e729 9f36 6354 5b3e
00000030: 2c6b 503e d874 083d d7b5 8c3d 6c22 ac3e
00000040: e565 073d 0a8e f83e 0400 0000 ba1e c03d
00000050: 294a 203f d290 073a f731 093e 4c87 c43d
00000060: 5e00 6539 2ca7 b939 a5a2 a33c 85cd 173f
00000070: c19c 163e cd63 fc3c ada3 013f fe2e 1e3e
00000080: 959e 0d3d 2f5a fe3e 587c 8a3b 2218 623e
00000090: cac7 c63e 5c67 013f 5313 a739 b784 ce3d
000000a0: 1ffc 453f 6095 4533 dc47 a83b ff8d 903e
000000b0: 7417 1c3d 675b ca3c eb29 d33d d3c9 8a3d
000000c0: 7df7 6b3c 3318 483d 6eb3 1c03 f4d8 1c39
000000d0: 3189 c43e 47b3 f73c 867f fc3e 98b0 8a3e
000000e0: 96a8 403e 0023 083e 258d fa3a 7fc5 d53e
000000f0: 1118 873e c0cf 893e 2413 293e 51e3 373a

model.predict.predict.4.weight f4 [2, 64]
0.19482242 0.20934151 0.16134794 -0.018806806 0.23521885 -0.14887895 -0.117467 -0.0023309551
0.21106094 0.045168336 -0.122957356 0.05509365 0.0080366265 -0.007220084 -0.06752938 -0.12891085
0.12302099 -0.124438226 0.033883557 0.158527 -0.007919277 -0.078399606 0.10745615 -0.1620796
0.18331459 -0.06624505 0.22612585 0.046963602 -0.2391739 0.025983522 0.075739 -0.08181714
-0.18433106 -0.117860466 -0.07337187 0.046674315 0.06318832 -0.10904861 0.1970724 -0.23337133
0.05179902 0.107224934 -0.18815802 -0.03559174 -0.24285598 -0.0031471965 -0.19000576 0.17460535
0.074098356 -0.14021946 0.052852813 0.08049677 -0.11362622 -0.0780334 -0.09695492 0.090070926
0.07796651 0.13398017 0.0256089 0.0411951 0.05048766 -0.17821835 -0.15459004 0.08940755
-0.069422394 -0.16716912 0.02918001 -0.041406043 -0.11584118 0.18258336 0.065527104 -0.13885377
-0.14350498 0.06379931 0.05725268 -0.15301648 0.06978661 -0.057225823 0.13775347 -0.043784726
-0.15880118 0.13335519 -0.09933266 -0.17578794 0.11080132 0.12832661 -0.15129708 0.18994886
-0.15476535 0.075835966 -0.1675639 0.1297981 0.12816058 0.012372019 -0.18490213 0.05674138
-0.042940453 0.2176406 -0.13067512 -0.15559687 0.09591838 0.1584254 -0.04262966 0.022312136
0.071354404 -0.051633175 0.016860913 -0.04002352 0.17209716 0.13917398 0.005946092 -0.15127371
-0.12983686 0.08764348 0.024256183 0.04193272 0.19739695 0.1639795 0.11988787 -0.21875161
-0.06367105 -0.10974175 0.12310112 -0.07960951 -0.09100018 0.076633684 0.16237758 -0.025863046
00000000: 877f 473e 9f5d 563e 6538 253e bb10 9abc
00000010: 36dd 703e b973 18be 8a92 f0bd f0c2 18bb
00000020: 5c20 583e 6f02 393d 11d1 fbbd e1a9 613d
00000030: 0eac 033c 7496 ecbb d84c 8abd 3501 04be
00000040: 6ef2 fb3d 78d9 febd 7cc9 0a3d e754 223e
00000050: dbbf 01bc f98f a0bd f811 dc3d 32f8 25be
00000060: d2b6 3b3e 7cab 87bd 898d 673e e85c 403d
00000070: 01ea 74be 65db d43c 0d1d 9b3d bf8f a7bd
00000080: 48c1 3cbe d460 f1bd fe43 96bd 912d 3f3d
00000090: e168 813d e154 dfbd 59cd 493e e5f8 6ebe
000000a0: 362b 543d bf98 db3d 7fac 40be a5c8 11bd
000000b0: 3daf 78be 3241 4ebb df90 42be bfcb 323e
000000c0: e1c0 973d b195 0fbe 317c 583d 7edb a43d
000000d0: ddb4 e8bd facf 9fbd 4d90 c6bd 1b77 b83d
000000e0: e8ac 9f3d 1932 093e c1c9 d13c 31bc 283d
000000f0: 26cc 4e3d df7e 36be da4c 1ebe 4e1b b73d
00000100: 542d 8ebd 622e 2bbe eb0a ef3c 6299 29bd
00000110: 243e edbd 22f7 3a3e 1333 863d af2f 0ebe
00000120: f8f2 12be 36a9 823d c981 6a3d 5ab0 1cbe
00000130: 48ec 8e3d a065 6abd 3f0f 0d3e 9d57 33bd
00000140: c79c 22be 438e 083e ec6e cbbd c101 34be
00000150: cdeb e23d 0d68 033e 9fed 1abe f481 423e
00000160: cf7a 1ebe e34f 9b3d df95 2bbe cbe9 043e
00000170: 873c 033e 02b4 4a3c fc56 3dbe a669 683d
00000180: 54e2 2fbd 2ddd 5e3e b3cf 05be c954 1fbe
00000190: db70 c43d 453a 223e 709c 2ebd f1c7 b63c
000001a0: 4222 923d 4f7d 53bd e61f 8a3c b4ef 23bd
000001b0: 3d3a 303e a083 0e3e 6fd7 c23b 7fe7 1abe
000001c0: f4f3 04be 6d7e b33d e7b4 c63c a5c1 2b3d
000001d0: 6d22 4a3e 3eea 273e c687 f53d 6c00 60be
000001e0: f865 82bd 48c0 e0bd 711c fc3d 500a a3bd
000001f0: 4d5e babd 1ff2 9c3d 4f46 263e bdde d3bc

model.predict.predict.4.bias f4 [2]
0.121296704 0.064357616
00000000: 686a f83d edcd 833d
