models/model_epigenetic/checkpoint4.pt (torch, 267911 bytes, 47 tensors)

model.gnn.gnn_layers.0.graph_conv.weight f4 [30, 64]
00000000: fcfe 3a3e f996 7c3e 5395 073e cceb 0a3e
00000010: 5c99 54bd 4f8f 8ebe 5374 5a3e 2e40 86bd
00000020: 6743 10be beea 4bbe 77e7 94bd d264 3d3e
00000030: 887a 18be 3c9e 8cbe b4b1 623e ccee 6e3e
00000040: cb45 273e 98b3 023e b42b 8d3d 5ad9 80be
00000050: 06f0 21be 78bd 78be 89d7 3d3e ded9 5c3e
00000060: 2efc 78be ae84 dfbd c88f 31bd 0f4d 663d
00000070: 3865 bf3c a5f6 523e 6a39 e03d fedf 93be
00000080: 7631 05be 2cf5 723e 36a9 61be cac9 8a3d
00000090: 5684 933c f9a3 cdbd c772 df3d 8406 043d
000000a0: 98cb 6ebe 7528 ea3d fec5 18be 39ae fbbb
000000b0: 85a1 603e 1676 bcbd d7e0 cebc 07c4 0dbe
000000c0: 1660 a03c 1a7a 523d 434f 60be 477f 21be
000000d0: 50c9 a7bd 855a e53d 4f67 163e 2fd4 523d
000000e0: 8c08 4b3d 58d0 a4bc 05a9 ccbe e0e3 4b3d
000000f0: 85d2 0dbe 6d16 7b3e e713 243e c2fd 363e
00000100: c491 94be 3c52 273e d509 773d a63b 02be
00000110: de09 2d3e 7902 083e 2570 49be e6ad c23d
00000120: fa94 84be f5d6 5dbd db80 5f3e e2d2 253e
00000130: 9e0d c0bc a1c8 603e 2e96 153d 2460 6fbe
00000140: 18b2 023e 5b85 aabb 4cc3 1c3d 5664 a93d
00000150: 1c10 e73d 2381 683e f1fd 923e 7950 a33d
00000160: db8e 403c f6c4 463e 9b1f 51be 8978 74bd
00000170: 5779 aebd b6c6 34bd 5d0b 29bd e7ec 673e
00000180: 0dbe 7f3e b5c6 623e 05f8 b93d cd89 93be
00000190: f062 a23d d0c2 af3d 85f5 233e 8c1d 55be
000001a0: 90f5 763e 7be8 3d3d be07 23bc 6b29 c23d
000001b0: a6d8 2f3d 0c36 81bd 9f02 c7bd 8d52 ebbd
000001c0: cfa3 f8bd 6081 6e3e edeb 793a be42 133d
000001d0: b33c 1e3d 42ab dfbd 314c 0dbe 9faf af3d
000001e0: 8011 563c 507a 45bb c474 a03e 84c1 5bbe
000001f0: 0d5b 7fbe 3646 03be 2240 323d 849d 25be
00000200: 5eea 763d f2a5 bbbd 1c97 163e d111 31be
00000210: bdcd 573e a0bd 9ebd 08b1 6c3b 0933 9d3c
00000220: 9db0 fa3d 5eec c4bd 4404 993e 629b 05be
00000230: cc26 50be 82a5 82bd 82c5 983c 93e0 aabd
00000240: fa82 45be 70f3 e2bc e49f 16bd 6078 3c3e
00000250: 54e1 50be 2330 6b3c d255 57bd ee4a 14be
00000260: e70c 08bd fc45 53bb 274d 09be 60a2 24be
00000270: 9da5 de3d cfd5 573e 1f1c 7fbd 439d 31be
00000280: 3caf 323d fa68 d03c a4da 24bd 0073 0fbe
00000290: 50e6 9cbc 5b32 35be 2121 28be 3c8a 443e
000002a0: 076b 0e3c 71a9 bebc 6c90 703e dcb7 5e3e
000002b0: cc5a da3d c32a ba3b 0241 1b3e 9e2b e8bd
000002c0: fbc2 843e d699 5ebe c61a 653d 40ac 0ebd
000002d0: cd85 463e 961a 0dbe 297f 17be 1242 823d
000002e0: b43f aabe 6703 243e 0384 6fbe c392 6d3e
000002f0: 4de7 60be f092 21be d9f6 b4be 8d60 64be
00000300: dc17 e93c 107f d7bd b02e 3cbd 46e7 913c
00000310: 359c 02be fd73 f4bc d966 20be c7aa 7cbe
00000320: 5d83 d93d bfc9 fdbd b1e4 873e d828 013e
00000330: 2f84 723e 0717 45be 1bd3 98bd 3d70 33be
00000340: 3a84 463e 068a f13d d2c4 8d3c 5445 95be
00000350: 3279 223e 93fb ebbd 1ebc 023e d359 343d
00000360: 2820 423d 0fe5 97be 3455 3a3e 910d fe3d
00000370: 8291 f0bd f8da 2c3e a134 fdbd ce6e c03d
00000380: 8900 c03b f597 313d 54d3 763e 3842 5d3b
00000390: 7622 313e 0d24 f5bd f092 7ebd 30d1 ec3d
000003a0: d223 84be 3826 25be 9561 093d 9559 643c
000003b0: 8dbc e1bb f79d 3a3d d10e 703e 0b95 123d
000003c0: 9a19 6a3e 3576 a13d de11 2dbe 4208 f6bd
000003d0: dea5 9d3c b4b2 193e 8dbc e93d 40a6 1d3e
000003e0: 0361 713d 46dc 2c3c 6a92 9e3d 5675 36be
000003f0: 20d9 90bd eeb8 9d3e e30a 5bbe 892c 4fbd
0.18261331 0.24666966 0.13240556 0.13566512 -0.051904067 -0.2784371 0.21333437 -0.0655521
-0.14088212 -0.19913766 -0.07270711 0.18495491 -0.14890492 -0.27464473 0.22138101 0.23333281
0.16335218 0.12763822 0.06893101 -0.25165826 -0.15814218 -0.24291027 0.18539251 0.21567485
-0.24314949 -0.109139785 -0.04335001 0.056225833 0.023363695 0.206019 0.10948451 -0.2888183
-0.13007149 0.23726338 -0.22037205 0.067767695 0.018007439 -0.10041041 0.10910564 0.032232776
-0.23319852 0.11433498 -0.14919278 -0.007680681 0.21936615 -0.092022106 -0.025253696 -0.1384431
0.019577067 0.051385976 -0.21905236 -0.15771209 -0.08192694 0.11198906 0.14687847 0.051471885
0.049568698 -0.020118877 -0.39972702 0.049777865 -0.13849838 0.24520274 0.16023217 0.17870238
-0.2901746 0.16339964 0.06031211 -0.12718067 0.16898295 0.13282193 -0.19671686 0.09505825
-0.2589491 -0.054160077 0.21826498 0.16193727 -0.023443993 0.21951534 0.036520176 -0.23376518
0.1276325 -0.0052038855 0.038272187 0.08271091 0.112823695 0.22705512 0.28709367 0.07974333
0.011752809 0.19411072 -0.20422213 -0.059685264 -0.085192375 -0.044134818 -0.041270602 0.22648965
0.24974842 0.22146113 0.09080509 -0.2881607 0.07929027 0.085820794 0.16011627 -0.20812052
0.24117112 0.04636429 -0.009950576 0.09480556 0.04293122 -0.06309137 -0.09717297 -0.11490355
-0.12140619 0.2329154 0.0009533752 0.035952322 0.038632106 -0.10921337 -0.13798596 0.08578419
0.013065696 -0.0030132718 0.31339085 -0.21460539 -0.24937077 -0.12819752 0.043518193 -0.16173369
0.060282104 -0.09162511 0.14706081 -0.17291953 0.21074577 -0.07751012 0.003611626 0.019189375
0.122407176 -0.09615396 0.29886067 -0.13047555 -0.203273 -0.06379224 0.018648867 -0.083436154
-0.19288245 -0.02770397 -0.036773577 0.18405294 -0.20398456 0.014354738 -0.05257208 -0.14481708
-0.03321543 -0.003223776 -0.13408338 -0.16077566 0.10871432 0.21077655 -0.062282678 -0.17345147
0.043624148 0.025440682 -0.040247574 -0.14008713 -0.01915279 -0.1769499 -0.16418888 0.19193357
0.0086925095 -0.023274155 0.23492593 0.21749824 0.106618494 0.005681367 0.15161517 -0.11336444
0.25930008 -0.21738371 0.055933736 -0.03483224 0.19386978 -0.13779673 -0.14794602 0.06360258
-0.33251727 0.16016923 -0.23390202 0.23200516 -0.21963234 -0.15778708 -0.3534458 -0.22302456
0.02845376 -0.10522282 -0.045942962 0.017810475 -0.12754901 -0.029840464 -0.15664233 -0.24674521
0.10620759 -0.12391996 0.26541665 0.12613237 0.23683237 -0.19247065 -0.0746214 -0.17523284
0.19386378 0.11793904 0.017305765 -0.29154456 0.15866545 -0.11522593 0.12767074 0.044030976
0.047393948 -0.29666945 0.18196565 0.12404931 -0.117465034 0.16880405 -0.12363554 0.09396134
0.005859439 0.04335781 0.24104053 0.0033761393 0.17298302 -0.11969767 -0.06215185 0.11563337
-0.2580858 -0.1612786 0.033540327 0.013937374 -0.006888932 0.045560803 0.23443152 0.03578667
0.22861329 0.07883874 -0.16901347 -0.12013294 0.01924413 0.15009576 0.11412916 0.1539545
0.05893041 0.010550564 0.0774277 -0.17818198 -0.07072663 0.30805153 -0.21390872 -0.05057958

model.gnn.gnn_layers.0.graph_conv.bias f4 [64]
00000000: 85fe fd3c d682 b6bc f4c2 d83b baf8 193c
00000010: b595 49bd d9fb 633c f3c1 b3bc 3623 0fbd
00000020: 9ef2 10bd 48e8 efbc 6128 dbbc df12 bbbc
00000030: f149 783d c0d9 4e3c ad0a 3fbd 193e c93c
00000040: f35c d7bb fde9 99bb a6fe cebc bb8f 3fbd
00000050: 9657 353d 2e14 b33b 90ac 00bd 3110 443c
00000060: c1fe 29bd 7086 a8bc 1f55 44bd 33f3 283c
00000070: 6c18 3bbd b25f 4fbd dbba 8cbc 574a 7b3b
00000080: 33c6 f93b de37 a53b 9b24 023d 345e 953d
00000090: d502 403b ce27 3dbc 5fff f1bc 3e92 b9bc
000000a0: 1829 e63c 5c05 19bd 0ec9 8cbc 0a08 abbc
000000b0: 82a6 62bc 3828 5ebc 636e b4bb 5c7c 3f3c
000000c0: b492 78bc 6797 e7bb 2267 443c 3d65 8dbc
000000d0: f802 2f3d 187f 38bd 08b6 963c da2e 803b
000000e0: 78ea 363d 31d0 1abc 1c6f b63d 0119 a5bb
000000f0: 3745 b23c 4b75 e3bc 8b42 a5bb 026e db3b
0.031005153 -0.022279184 0.006615037 0.00939768 -0.049215037 0.013915026 -0.021943068 -0.03494569
-0.035387628 -0.029285565 -0.026752653 -0.022836147 0.06061739 0.012625158 -0.04664104 0.024565743
-0.0065723597 -0.004697083 -0.02526791 -0.04676793 0.04427298 0.005465052 -0.03141457 0.011966751
-0.041502718 -0.020571917 -0.04793274 0.010311889 -0.045677587 -0.05062837 -0.017178943 0.003834387
0.007622504 0.0050420603 0.03177319 0.072933584 0.0029298563 -0.011545135 -0.029540716 -0.022652742
0.028095767 -0.037358627 -0.017185714 -0.020877857 -0.013833644 -0.013559394 -0.005506323 0.011687364
-0.0151716955 -0.007067609 0.011987479 -0.017260188 0.04272744 -0.04504308 0.018397346 0.003911835
0.0446572 -0.009449051 0.08907911 -0.005038381 0.02176152 -0.02776589 -0.005043333 0.0066964636

model.gnn.gnn_layers.0.res_connection.weight f4 [64, 30]
00000000: dabb c33c 1fac 663d e5a1 8fbd 8c16 4cbe
00000010: 0fd8 f1bd dfaf 08be e45b c03d f7fd 663e
00000020: cfe3 2b3d 24d0 49bd 53ce cd3d e656 35be
00000030: 2960 2cbe 80d8 bc3d e5a1 443d d170 10be
00000040: c061 9dbb 2382 0c3d bb51 033e 260d a43c
00000050: bd54 53be 37b2 3c3e 0054 3139 2866 f3bc
00000060: b9b5 053e b6d0 67be fe27 0bbe fcff 61bc
00000070: 0833 0b3e fb61 39be c67d 29be 7874 19be
00000080: d503 773d 4871 693d 4508 5d3d 50a1 813d
00000090: 1cce 5bbd 3013 ccbc d008 44bc 416f 8a3e
000000a0: e569 8abc 045a 1cbd 8c80 9ebd dcab 563d
000000b0: fab4 9fbd e871 d23c 0c77 ad3d eff0 2abe
000000c0: 1eff 8abd 37cf 1ebe 76dd 54be 88d6 283e
000000d0: 5922 06be f36a b9bd 0019 d13c fcff 8c3d
000000e0: 704e 97bc 9534 b03d d8c6 b93c c8dd e63d
000000f0: cd07 033e 1ad7 64bc af25 b53c 1ce5 a13d
00000100: 06fc 28be 47d8 10bc a92e 273e ba07 0bbe
00000110: a4c3 b93d d620 f4bd 77fb 373e 6d3f 943c
00000120: e55d a13c 86a6 59be 0c9e 0f3e c089 03be
00000130: d945 31be 7759 8d3c 9529 c1bd 4db6 5fbd
00000140: 557c 083e d754 22be 329e 0bbe 5c9c 183d
00000150: 3e02 483d 10ae 3a3d dde1 083e 4c7e 11bd
00000160: 4009 97bc 32e2 883d b94b 7b3c 814b c53d
00000170: 91d4 00be 2433 973b 5a34 12bc b6e2 da3d
00000180: fe0e f63c 0086 b0b9 02f7 d6bd 0902 19be
00000190: a57b 363e e126 67bd 3c49 833d b424 4ebe
000001a0: 3863 31be 1aab 2e3e d9d3 12be a61a a83d
000001b0: 4a56 05be 0c88 a9bd e52a 213e 0bd2 14be
000001c0: e41a 6c3d 7c86 583d c0ca 9e3d 34b1 46bd
000001d0: 51f1 05be 9aae 303e d0ee 81bd 3a63 efbd
000001e0: 5f71 aa3d 348d b93c 0b5c b5bd 1e20 41be
000001f0: ad4e 9fbd 1c49 1bbd 54ac b43d ce39 8a3d
00000200: f4c8 b6bc 8188 08be 30b2 1fbe c19c de3d
00000210: 66f8 d23c 1330 343d 3512 6b3e 258f 77be
00000220: 319f da3d 84b8 77be 3799 8bbd 8e0f d03d
00000230: c855 0fbe 3aaa 34be 4835 763d a083 c03d
00000240: 7c47 ec3d 078c 8c3b ad29 93bd 13fe 8d3d
00000250: eb8f 1cbe 8033 28bd 3fe3 363e 00e2 cc3d
00000260: 017f 9ebd 917d 26be 6d60 0cbe b391 983c
00000270: a05a f0bd 58c1 223d c089 35be d2a9 efbd
00000280: 8a63 47be d385 0e3c b66e 3d3e 7c32 0dbe
00000290: 8b41 a73d bbd3 e33d 4e10 5dbe 52ff 7cbd
000002a0: 06a0 3fbe 7922 47ba de42 143e 6f15 0bbe
000002b0: 9c9d 193e f415 393d 6e6c d1bd f2ca febd
000002c0: b6e9 56bd a162 14be 04d5 0c3d 70af 19bd
000002d0: 9312 debc bccd 2cbd f075 dd3c 0803 a1bd
000002e0: d7df 943d f5bf d03d c874 d6bc ca1f debd
000002f0: 1886 dcbd 4dd2 8ebd 2777 3a3e 2a7a 063e
00000300: d663 203e 45ef 9a3d b255 4f3d 6459 4abd
00000310: db1c 9a3d 44fd 4bbe 50e5 b3bd 58a5 4abe
00000320: 1021 013e 8e1b 323d 5ecf c8bd 6c38 0dbd
00000330: fa82 cdbd f8c0 0abe d04e ba3d 2615 2bbe
00000340: 38b6 e8bc 701c 053c d883 dbbd b2d3 c23d
00000350: ab10 17be ae05 b83d 136a 233e c387 383e
00000360: ae90 20be 87de 04be 690f 213e 313f 1abc
00000370: 8e3c 613d a202 cfbd d43a 0ebe bc54 49be
00000380: eaba 8e3d 4a91 c53d ae98 f33d 99e8 05be
00000390: a151 383d 7897 e33d b461 35be 524f dfbd
000003a0: 7afa 173e f041 1b3d 481c b93d 5aec b0bd
000003b0: 24c0 30be 7479 293e 62bc 203e a08d b9bd
000003c0: c8a6 a83d 9dfd 3b3c d139 c43d 4248 35be
000003d0: 73c1 bbbd 3017 e7bb 64c1 4a3d a45b b93d
000003e0: 3469 a0bd f4d9 e73d 4883 25be 1a87 b0bd
000003f0: 2d8c 13be c1a2 f4bd 4ff7 993d 33a0 8ebd
0.023893286 0.05631649 -0.07013301 -0.19930476 -0.11808788 -0.1334834 0.09392527 0.22557817
0.041965302 -0.049270764 0.10049119 -0.1770893 -0.16833557 0.092209816 0.048005957 -0.14105536
-0.0048029125 0.034303796 0.12824146 0.0200258 -0.20637794 0.18427359 0.00016911328 -0.029711798
0.13057603 -0.2263821 -0.13589475 -0.013793942 0.13593686 -0.18103783 -0.16551885 -0.14985836
0.06030639 0.0569928 0.053962965 0.06329596 -0.053663358 -0.024911493 -0.011964992 0.27038005
-0.016896198 -0.038171783 -0.07739362 0.05240999 -0.077981904 0.02568908 0.08469972 -0.16693471
-0.06786941 -0.15508734 -0.20787606 0.16488087 -0.1309904 -0.09053602 0.025524616 0.06884763
-0.01847002 0.08603779 0.022677824 0.1127277 0.12795945 -0.0139673 0.022112696 0.07905027
-0.1650239 -0.008840627 0.16326393 -0.13577166 0.090705186 -0.119203255 0.1796702 0.01809665
0.019698093 -0.2125493 0.14025134 -0.12845516 -0.17311801 0.017254574 -0.09431759 -0.054617215
0.13328679 -0.15852676 -0.13634565 0.03725849 0.048830263 0.045576155 0.1336741 -0.035520837
-0.018437028 0.06683768 0.015337878 0.09633542 -0.12581088 0.0046142507 -0.008923614 0.10687773
0.030036446 -0.00033669174 -0.10496332 -0.14942183 0.17820604 -0.056433562 0.06410453 -0.20131189
-0.17323005 0.17057458 -0.14338626 0.08208208 -0.13021198 -0.08277902 0.15739019 -0.1453325
0.057642832 0.05286263 0.07753515 -0.048508838 -0.13080336 0.17254105 -0.06344378 -0.11688848
0.08322405 0.022650339 -0.088554464 -0.18859908 -0.07778678 -0.03791152 0.088219315 0.067493066
-0.022312619 -0.13333322 -0.15595317 0.10869742 0.025753211 0.04399116 0.22956164 -0.24175699
0.106748946 -0.24191481 -0.06816333 0.10159217 -0.13997567 -0.17643061 0.060109407 0.094001055
0.11537072 0.0042891535 -0.071856834 0.069332264 -0.15289275 -0.04106474 0.17860125 0.100040436
-0.07739068 -0.16258837 -0.13708659 0.018624162 -0.11736035 0.03973517 -0.17728329 -0.117023125
-0.19471565 0.008698898 0.18499264 -0.1378879 0.08166798 0.11124369 -0.21588251 -0.06176693
-0.18713388 -0.00075963844 0.14478633 -0.13582395 0.1500153 0.04518695 -0.102257594 -0.124410525
-0.052468978 -0.14490749 0.034382835 -0.037520826 -0.027108466 -0.04218839 0.027033776 -0.07861906
0.072692566 0.10192863 -0.026178733 -0.10845907 -0.10767764 -0.069737054 0.18209516 0.1313254
0.15663084 0.07565168 0.050618835 -0.049401656 0.07525035 -0.19920832 -0.08783972 -0.19789636
0.12610269 0.04348331 -0.09805177 -0.034477636 -0.100347474 -0.13550174 0.090970635 -0.16707286
-0.028407201 0.008124456 -0.107185066 0.09513034 -0.14752452 0.08985458 0.15958433 0.18020539
-0.15680191 -0.12975512 0.15728535 -0.00941448 0.05498939 -0.10107924 -0.13889629 -0.1966123
0.06969245 0.09646852 0.11894356 -0.1307701 0.044999722 0.11112875 -0.17713052 -0.10903801
0.14841643 0.03790468 0.09038597 -0.086388305 -0.17260796 0.16550237 0.15696862 -0.09060216
0.08234936 0.01147404 0.0958134 -0.17703345 -0.09167757 -0.0070523247 0.049500838 0.09050682
-0.07832566 0.11320868 -0.16163361 -0.086195186 -0.14408942 -0.11945105 0.075178735 -0.06964149

model.gnn.gnn_layers.0.res_connection.bias f4 [64]
00000000: 5074 fabd 430f 25be 9dbb d6bd f6e5 113d
00000010: ad16 253d ea2a 03be 66dc d1bd 014b 0cbd
00000020: 8beb d8bd 5e88 10bd dbc6 99bd 8136 e9bd
00000030: 688f c83d a46f 3fbc db43 2bbe 736d dcbd
00000040: ec90 67bc fa45 35bd 9f18 01be 8d21 043e
00000050: 2b57 a7bb 561d fdbd ba70 c0bd bb3a 393e
00000060: 7d24 3ebe 77a3 b73d 4dfa 8abd 30ab de3d
00000070: 57ea ae3b 6bc6 123e d633 07bd 1521 fbbc
00000080: b93c c8bd 982a 433c c8aa 8fbb 29a6 ecbd
00000090: 86ae 31bc bd18 e63b 7810 323d f605 b2bd
000000a0: 8d9b d5bd 63ab be3c ecbc 403e e087 f3bd
000000b0: 19c1 5e3d 286f d33c 5ca4 3cbe c871 0bbe
000000c0: 2dd5 48bc bceb f7bc 78c4 51be 4111 f43d
000000d0: f0ba 36bd 89ed 65bd 61df 1c3d 7ad1 ba3d
000000e0: 233a 1b3e 07fb a53d d66f 233d b0a8 673c
000000f0: eb90 aabd db78 f7bc d29a 8e3d bf90 ebbd
-0.12229216 -0.16119103 -0.10485003 0.0356197 0.04030483 -0.12809339 -0.10247116 -0.034251217
-0.10591801 -0.0352863 -0.07508632 -0.11387349 0.097929776 -0.011684332 -0.16725104 -0.10763063
-0.014133673 -0.044256188 -0.12607048 0.12903424 -0.005106827 -0.12359111 -0.09396501 0.1808881
-0.18568607 0.08966725 -0.06786022 0.10872495 0.005337994 0.14333503 -0.03300842 -0.030655423
-0.09777207 0.011912011 -0.0043843724 -0.1155513 -0.010844832 0.007021992 0.043472737 -0.08692543
-0.104300596 0.023275083 0.18822068 -0.118911505 0.05438337 0.02580984 -0.18422073 -0.13617623
-0.012257856 -0.030263774 -0.20485103 0.119173534 -0.04461187 -0.056134734 0.03829897 0.09121986
0.15158896 0.0810452 0.039901577 0.014139339 -0.08328422 -0.030208996 0.069631234 -0.115022175

model.gnn.gnn_layers.1.graph_conv.weight f4 [64, 64]
00000000: 260d 7cbe 2cc0 a83c 80d3 9ebd fc6c 0cbd
00000010: 2db9 7b3d 54ed f43c ee7b 76be 1eca 513e
00000020: e51a ab3d e31e 40be e47b 21be 3013 5ab9
00000030: 6e65 3dbe 26ad 45bd 056e 343d 8990 48be
00000040: bdda a4bd 2147 dfbd 5d5b 363c 711c a53d
00000050: 71c1 61bd ad21 84bd c422 2e3e a15c a43c
00000060: dae1 93bd f9bc 33be 41e7 d93d 9d64 6f3d
00000070: bc21 b53d e4d6 2ebc 7534 0ebe ba0c db3d
00000080: d058 46bc 16ad c23d 8e04 3abe f9a6 7a3e
00000090: 8c81 f5bd 880e 4ebd d2f5 2f3d 7874 4fbe
000000a0: de41 343e 1cdc f4bc 4905 1d3e 658f 1a3e
000000b0: a8e8 27bd e750 80be 4097 043e 5f47 2c3e
000000c0: fb9f 79bd eb5a 01bd 25a1 813d 275f 64bd
000000d0: 57f1 1cbe 91c6 22be 93f1 7e3e 8e7c 243e
000000e0: f9d2 6d3e 46b1 04be ced1 5bbd 0b60 3c3d
000000f0: 5c90 97bd 6604 083e afac b63d ab7e 14be
00000100: 0d4f dabd 8aef 1dbe 192b 8fbd cef0 03be
00000110: 3afa 353e 8da9 84be 9d0d 753d 8c5d eb3d
00000120: 10bc adbd 0495 b2bd aa52 413d 0fa7 ed3c
00000130: 31a4 39bd b0dd 83be def6 3a3e 2300 413d
00000140: aa91 49bd 8592 09be 9f2c 673d 347b d6bd
00000150: 10ca 31be 8415 97bd 5308 c73d d8c4 223e
00000160: e1e8 98be 53c0 083e 9793 7b3d 7ccc 90be
00000170: b59a 52be 4b70 0e3e 2219 3dbe 824d 183e
00000180: 35ef 0c3e 3e2b b83c cf2c 1d3e 0cd2 f1bd
00000190: cf01 c73d 693f 37be 0ab1 463e da13 6dbc
000001a0: 8255 11be fffb 40bb 3bac e13d 5ca5 77be
000001b0: 0478 d03d 4132 88be 3f95 74be f2ba 11bd
000001c0: 97d6 0e3e 228a 1d3e a64f 10be 42ad f6bd
000001d0: 10e2 dbbd 02e8 033e c897 913d 0255 e9bd
000001e0: e2c6 993a ccdf 1f3e f407 4bbe 7180 f5bd
000001f0: 6c60 5b3e 945b d5bd 93a8 32be cc76 8e3d
00000200: 9442 b4bd 0049 9ebd 1f52 a7bc 3e29 913d
00000210: 02c3 523e de8f 533c 59fa e83d 5874 1d3e
00000220: 9796 48be 6999 3f3e 861b dd3d a2f1 073c
00000230: 2dc3 cebd 2438 583d 03a5 023e bb3a e33d
00000240: 2307 573e 1920 073d 4981 41be dbb9 31bd
00000250: d031 17be a645 13be 1ba7 c2bd 28df 703d
00000260: eda1 993d 53f8 113e 1227 333c 65bd 113e
00000270: 926f d73d 00eb 15be ae00 403e ebc7 b83d
00000280: 8ca8 323e 91e4 f4bd 7cbb 1d3e 6d99 d0bb
00000290: 47ba 6a3e 9958 59be 493b 0d3e 9f2e 16be
000002a0: a09d 773d a91c 3a3d 3db2 fcbd 3099 003e
000002b0: 9eb7 473e 3fcd f43d 87e2 5c3d 68aa 8fbd
000002c0: d2d7 593e deec c7bd 1fe1 1fbe 8324 ac3c
000002d0: 171f b4bd d89a 0abe 8d68 16be a4a6 ecbd
000002e0: 5535 4c3e 09dc 2e3d f26a 51bc 2924 ec3d
000002f0: 7849 55be a82b 30be a475 703d 8c2c 09be
00000300: cbf3 2cbe bfb6 a0bc 118e cd3d 9bc7 efbd
00000310: 0c9b 08be b9e3 143b 6ca6 31be 3f80 293e
00000320: 905f a9bd 111c 34bd a830 293e 5f3f b8bc
00000330: 017a 5bbe fa70 153e ea2c 05bd bf52 4a3e
00000340: 835c fd3d 0e2d b73d a74b c1bd 8778 42be
00000350: b2b2 21bd 4033 ae3d 2e59 553d f2ac c63d
00000360: 8384 3b3e 0419 cf3d a867 a9bd 42a0 383e
00000370: d220 80b9 ac2f 84bd 3483 bd3d 4edd 00be
00000380: 3e5e 9cbd 2806 393e 433d 34be e78a 143e
00000390: 08a9 d0bd fc21 dd3c 3810 ccbd da6c b2bd
000003a0: 8f84 bc3b 08ad 983d b42b 92bd 6bd2 ea3d
000003b0: 54e0 27bd fb89 36be 25e8 273e 988a c2bd
000003c0: 787c 24bd b9ad 73be 9bf4 0fbe 3b0a 093e
000003d0: 2ca7 afbc 8a50 583e 2e8e fa3a 1855 39bd
000003e0: bfe4 a8be 3849 6d3e 5706 b8bd 3caf 11bd
000003f0: 875d f4bd 4e11 5f3d 123f 6bbe 4fe4 7d3d
-0.2461439 0.020599447 -0.07755184 -0.034283623 0.061455894 0.029898323 -0.24070713 0.20487258
0.08354739 -0.18761782 -0.15769917 -0.00020797248 -0.18495724 -0.04826083 0.044050235 -0.19586386
-0.080495335 -0.10902239 0.011130181 0.080620654 -0.05511612 -0.06451736 0.1700545 0.0200637
-0.07220812 -0.17552556 0.10639811 0.05844556 0.08844325 -0.010671351 -0.13887198 0.10695787
-0.0121061355 0.0950567 -0.181658 0.24477758 -0.119876 -0.050306827 0.042959042 -0.20259273
0.17603251 -0.029890113 0.15334047 0.15093763 -0.040993363 -0.25061724 0.12948322 0.16824101
-0.060943585 -0.031580847 0.06329564 -0.055754807 -0.15326439 -0.1589606 0.24896841 0.16063139
0.23225011 -0.1295825 -0.053666882 0.04599003 -0.07400581 0.13282928 0.089196555 -0.14501445
-0.10659609 -0.15423408 -0.06990642 -0.12884828 0.17771235 -0.25910607 0.059827436 0.11492452
-0.08483136 -0.08719829 0.047197975 0.029010324 -0.0453226 -0.25755072 0.18258235 0.04711927
-0.04921118 -0.13434799 0.05643904 -0.10472718 -0.17362237 -0.07377151 0.097183846 0.15895402
-0.29865173 0.13354616 0.06142005 -0.2828101 -0.20566829 0.13910024 -0.18466619 0.14873317
0.13763125 0.022481557 0.15349124 -0.118076414 0.09717142 -0.17895283 0.19403473 -0.014470065
-0.14192775 -0.0029447076 0.110191785 -0.24184173 0.10179141 -0.2660084 -0.23885058 -0.035578676
0.13949047 0.15384725 -0.14092883 -0.12044765 -0.107364774 0.12881473 0.07109028 -0.11393167
0.0011732245 0.15612715 -0.19827253 -0.11987389 0.21423501 -0.10417858 -0.17447118 0.069562525
-0.08801761 -0.077287674 -0.0204249 0.070879444 0.20582202 0.012912719 0.11375875 0.15376413
-0.19588695 0.18710865 0.10796265 0.008297356 -0.100958206 0.052787915 0.1275826 0.11095186
0.20998816 0.032989595 -0.18896975 -0.043390136 -0.14765096 -0.14382038 -0.09504529 0.05880657
0.07501588 0.14254884 0.010934608 0.14232405 0.10519327 -0.14640427 0.1875026 0.09022506
0.17447108 -0.11957658 0.15403551 -0.006365946 0.22922622 -0.21225204 0.13792147 -0.14666222
0.060453057 0.04543749 -0.12338684 0.12558436 0.19503638 0.1195321 0.05392697 -0.07014924
0.21273735 -0.09761976 -0.1561322 0.021013504 -0.087949924 -0.1353563 -0.1468832 -0.11555222
0.1994222 0.04269031 -0.012781845 0.115303345 -0.20828807 -0.17204154 0.05870594 -0.133959
-0.16889875 -0.01961839 0.10036863 -0.117079936 -0.13340396 0.002271874 -0.17348641 0.16552828
-0.0827018 -0.04397208 0.16522467 -0.022491155 -0.2143326 0.14593878 -0.032513537 0.19758128
0.12371161 0.089441404 -0.09438258 -0.1899129 -0.039477058 0.08505869 0.052087 0.097009555
0.18312268 0.10112193 -0.08271724 0.18029884 -0.00024438516 -0.06454405 0.09253541 -0.12584421
-0.07635163 0.18068755 -0.17601494 0.14506112 -0.1018849 0.026993744 -0.09964031 -0.08712168
0.005753107 0.07454878 -0.07137242 0.11465915 -0.04098542 -0.17826073 0.1639715 -0.09499091
-0.040157765 -0.23796739 -0.14058153 0.13382809 -0.021442018 0.21124473 0.0019115859 -0.045247167
-0.3298702 0.23172462 -0.08985584 -0.035567507 -0.119319014 0.054459862 -0.22973278 0.06198531

model.gnn.gnn_layers.1.graph_conv.bias f4 [64]
00000000: d045 433c 2ace 49bc 2a2c 42bc 9ab3 82bd
00000010: 2c67 dd3b dbf9 e6bc 67b7 e43b f813 f839
00000020: 1507 92bd 7445 d0bb faa5 133c c9e1 4bbc
00000030: aa04 3c3c 76ef bdbd c4ee 14bc 3b3f 1cbc
00000040: 80a3 90bc f005 a5bc e358 9abd 5cbb 0abd
00000050: d255 f23b 760b c0bc 3f63 febb fed1 cabd
00000060: 7d2b 21bd 8368 98bd c55d 0fbd 4936 9ebd
00000070: 0835 65bd 1a55 23bd abdb b6bc 2029 dbbc
00000080: 2a90 9cbb 0a49 01bd cc83 eb3c 3078 a23c
00000090: 3fc0 a7bb f070 bbbc 3e9b 84bd 1cda a7bc
000000a0: 777e e7bc 2192 1cbc 2792 883c 0ead 143c
000000b0: 5a5e 2bbd 1de2 8abd a0f3 b9bc a1ba 09bc
000000c0: 03e9 10bd 5c9d c0bc 9fc4 89bd 8964 fabb
000000d0: 38b1 babc beda 3bbc 8b32 cdbc 666d e5bb
000000e0: f406 91bc 4373 babc 411f 0c3d 47cd 88bb
000000f0: 83fc 50bd 7c01 90bc 59fd 26bd d767 80bd
0.0119185 -0.01231722 -0.01185135 -0.063819125 0.006756684 -0.028195312 0.006979871 0.00047317124
-0.07130257 -0.0063559357 0.00901174 -0.012443968 0.011475721 -0.09274189 -0.009090129 -0.00953656
-0.017656088 -0.020144433 -0.07536485 -0.033870086 0.0073954845 -0.023442965 -0.007763296 -0.09903334
-0.039348114 -0.07441809 -0.035001535 -0.07725198 -0.055958778 -0.03987608 -0.022321543 -0.026753008
-0.004777928 -0.031563796 0.02874937 0.0198327 -0.005119353 -0.022881001 -0.064749226 -0.020489745
-0.028258545 -0.009556324 0.016671253 0.009074463 -0.041838028 -0.06781409 -0.022699177 -0.008406312
-0.035378467 -0.023512535 -0.067269556 -0.0076413793 -0.022789583 -0.011465726 -0.025048515 -0.0070015667
-0.01770351 -0.02276004 0.034209494 -0.0041748616 -0.051022064 -0.017578833 -0.040768955 -0.06269806

model.gnn.gnn_layers.1.res_connection.weight f4 [64, 64]
00000000: 3f5b 9fbd a325 c13d fdff cebd b850 d5bc
00000010: 237d e73b 4796 08be b575 bc3d 3c0d 5b3d
00000020: e511 cd3c 5d50 9a3d 83e1 9dbd 12f7 efba
00000030: 8bb0 41bd a588 d6bb ecb8 6b3d b0d7 523d
00000040: 23c4 f2bd c915 f2bc 47ba a03d 6b27 ae3a
00000050: 4637 e63c 5a18 54be a35d c5bd 448c 9b3c
00000060: 52bb 22bc e9e2 3c3d cc44 0b3e 523e 8fbd
00000070: 8588 c63d 90ce 6e3d 00fd 9bbd fe3c c33d
00000080: 6775 efbc be40 5e3d 47eb cf3d 1a8f 5a3d
00000090: aabf 923d 8136 a63d da77 fb3d 08b1 cdbd
000000a0: 63d6 8b3d 3531 e5bc 4f67 60bd d40d 823d
000000b0: 1361 2a3d 2f1b 013d 3795 46bd 51aa 113d
000000c0: 2485 b33d f0c2 8a3d f7fd d8bd c233 f33c
000000d0: 2e41 c73c 7c18 18bd e1d9 74bd c4f8 f4ba
000000e0: 2363 c73d bb89 88bb bd92 ee3d f921 b9bd
000000f0: 0acc 773d c38d 26bd aeca ac3d 4d05 a73d
00000100: c314 c5bd bb4d 9fbe 314d 013e 24bc d33d
00000110: 83c4 d63d 7f2d e73b 9600 d5bd 8c0c 0fbe
00000120: a2d9 1bbd 068d 633d 3e3e 263e 8fbf 8bbc
00000130: b245 3ebd 7919 0cbe c591 adbd 79dd 073e
00000140: 4ffa babb 7ae2 31be 0346 d3bc 4f38 223e
00000150: e879 923b 5b4b a3bd 04bb 98bd d9c6 393d
00000160: 553e c23d 3692 38be 7a1b 6d3d ba63 073e
00000170: 9745 66bd 3c58 3b3d 755a 683e 2f5d e6bd
00000180: 04dd b8bd e4b8 85bd df20 163e 2a9b 86bc
00000190: e97f 34bd beee dfbc 8670 9b3d 9251 d3bd
000001a0: 5b25 7c3b 1c5a 22bd ce39 013d ded6 f5bd
000001b0: 067f 7fbd b291 8bbc be59 79be cad2 e6bd
000001c0: d79d 863d d426 0fbd 151a 083e 7638 903d
000001d0: 14de a73c 1ef8 63bd 0a37 133e 0545 12be
000001e0: d161 b23d 15d7 47be 9c4f f53d 452a 0abd
000001f0: a894 2b3e fbcc 9d3d 4dca 44bc 9d0f 83bd
00000200: b8ae bcbd dc4a 40bd 6e63 09bd 615c bdbd
00000210: 7752 9bbc 1a62 a3bc 4126 38bd 5702 cd3d
00000220: 7bce edbc b193 2c3c 169b 2cbd 888b d33d
00000230: ed9c 04be 3be5 6d3e 9e64 24be 44b4 24be
00000240: 07b1 163d d7cb 0a3d 8690 b7bd e7ef 1fbc
00000250: a11d 82bd 5008 c83d 718f 013e 49d9 29be
00000260: d1e6 03be be5f 9f3d 85eb 3bbe beac 86bc
00000270: 9fac 9bbb 240d e43c 34c8 26be 290b 153e
00000280: 134a 953d 6ca0 1dbc 927e 0b3d 744f 543d
00000290: a46f a93c 0a64 333d ec65 d83d 9ca1 eebd
000002a0: 2a95 1c3e 626e 443b e95b 63bd 9415 163e
000002b0: 0551 9b3d de30 7cbd 7ce1 7ebc ec5c f53c
000002c0: b299 9abd a68b d53d bdc2 b2bc e868 aebd
000002d0: 504b de3d c576 913d 16db 2d3d 980e 2b3d
000002e0: e580 a53d 33d2 813c ee4a 0e3d c25f 3dbe
000002f0: 0a71 1ebd 87b3 a5bd f851 243d 8a72 35be
00000300: ee6b fabc b8f8 593a 1190 913d 5663 5f3d
00000310: 5132 26bc b53c 4c3e 1b56 9c3c d071 11be
00000320: 9c63 0b3e 476b 4a3d 5863 20bd 9d71 55bd
00000330: 72d7 1dbe bd57 0e3c 4e43 933d ad54 603c
00000340: 0638 f33d 7ee7 c7bd ab00 c73c 99c1 533b
00000350: 9256 0a3c 1864 c23d 0f12 603d caa5 ebbd
00000360: 20d4 36be 754e 8cbd 24df 0a3e f812 97bd
00000370: 175e 373c 0336 883d f52c 44be 51f3 45be
00000380: c083 7e3d dcb5 f03c c798 10be 931e 80bd
00000390: 25d0 a23d faf1 5dbd 6c42 a43d 039c 0b3e
000003a0: 826b cebc 0855 05bd 1136 b43d 8942 383d
000003b0: cd7b 8a3d 4811 1f3e f9de 1abc 55ae 44be
000003c0: 3539 4d3d 5ea5 06be e2f0 103d 67b0 0ebe
000003d0: 08c9 813c 7801 c13c d63b d03d e2d4 863d
000003e0: 2751 ae3d 2eaa adbd 1e5f 10bd 4859 a4bd
000003f0: 50d8 07bc da0c 28bd 718e a8bd 8edc 5239
-0.07781076 0.09431007 -0.1010742 -0.026039466 0.007064478 -0.13338576 0.09202138 0.05347942
0.025032947 0.07534859 -0.077090286 -0.0018307886 -0.047287505 -0.006547051 0.057549402 0.051475227
-0.11853816 -0.029551404 0.078480296 0.0013286894 0.028102528 -0.20712414 -0.096370004 0.018987782
-0.009932356 0.046114836 0.13600463 -0.069943085 0.09694008 0.058302462 -0.07616615 0.09533118
-0.029230786 0.05426096 0.101522975 0.05335913 0.07165463 0.081158645 0.12278719 -0.10043532
0.068280004 -0.027977565 -0.054786023 0.06350294 0.041596483 0.031520065 -0.048482146 0.035562817
0.08765629 0.067754626 -0.10595315 0.029687766 0.024323072 -0.037132725 -0.059778098 -0.0018689861
0.09735706 -0.0041668094 0.11649082 -0.09039683 0.06049732 -0.04066254 0.084370956 0.08155308
-0.096231006 -0.3111399 0.12627102 0.10338619 0.104867004 0.007054984 -0.104005024 -0.1396963
-0.038049348 0.055554412 0.16234681 -0.017059116 -0.046453185 -0.13681592 -0.08475069 0.13268079
-0.0057061086 -0.1737155 -0.02579022 0.15841793 0.0044700988 -0.07973357 -0.074575454 0.04535565
0.09484545 -0.18024525 0.05788753 0.13221636 -0.05621871 0.045738444 0.22690757 -0.11248242
-0.090265304 -0.06529406 0.14660977 -0.01643141 -0.044067297 -0.02733552 0.075898215 -0.10318293
0.0038474414 -0.039636716 0.031549267 -0.12003873 -0.062377 -0.017037246 -0.2435064 -0.112706736
0.06573074 -0.03494914 0.132912 0.07042019 0.020491637 -0.055656545 0.14376464 -0.14284141
0.08710063 -0.19515641 0.11978075 -0.033731718 0.16755927 0.077051125 -0.012011123 -0.06399462
-0.092130125 -0.04694639 -0.03354209 -0.092461355 -0.01896022 -0.01994424 -0.044958357 0.10010212
-0.029029122 0.010533259 -0.04214009 0.10329348 -0.12950487 0.23231976 -0.16054007 -0.16084391
0.03678992 0.033885803 -0.089631125 -0.009761787 -0.063533075 0.097672105 0.12652375 -0.16586794
-0.12881018 0.07781933 -0.18351562 -0.016439792 -0.0047508026 0.027838297 -0.16287309 0.14555039
0.07289519 -0.009620767 0.034056254 0.051833585 0.020683117 0.043796577 0.10566315 -0.11651918
0.15291277 0.002997302 -0.055507574 0.14656669 0.075838126 -0.06157004 -0.015556689 0.029951535
-0.07548846 0.104270265 -0.021821374 -0.08516103 0.108542085 0.071027316 0.042445265 0.041761965
0.08081225 0.015847301 0.034739427 -0.1849356 -0.03868202 -0.08090883 0.040117234 -0.17719474
-0.030569043 0.0008314955 0.071075566 0.054538094 -0.010143832 0.19945033 0.019084027 -0.14203572
0.13612217 0.049418714 -0.03915724 -0.052110303 -0.15414217 0.008687911 0.07190572 0.013692063
0.1187592 -0.097609505 0.02429231 0.0032311438 0.0084434915 0.094917476 0.054704722 -0.11506231
-0.17854357 -0.06850902 0.13561684 -0.07376665 0.011191866 0.06650927 -0.19157775 -0.19331099
0.062137365 0.029383592 -0.1412078 -0.062558316 0.07949857 -0.054185845 0.080204815 0.13633732
-0.025197748 -0.032551795 0.08799375 0.044985328 0.067618944 0.15533936 -0.009452575 -0.19207127
0.050103385 -0.1314902 0.035385974 -0.1393448 0.01584293 0.02356027 0.10167663 0.06583573
0.08511572 -0.08479725 -0.03524696 -0.080248415 -0.008291319 -0.04102788 -0.082302935 0.00020109324

model.gnn.gnn_layers.1.res_connection.bias f4 [64]
00000000: d5bc 363d 13ba b33d 90b2 f0bd cb99 fcbc
00000010: 5a84 82bc 04c3 17be 3bc2 b73d 8be4 40bd
00000020: 5d54 44bd 198c 4e3d 0ae1 ac3d eb58 39bd
00000030: 2560 c2bb 69a4 243c dd72 bebd 906e c83d
00000040: 18f6 3b3d c0ce c0ba 5a96 c4bd 97f4 edbd
00000050: 4655 98bd 9355 8bbd e176 b2bd 6287 aa3d
00000060: fa9c 94bd e3a4 41bd bce5 5a3d f9b5 03be
00000070: 9d57 72bd c261 00bd de19 903d 75dc c2bd
00000080: 7f60 ce3d 3127 04be b416 dc3d 478b d0bd
00000090: dc21 933c af75 84bd f4ba d63d d6a3 dbbc
000000a0: d9ea 12bd c0bd d33d 479b 8a3c ffaf 273c
000000b0: 658d 8d3d 089e 793d c492 bcbd a33d f1bd
000000c0: d4ad 003c 9ecb de3d ab42 903d 8044 edbd
000000d0: 1d6e f43c bf78 6ebd df2a 7b3d ad81 b0bc
000000e0: a30f 5b3d 37f6 7a3a d014 983d af91 e63c
000000f0: 0f3f 983d 48e1 5dbd 5dd9 3c3c c5f8 1d3d
0.044613678 0.08775725 -0.11752808 -0.030835053 -0.01593225 -0.14820486 0.089725934 -0.047092956
-0.047932018 0.050426576 0.0844136 -0.045250814 -0.0059318715 0.010048964 -0.09299252 0.09786713
0.04588899 -0.0014710054 -0.0959899 -0.116189174 -0.074381396 -0.06803431 -0.087140806 0.083266035
-0.072565034 -0.04727639 0.053441748 -0.12862386 -0.059165586 -0.03134323 0.07036184 -0.09514705
0.10076999 -0.12905575 0.10746518 -0.10182815 0.017960481 -0.06467759 0.10484877 -0.026811522
-0.0358685 0.10338926 0.016919745 0.010234832 0.069117345 0.060941726 -0.09207681 -0.117793344
0.007853944 0.10878681 0.07043966 -0.11585331 0.029837662 -0.05822062 0.061320182 -0.02154621
0.05348171 0.0009573432 0.07425845 0.02814564 0.074339025 -0.054169923 0.011526433 0.038567323

model.readout.weight_and_sum.atom_weighting.0.weight f4 [1, 64]
00000000: d8e1 09be 7994 b3bd c6b0 f0bc ed84 df3d
00000010: ea21 483e f0dc a7bc c2ef 423d 19ea 3cbe
00000020: 299e 46bd b5f0 e6bc 09e8 0cbe 9bed bfbd
00000030: c50c 88bd f188 26bd 4323 3dbe dbb0 ee3a
00000040: 4c60 79bc 4956 71bd e498 a7bd ae58 8bbd
00000050: c8ac 973c 70e5 a5bc 1de3 38be b91a 3bbd
00000060: 80b7 93bd b2ba 983d d9d2 15be 67f2 533d
00000070: 5912 8fbd d9cb 573d 87c9 ddbd ba2f 15be
00000080: 0a3d 763d 546d a5bd e82a 30be 4477 f8bd
00000090: 32ee 223d ade6 37bd afd2 f13c 0a54 bfbd
000000a0: e4df 91bc 66b9 1e3d ad6b b8bd 8a7f a9bd
000000b0: a8d3 cd3b c24f db3d 302b a0bd a6ac 1ebe
000000c0: 77c8 7a3d 0e29 00be fb16 eebc 2083 073e
000000d0: 2f17 57bd 1e56 12be 3125 e9bd ce2e 0cbd
000000e0: 9896 53bd fe19 823d 3d68 cc3d 71c3 92bd
000000f0: 3553 0bbc 9dc3 97bc bc5d 253c 690f a0bc
-0.13465059 -0.08768553 -0.029381167 0.109140255 0.19544187 -0.020491093 0.047591932 -0.18448676
-0.048490677 -0.02819095 -0.1376039 -0.093714915 -0.066430606 -0.04065794 -0.18470483 0.0018210666
-0.015220713 -0.05892018 -0.081834584 -0.06804024 0.018515006 -0.020251006 -0.18055387 -0.04567978
-0.07212734 0.07457484 -0.14631213 0.051744845 -0.069859214 0.05268464 -0.10829454 -0.14568987
0.060116805 -0.08077493 -0.17203867 -0.12132123 0.039777942 -0.044897724 0.029519407 -0.09342201
-0.017806955 0.03875103 -0.090049125 -0.08276279 0.006281335 0.10708572 -0.07820737 -0.15495548
0.061226334 -0.12515661 -0.029063692 0.13233614 -0.052512344 -0.14290664 -0.11384047 -0.034224324
-0.05165729 0.06352614 0.099808194 -0.07166184 -0.008503725 -0.018525893 0.010093149 -0.019538598

model.predict.predict.1.weight f4 [64, 128]
00000000: 32e6 bcbd fd7f 253b f7bb 1e3c e786 7b3d
00000010: 80a3 e2bd ac33 7e3d 35a6 e3bc 1c00 323d
00000020: 9580 bbbc 5e6f ddbc 8d5e ddbd 8904 7e3d
00000030: 7117 93bd 888b 8cbd f4e4 073c ea86 cd3c
00000040: 5f53 f63d 9b0c 9fbd 07b0 ecbd c390 463d
00000050: 8191 47be a3ab 42bd 6434 86bd 7f1a cd3d
00000060: f310 9cbd 5df7 923d 0730 6c3c 6d48 7fbc
00000070: 175f bebd c643 213d aa09 dfba bdec 463b
00000080: 8634 05bd 1b1c 133b d6a3 2ebc f3e7 973c
00000090: aaf1 753c 91ba 31bd 7e7a 8abd 74cc ce3a
000000a0: 58b8 aa3c a4d3 b13c 55ce 053a 78c1 4bbc
000000b0: 2e7b 723d d547 02bc 3390 ba3a 5ff9 24bd
000000c0: 5beb 7ebd 76d0 bbbd 62ad 003d a152 ea3c
000000d0: 7a57 723d 8269 49bc 268d ffbc c348 1bbd
000000e0: 504e cfbc fb76 033d 932d 87bd 773e c3bd
000000f0: e687 863d b0cb c7bd 1ebb 49bc b673 20bd
00000100: 96bf c0bc 5605 d4bd fb54 783d 2671 6c3d
00000110: bb8c 35be 80b7 1e3d 2d3e b0bd 7047 003c
00000120: f6da e1bc 143d 983d a6cd 7e3d f525 103d
00000130: 7f01 2abd 1bc5 cc3d ee32 a0bd a91f 09bc
00000140: 37ec 6d3e 9eb4 d9bd 1e99 d03d 8fe0 0ebd
00000150: 4a3d 32bd 8f72 4dbc 666d 6f3d 70b1 e43d
00000160: aa5c 1cbd 3749 013d 7191 a03d 4bd8 a8bd
00000170: 279a 4f3d 566d c23d 2dc7 2bbd 67f9 89bc
00000180: 08ac 49bd 8080 823d 751e 193d ae5a 92bd
00000190: 1e80 3e3d 0f39 febc ed1f 723a 9473 44bd
000001a0: ec49 8d3d db21 353c 67b4 92bd 94d0 ea3d
000001b0: cfc5 9c3d c89c 5d3d c423 57bd 1d4b 24bd
000001c0: 43de e0bd 17f2 31be 2e07 1b3d c887 71bd
000001d0: 7c81 9fbc d066 d93d 849d ac3d d05c c13d
000001e0: 02b4 4bbd bb7e bebd 719e 52bb 15e2 f0bc
000001f0: 9ec4 b93c 85fd 883d 9ac4 d2bd 7443 dfbc
00000200: cec6 a9bc 2c06 ec3a 7c2b c3bc 11fd 653d
00000210: 0cf8 55be f957 493b 0a79 bebd 9e6b b3bc
00000220: b2bb f0bb d2b8 aebc 14b1 343d a903 1bbc
00000230: fd03 fa3c ca1e 923d b92a 713d 3f58 3a3d
00000240: ba7b 883d 773a b3bd 93e6 18bc faa8 96bd
00000250: 26b1 84bc 6d53 443d 268b 3ebd 9d07 6d3d
00000260: f5c7 783c 3a9c d13d 7436 2ebd 39b9 9c3d
00000270: f1ba 08be fa51 f63c 1ff9 0c3d 4ecd 6b3d
00000280: 0686 8abd 32e6 5cbd ee5e af3d 6f24 303d
00000290: dc3c 73bd f842 4dbc 40e0 1b3d 58be 6a3c
000002a0: 6bc5 ba3d 68a8 3fbd 9319 97bd 4035 95b8
000002b0: 4d65 763d 544a 22bd bb37 2f3c 82a5 12bd
000002c0: 2eca c63c 1e37 263d cf06 b33d 033e 253e
000002d0: 65af 37bd 467c c4bc 86b8 233d a873 a23d
000002e0: 68b1 c3bd 5fe2 223d a6d5 bcbd 6c85 0f3c
000002f0: 5cbd 5fbd 74b2 34ba 90ea eabc 7bb3 743d
00000300: 13d1 5f3c f3cb 18bd ba33 3c3d 32b4 b5bb
00000310: bb4e 25be aca6 b83d 1c99 54ba 921e 15bd
00000320: 59a6 48bb fb04 83bd ed3b 933d 7490 f6bc
00000330: dfb5 02bd dc98 1f3d 9a47 60bc a55c dc3d
00000340: 6b28 ee3d b5ca 5abd 4ec2 143e ccd0 9b3d
00000350: 4ca4 c8bd 8784 f6bb 0ecb ac3b a43d ee3c
00000360: e0bd 43bd 60cb 8bbc b48d f0bd edfa ae3c
00000370: bdfb 42b9 d68f cabc 0351 b0bc e1bd 0cbd
00000380: 97a9 263d 162f 46bd cf88 93bd 3c4d cabd
00000390: 6a48 7b3d cd45 713c 6bf7 92bc b2bd a2bd
000003a0: af9a 023e 550c 6abc b472 8ebd 5b22 113d
000003b0: e60e bfbd 0094 b13b 42f9 3e3d def6 983d
000003c0: cbfe c5bd 4f17 18bd a3cb 943d f376 293e
000003d0: a05b 3abe 2608 fd3c 6fb0 e23c 49d0 4fbd
000003e0: 734c 44be 2c43 2ebe 1552 7cbd 8790 57bc
000003f0: 99a3 043d 932f 71bd 28d6 a73c 1a92 043c
-0.09223594 0.002525329 0.009688369 0.06140795 -0.110663414 0.062060997 -0.027789215 0.043457136
-0.022888461 -0.027030643 -0.1080905 0.062016044 -0.071822055 -0.06862551 0.008294333 0.025088746
0.120276205 -0.07766076 -0.11557012 0.0484779 -0.19489099 -0.047526967 -0.065529615 0.10014819
-0.0762042 0.07176087 0.0144157475 -0.0155812325 -0.09295481 0.039371274 -0.001701643 0.003035351
-0.032520793 0.0022447172 -0.010659179 0.01854322 0.0150112305 -0.043390814 -0.06761645 0.0015777485
0.020839855 0.021707363 0.0005104293 -0.012436263 0.059199505 -0.007951696 0.0014233649 -0.04027688
-0.06223617 -0.0917062 0.03141535 0.028603854 0.059165455 -0.012293221 -0.031195235 -0.037911188
-0.025305897 0.03209589 -0.066004895 -0.095333986 0.06568889 -0.09755647 -0.012312679 -0.03917285
-0.023528855 -0.1035258 0.06062792 0.057725094 -0.17729466 0.038749218 -0.08605609 0.007829532
-0.027570229 0.07433525 0.06220784 0.03519245 -0.041505333 0.099985324 -0.07822214 -0.008369365
0.2323464 -0.10630153 0.10185455 -0.034882125 -0.04351548 -0.01253952 0.05845394 0.11166656
-0.03817431 0.031563964 0.07840241 -0.082443796 0.05068412 0.094935104 -0.041937996 -0.016842557
-0.049236327 0.06372166 0.03738256 -0.07146202 0.0465089 -0.031033067 0.00092363247 -0.047961786
0.06898865 0.011055435 -0.07163315 0.11465564 0.076549165 0.054104596 -0.052524343 -0.040110696
-0.10979893 -0.17377506 0.037848644 -0.05896738 -0.019470923 0.10615313 0.08428481 0.09441531
-0.049732216 -0.09301516 -0.0032137895 -0.02940468 0.022676762 0.0668898 -0.10291405 -0.027253844
-0.02072468 0.001800721 -0.023824446 0.056149546 -0.20895404 0.0030722602 -0.0930043 -0.021901902
-0.007346594 -0.021328364 0.044114187 -0.009461322 0.03051948 0.07134779 0.058878634 0.045494314
0.06664224 -0.08751386 -0.009332317 -0.073564485 -0.016197752 0.047931124 -0.04651942 0.05786859
0.015184392 0.10234876 -0.0425324 0.07652516 -0.13352562 0.030068386 0.034417268 0.05756884
-0.06763844 -0.05393047 0.08563028 0.043003496 -0.059384212 -0.012528174 0.03805566 0.014327608
0.09119686 -0.046791464 -0.07377925 -7.114792e-05 0.0601552 -0.039621666 0.0106944395 -0.03580237
0.024266329 0.040579908 0.08741533 0.16136937 -0.044845004 -0.02398504 0.039970897 0.07932216
-0.09555322 0.039766666 -0.09220438 0.008759838 -0.054623947 -0.00068930467 -0.028676301 0.05974148
0.013660687 -0.037303876 0.045947768 -0.0055451626 -0.16143315 0.09016165 -0.0008109973 -0.036406107
-0.003061673 -0.06397434 0.07189164 -0.030098177 -0.031911727 0.038964137 -0.013688946 0.10759858
0.11628803 -0.053415973 0.14527246 0.07608184 -0.09796962 -0.0075231227 0.0052732294 0.029082127
-0.0477885 -0.01706475 -0.11745778 0.021359885 -0.00018595062 -0.02472679 -0.021523004 -0.03436077
0.040689077 -0.04838475 -0.072038285 -0.098780125 0.061348356 0.014726114 -0.017940244 -0.07946338
0.1275432 -0.014285167 -0.06955472 0.035433155 -0.093290135 0.0054192543 0.04662443 0.07468961
-0.096677385 -0.037131604 0.07265403 0.16549282 -0.18199015 0.030887675 0.02767202 -0.050735746
-0.19169788 -0.17017812 -0.061601717 -0.013157017 0.03238258 -0.05888326 0.02048786 0.008091474

model.predict.predict.1.bias f4 [64]
00000000: e6c9 933d a905 773d 812a c23b d909 7f3d
00000010: 19d7 203d a62a 643c 24a3 85bc 1d86 afbd
00000020: a606 88ba be73 773d f74d 94bd 6ee3 aa3d
00000030: 4650 b6bd 77a9 94bd 10d4 233d b696 833d
00000040: c00c 543d 31d3 49bd c01f d5bd 3786 403d
00000050: 8a3e 963c 4212 86bc fdac 7abd 334f 0e3d
00000060: be21 283c dfce 2a3d ae7f 39bd 666d 243d
00000070: 8270 cabc 5b1b 7b3d efb2 5c3d 548a fd3d
00000080: 03cf 0cbd fa13 d93c d0d6 abbd 1782 013e
00000090: f9a6 923d 5009 953b e897 b53d 0af0 8fbc
000000a0: f107 0d3d b5c1 a73a 16eb 5c3d 1c8e f53c
000000b0: 6083 413d b017 fd3b 7003 243d 70c9 c93d
000000c0: e6bb 6cbc 6e4b 1b3d 7a83 1e3d ae50 6bbd
000000d0: 47ea da3d 68b7 133d 9ea3 aa3d 69b7 dfbc
000000e0: 1643 f9bc c211 df3d f7de 583d 8242 7e3c
000000f0: ca02 02bd 82da 6dbd e6f3 323c 9463 253d
0.072162434 0.060308132 0.005925477 0.06226525 0.039267633 0.013926184 -0.016313143 -0.08570502
-0.0010377958 0.060413115 -0.07241433 0.0834416 -0.0890203 -0.07258885 0.03999716 0.0642523
0.05176997 -0.049273673 -0.104064465 0.047002997 0.018340368 -0.016366128 -0.06120013 0.0347435
0.010261951 0.041701194 -0.04528778 0.040143393 -0.024711851 0.061305385 0.053881582 0.123798996
-0.03437711 0.026498783 -0.083905816 0.12647282 0.07160754 0.0045482293 0.088668644 -0.017570514
0.0344314 0.0012798818 0.053935133 0.02997499 0.04724443 0.007723771 0.04004234 0.09852874
-0.014449095 0.037913732 0.038699605 -0.05744999 0.10689216 0.03606358 0.08331989 -0.027309136
-0.030427497 0.10892059 0.05294701 0.015518786 -0.03174094 -0.058069713 0.010922408 0.04037817

model.predict.predict.3.weight f4 [64]
00000000: c9ae 813f 1ada 813f 0eb5 893f e706 803f
00000010: ed89 843f f1b3 803f fe6c 803f f566 813f
00000020: 9901 883f 3f69 7b3f 8133 7c3f d197 723f
00000030: 5d44 783f a91c 803f c1b6 853f 6749 763f
00000040: b784 7c3f f252 833f 37b7 7a3f 0885 7a3f
00000050: aa46 7e3f 0447 843f c6d1 723f 4a2d 7d3f
00000060: 4474 883f 2370 7e3f b2c0 873f 0fec 7b3f
00000070: ed3f 833f dd11 763f 0572 813f ca1d 823f
00000080: e125 783f ac7a 843f 82d3 833f c46c 833f
00000090: 50f0 793f a265 813f bbf0 7b3f 5d3d 813f
000000a0: 177c 7b3f 2bcf 753f 3768 803f ab6b 7a3f
000000b0: c79a 823f 00a4 803f dc7a 823f 671f 823f
000000c0: b71a 853f fce8 7f3f 1544 7f3f 5601 773f
000000d0: 4b47 843f 6a4b 843f 234f 813f e1af 8a3f
000000e0: 9a07 813f 2df3 7c3f 507e 743f c59e 7a3f
000000f0: fcce 7c3f c985 813f 2dba 803f edbc 863f
1.0131465 1.0144684 1.0758379 1.0002106 1.0354592 1.0054914 1.0033262 1.0109545
1.0625488 0.9820747 0.9851609 0.94762903 0.96979314 1.0008746 1.0446397 0.96205753
0.98640007 1.0259688 0.97935814 0.9785924 0.99326575 1.0334172 0.9485134 0.9889723
1.0660481 0.9938986 1.0605681 0.9840707 1.0253884 0.9612101 1.0112921 1.0165341
0.969328 1.0349936 1.0298922 1.0267568 0.9763231 1.0109141 0.984142 1.0096852
0.9823622 0.9601924 1.0031804 0.9782054 1.0203484 1.0050049 1.0193744 1.0165833
1.0398778 0.9996488 0.9971326 0.96486413 1.0334257 1.0335515 1.0102276 1.0834924
1.0080445 0.98808557 0.9550524 0.97898513 0.98753333 1.0118953 1.0056816 1.0526406

model.predict.predict.3.bias f4 [64]
00000000: eba0 0ebc 1464 1bbc d76a 44bc 74c9 3abc
00000010: ad10 33bc 9134 fb3b 53ce 0a3c 76da 5abc
00000020: aab4 1cbc 44df d63b d33b fc3b 4723 4dbc
00000030: fa19 0b3c acc7 06bc eb0b 0f3c 55ed 0d3c
00000040: f653 dabb 4370 263c 84a9 0bbc 34c1 0ebc
00000050: 03ab 193c 27f9 233c 6c92 50bb 5018 163c
00000060: 5ac6 22bc 248e 143c 7a45 10bc fbb1 293c
00000070: cff0 123c 184b 34bc ada8 85bb bd58 fc3b
00000080: 5a7e 373c 181f 2e3c 719f a13b 6e14 2bbc
00000090: 27bf 0e3c c18c 0e3c 2ae7 e93b 9d67 0b3c
000000a0: 9c41 1e3c a21b 11bc cbae 1e3c 6abe 03bc
000000b0: b7c5 063c 9e73 093c 71c0 213c 27a6 12bc
000000c0: 2029 15bc 0221 f43b d9d8 1cbc b694 aa39
000000d0: 3ada 1f3c 55cb 123c db44 0c3c e864 38bc
000000e0: 8def 1fbc 892c 0bbc 8d3e 0d3c ad97 0dbc
000000f0: 06e6 1cbc f7a9 723c 16dc 073c ad6d 09bc
-0.008705358 -0.00948431 -0.011988363 -0.011400569 -0.010929269 0.0076661785 0.008472043 -0.013357749
-0.009564558 0.006557377 0.0076975613 -0.012520618 0.00849008 -0.008226316 0.008730869 0.008662541
-0.006662841 0.010158601 -0.008524302 -0.008713055 0.009379151 0.010008133 -0.0031825555 0.00916107
-0.009934986 0.009067092 -0.008805627 0.010357375 0.008968546 -0.011004232 -0.0040789456 0.007701008
0.011199558 0.0106275305 0.004932337 -0.010441883 0.008712566 0.0087005505 0.0071381526 0.00850859
0.009659197 -0.008856686 0.009685229 -0.008041004 0.00822585 0.008389382 0.009872542 -0.008950747
-0.009104043 0.007450224 -0.009573185 0.00032535725 0.009756619 0.008959611 0.008561338 -0.011254527
-0.009761703 -0.008494505 0.00862087 -0.008642119 -0.009576326 0.014811031 0.008292219 -0.008387965

model.predict.predict.3.running_mean f4 [64]
00000000: 0444 103e bf09 853e 5815 c030 167e 923f
00000010: cc17 f43e d95d f43e 447c 4b3b 07b9 153f
00000020: 75b2 8f3e 61fd f83f 59f1 a63e 77be f13e
00000030: bce6 033e 8a2c e538 0da0 eb3e 2e2c 303f
00000040: d833 733d 754a e13e b89b 6e26 f577 b63e
00000050: 05c2 0240 c923 233f 6cfc 5a3f 4471 4f3e
00000060: 3947 7e3e 02b9 8030 9a5d 833d 505c ff3f
00000070: edf1 623f 6a89 203f d827 b43e f70b 9c3f
00000080: 660b d23e 0a52 783f 7727 1d3d 5856 ae3f
00000090: 67cd 8a3f 9e3c a53f aebe 8a3e 439a 3d3f
000000a0: bf8b f93f 6007 283b 877e 523f 1a37 a13f
000000b0: da98 3b3f 92db 9b3e de5a 6e3f a408 323f
000000c0: 46ad a43e 3f7f ca3d f236 970b f82c e635
000000d0: cce4 623f ba24 0c3f 90e2 913f 096a 713f
000000e0: 33cd 3e3f f864 693f 7e87 2a3e b41a d53d
000000f0: 69bd 693f 7d1e 203f 4236 653e 4f29 3a38
0.14088446 0.25983998 1.3975905e-09 1.1444728 0.47674406 0.4772785 0.003104941 0.58485454
0.2806584 1.9452325 0.3260601 0.47215626 0.12880987 0.00010927867 0.46020547 0.6881741
0.059375614 0.4400212 8.2783876e-16 0.35638395 2.043092 0.6372648 0.85541415 0.20258051
0.24831857 9.365808e-10 0.064143375 1.9950047 0.886504 0.6270968 0.35186648 1.2191151
0.4102432 0.9700018 0.038367715 1.36201 1.0843934 1.2909124 0.27098602 0.7406351
1.9495772 0.0025639161 0.82224315 1.2594941 0.7328011 0.30440956 0.931074 0.69544435
0.32163447 0.098875515 5.8245757e-32 1.7149423e-06 0.88630366 0.5474354 1.1397266 0.9430242
0.7453186 0.9116969 0.16653249 0.10405484 0.9130464 0.6254652 0.22383979 4.4384327e-05

model.predict.predict.3.running_var f4 [64]
00000000: 88b3 7f3d f529 443e fc25 7e2f 87d5 2e3f
00000010: f5e5 e63e 3e1b a53e c886 2e3b 3786 173f
00000020: 1d6f 403e ecdd 7e3f fb59 463e 3964 a43e
00000030: 66f9 e43d 4c51 d736 f1d3 843e 2ba6 9b3e
00000040: 7927 0f3d f9da a93e 1592 ae23 7d4b 183e
00000050: bd09 a53f 3371 843e c0af a23e 866c ef3d
00000060: 152b 1a3e ebd6 f62e 14cc 3c3d 8622 9d3f
00000070: 0fc1 a83e d3c1 7a3e 0d15 a13e eabc e83e
00000080: 8f51 913e 6847 153f 1177 053d c49a 393f
00000090: 2f9a de3e 50c5 683f 1fb3 e13d 8d19 913e
000000a0: e31f 9f3f abab 5a3a 7b9a a83e 13ff ed3e
000000b0: 4017 003f 0b38 2d3e 29f5 cf3e 79b5 db3e
000000c0: 12d1 ab3e f80d 643d a6b1 f90b 1012 5534
000000d0: 8b94 0c3f 33bc 5a3e 0eef 4a3f d426 743f
000000e0: 3ea4 f73e 8ef5 ae3e e2cc d23d 845e c43d
000000f0: c87c 023f f036 f03e ab03 ec3d 2541 b036
0.062427074 0.1915663 2.311466e-10 0.68294567 0.45097318 0.32247347 0.002663063 0.5918917
0.18792386 0.99557376 0.19370262 0.32107714 0.111803815 6.4169635e-06 0.25942948 0.30400214
0.034949753 0.33174875 1.8926986e-17 0.14872546 1.2893597 0.25867614 0.31774712 0.11690621
0.15055497 1.1224962e-10 0.04609306 1.2276161 0.32959792 0.24488 0.31461373 0.4545663
0.28382537 0.5831208 0.032584254 0.7250178 0.43477008 0.90926075 0.11020493 0.28339806
1.2431606 0.00083416206 0.3293036 0.4648367 0.50035477 0.1691591 0.4061673 0.4291189
0.33557945 0.055677384 9.6178607e-32 1.9843742e-07 0.5491416 0.21360855 0.7927102 0.95371747
0.48367494 0.34171718 0.102929845 0.0958834 0.5097165 0.46916914 0.11524137 5.2527926e-06

model.predict.predict.4.weight f4 [2, 64]
00000000: eae4 fd3d 3d55 e43d e90d 253e 34a6 943b
00000010: 4e03 e73d 838b 91bd 708f b9bd 639f 17bd
00000020: cd98 d73d 0d60 273d 9e50 aebd 5f20 19bd
00000030: 991e 0b3d 8301 ff3c 7685 efbc 24c9 c8bd
00000040: bf70 023d 9887 7dbd 3f0c 0b3d 46ba 653d
00000050: 1081 1ebc b35c 25bd c1a2 8abc 73bd 87bd
00000060: 49b4 1f3e a13e 0dbd 5bc5 323e 9e83 883d
00000070: db08 16be 950b d83c d2c3 a0bc d9be 68bd
00000080: 0018 05be 200c fabc dd26 4abd d775 6cbc
00000090: c128 6f3d e283 a0bd bca4 ca3d cd9b 12be
000000a0: d82e 2c3d f605 813d 20bd 05be cb55 bfbc
000000b0: bba7 e1bd 3800 833c d3b4 0abe 3fa6 cf3d
000000c0: aaf2 9e3d 721a d2bd 9a13 953d e5e2 993d
000000d0: 9ff1 01bd 374e 16bc a6de cfbd 38de ad3c
000000e0: 114d 423d 88b6 b83d 1d07 a23d cfa3 8f3a
000000f0: 38d6 d53c c899 bfbd dc17 91bd de6d d93d
00000100: 6036 bb3a d3f6 8dbd e95e f03c 449b 84bd
00000110: 9a92 d73b 5692 d63d fd5f 1e3d d155 d5bd
00000120: 067c 1abd 6c7a 8b3d b301 9f3c 13f7 77bd
00000130: f3a4 333d a1bc c3bd 08b3 cb3d 27e5 98bd
00000140: 6f7f 8abd d106 913d 5190 cbbd ed36 96bd
00000150: eb83 e63d 67ee b83d 3082 dcbc 0ed1 c03d
00000160: 4278 02be 6f87 343d 499b edbd 787e e13d
00000170: c46d 113d 6853 443c e85f b7bd 3109 023d
00000180: a743 c7bd 566e 053e f967 1ebe ff83 c1bd
00000190: 5645 ce3d cfd1 023e aa4f 633d 5808 8bbd
000001a0: 6620 a63d c3be f2bb 87ad 26bd 750d 56bd
000001b0: 217b 213d 28d5 f53d 1015 47bd b2dd 9fbd
000001c0: bc8c 08be 04db 4c3d 597b 8d3b dfb2 413d
000001d0: b388 ec3d 49ce c23d fdd5 fe3d 8f80 19be
000001e0: 30bf 07bd b012 87bd bb87 8e3d 7fd5 21bd
000001f0: d56d 88bd d58d 03bc cd0a a13d 6b94 2ebd
0.123971775 0.111490704 0.16118588 0.0045364145 0.11279927 -0.07106688 -0.09060562 -0.037017237
0.10527191 0.040863086 -0.0851147 -0.037384387 0.033964727 0.03112865 -0.029238444 -0.098039895
0.031845804 -0.06189689 0.033947226 0.056085847 -0.009674326 -0.040371608 -0.01692331 -0.066279314
0.15596117 -0.034483556 0.17458098 0.06665729 -0.14651816 0.02637271 -0.019624624 -0.05682263
-0.12997437 -0.03052336 -0.04935347 -0.014432392 0.058388475 -0.07837655 0.09894702 -0.14317246
0.04203686 0.06299965 -0.13060427 -0.023356339 -0.1101832 0.015991315 -0.13545541 0.10139131
0.07761128 -0.1025895 0.07279129 0.0751398 -0.03172457 -0.009173921 -0.10149889 0.021224126
0.047436778 0.0901919 0.07911513 0.0010958853 0.026103124 -0.09355503 -0.07084629 0.10616659
0.0014283173 -0.069318436 0.029342132 -0.06474927 0.0065787556 0.1047713 0.03866576 -0.10416759
-0.037715934 0.068104595 0.01940999 -0.060538363 0.04385848 -0.095574625 0.09946257 -0.07465582
-0.06762587 0.07081378 -0.099396355 -0.07334695 0.1125563 0.09029847 -0.026917547 0.09414874
-0.12741187 0.044074472 -0.11601884 0.1101045 0.03550507 0.011982776 -0.089538395 0.031747047
-0.097297005 0.13030371 -0.1546935 -0.094490044 0.100718185 0.12775348 0.055495895 -0.06788701
0.08111648 -0.0074079945 -0.040692832 -0.052258927 0.039424066 0.12003547 -0.04860407 -0.07805957
-0.13334936 0.050013557 0.0043176827 0.047289725 0.11549511 0.09512002 0.12443159 -0.14990447
-0.033141315 -0.06595361 0.06959482 -0.039510246 -0.06661574 -0.008029421 0.07863388 -0.04262201

model.predict.predict.4.bias f4 [2]
00000000: 642e d53d e709 a73d
0.10409239 0.081561856
