models/model_epigenetic/checkpoint2.pt (torch, 267911 bytes, 47 tensors)

model.gnn.gnn_layers.0.graph_conv.weight f4 [30, 64]
0	0x3e236eaf	0.15960191
1	0x3e8d0f3e	0.2755069
2	0x3e182215	0.14856751
3	0x3debfb76	0.11522572
4	0xbd415391	-0.047198836
5	0xbe7a7b3b	-0.24461071
6	0x3e64ec4f	0.2235577
7	0xbdb58848	-0.08863884
8	0xbe095086	-0.13409624
9	0xbe505746	-0.20345792
10	0xbe095989	-0.13413061
11	0x3e3ef882	0.18649486
12	0xbdf5068c	-0.11964139
13	0xbead43df	-0.33840844
14	0x3e39b75c	0.18136352
15	0x3e626124	0.22107369
16	0x3e17438c	0.14771861
17	0x3defd99b	0.11711427
18	0x3da4755a	0.080301955
19	0xbe8537ae	-0.26019043
20	0xbe4b7ecd	-0.1987259
21	0xbe79bd64	-0.24388653
22	0x3e2dbfb0	0.16967654
23	0x3e3dd56a	0.18538442
24	0xbe9b54f5	-0.30338255
25	0xbde93e5f	-0.113888495
26	0xbcc85b03	-0.02445746
27	0x3d321cd7	0.043484535
28	0x3b460707	0.003021659
29	0x3e358f20	0.17730379
30	0x3d9c8a3c	0.076435536
31	0xbe9c1aaf	-0.30489108
32	0xbe19f896	-0.15036234
33	0x3e805167	0.25062105
34	0xbe5c5b76	-0.21519265
35	0x3dbf0afc	0.09328267
36	0x3c6fecc6	0.0146438535
37	0xbdc63c60	-0.09679484
38	0x3dcc9d3c	0.099909276
39	0x3d118847	0.035530355
40	0xbe89e90d	-0.26935616
41	0x3dd4e887	0.103959136
42	0xbe5e38cf	-0.21701358
43	0xbc1890b8	-0.009311847
44	0x3e6e142b	0.23249881
45	0xbda597c6	-0.08085589
46	0xbcdc5834	-0.026897527
47	0xbe164ac4	-0.14676958
48	0x3c8fbee3	0.017547077
49	0x3ca5e4d4	0.020250715
50	0xbe44643f	-0.19178866
51	0xbe2782ed	-0.16358538
52	0xbdac6281	-0.08417226
53	0x3dbbe29f	0.09174084
54	0x3e14b502	0.14522174
55	0x3d0259de	0.031823985
56	0x3d1f62dd	0.038912643
57	0xbd53fad9	-0.0517529
58	0xbf2006a1	-0.62510115
59	0x3cd6beea	0.026214082
60	0xbde5b2d2	-0.11215748
61	0x3e7001aa	0.23438135
62	0x3e24ab70	0.16081023
63	0x3e24a316	0.16077837
64	0xbea67660	-0.32512188
65	0x3e29d17c	0.16583818
66	0x3d51af4f	0.051192578
67	0xbdca8cb7	-0.098901205
68	0x3e2869c6	0.164466
69	0x3e45092a	0.19241777
70	0xbe68b36d	-0.22724696
71	0x3da8e826	0.08247404
72	0xbe890cde	-0.2676763
73	0xbd3a3769	-0.045463
74	0x3e58eccc	0.21184081
75	0x3e33337e	0.17500111
76	0xbcf258a6	-0.029583286
77	0x3e6aa59b	0.22914736
78	0xbc979326	-0.018502783
79	0xbe923a14	-0.28559935
80	0x3e0eb717	0.1393703
81	0xbd37bac9	-0.044855867
82	0x3d104460	0.035221457
83	0x3dc99699	0.09843177
84	0x3e444ded	0.19170351
85	0x3e6cef69	0.23138203
86	0x3e9e2ba6	0.30892676
87	0x3d1c68f6	0.038186036
88	0x3d562c42	0.0522883
89	0x3e27b6e7	0.16378365
90	0xbec73c4e	-0.38913196
91	0xbc9171cf	-0.017754463
92	0xbd456573	-0.048192453
93	0xbdfa0715	-0.12208382
94	0xbcfd3c02	-0.030912403
95	0x3e56f85a	0.20993176
96	0x3e7832e9	0.2423817
97	0x3e823097	0.25427696
98	0x3da703be	0.08155011
99	0xbeed40e6	-0.46338576
100	0x3da35974	0.07976046
101	0x3de77b32	0.113027945
102	0x3da98c7c	0.082787484
103	0xbea11be3	-0.31466588
104	0x3e942cd9	0.28940466
105	0x3d8ebe76	0.06969921
106	0x3d233065	0.039841074
107	0x3e003884	0.12521559
108	0xbc3d1624	-0.011540923
109	0xbce32a5e	-0.027730163
110	0xbdfde17b	-0.123965226
111	0xbe32ac84	-0.17448622
112	0xbdae7163	-0.085177206
113	0x3e5c8b4a	0.2153751
114	0xbd4d050f	-0.050053652
115	0xbc5a6138	-0.013328843
116	0x3da33ffd	0.07971189
117	0xbde104f3	-0.10987272
118	0xbe2468a6	-0.16055545
119	0x3e4dbd4d	0.20091744
120	0x3aca4edd	0.001543488
121	0x3c4c5889	0.01247228
122	0x3ecabece	0.39598697
123	0xbe231f87	-0.15929995
124	0xbe74db90	-0.23911881
125	0xbe0b3cf9	-0.13597478
126	0x3c878969	0.016545014
127	0xbdda34c5	-0.10654596
128	0x3d9b6f90	0.07589638
129	0xbdf6b7c9	-0.12046773
130	0x3d462724	0.04837717
131	0xbe49060b	-0.19631211
132	0x3e294a9c	0.16532367
133	0xbe0ab57d	-0.13545795
134	0x3c066f44	0.008205239
135	0x3d836b6b	0.06416973
136	0x3de5817b	0.11206337
137	0xbe10ede2	-0.14153245
138	0x3eaf7da2	0.34275538
139	0xbe38fad1	-0.18064429
140	0xbe86b120	-0.2630701
141	0x3bf05664	0.0073345173
142	0xbc028db1	-0.007968352
143	0xbe0664eb	-0.13124435
144	0xbe502acd	-0.20328827
145	0xbd92bbc0	-0.07164717
146	0xbdf7e5f0	-0.12104404
147	0x3e48a25b	0.19593184
148	0xbe392d9f	-0.1808381
149	0x3d433bf9	0.047664616
150	0xbda8aaeb	-0.08235725
151	0xbdfffe23	-0.124996446
152	0xbdb20db2	-0.086940184
153	0xbd62dd68	-0.05538693
154	0xbdf89f41	-0.1213975
155	0xbe561bd6	-0.20909056
156	0x3d078ade	0.03309142
157	0x3e8c5536	0.2740876
158	0xbca83852	-0.020534668
159	0xbe03fecf	-0.1289017
160	0x3de3c4a5	0.11121491
161	0xbd30f0b4	-0.043198302
162	0x3c25c5a6	0.010117924
163	0xbe010141	-0.12598135
164	0xbc1efb3d	-0.009703455
165	0xbe542f32	-0.20721129
166	0xbe3e0025	-0.18554743
167	0x3e2831c3	0.16425233
168	0xbc0677fc	-0.008207317
169	0xbc9cf4be	-0.01915967
170	0x3e72da8c	0.23716182
171	0x3e4afa32	0.19822004
172	0x3da2408b	0.07922467
173	0xbc3676a5	-0.0111366855
174	0x3e13b3ed	0.14424105
175	0xbdde184f	-0.1084448
176	0x3e811593	0.25211772
177	0xbe5f0b0f	-0.21781562
178	0x3df02944	0.11726621
179	0x3c8f5ef1	0.017501326
180	0x3e60d493	0.2195609
181	0xbe260dcc	-0.162162
182	0xbe177f29	-0.14794602
183	0xbd1098ff	-0.03530216
184	0xbe9a9120	-0.30188847
185	0x3e3cd207	0.18439494
186	0xbe75385e	-0.23947284
187	0x3e61ad27	0.22038709
188	0xbe93d11a	-0.2887047
189	0xbe393b61	-0.18089058
190	0xbec1949c	-0.37808692
191	0xbe6b82ca	-0.22999111
192	0x3ce48822	0.027896944
193	0x3e0eb3dc	0.13935798
194	0xbd9cf9b3	-0.07664814
195	0xbbc03621	-0.0058658277
196	0xbe55dbd3	-0.20884638
197	0xbd77084e	-0.060310654
198	0xbdfa74a9	-0.122292824
199	0xbe694aee	-0.2278249
200	0x3dd3cf52	0.103422776
201	0xbe360ad0	-0.17777562
202	0x3e8b2772	0.27178532
203	0x3d9cd5e7	0.07657986
204	0x3e5337f0	0.20626807
205	0xbe451707	-0.19247065
206	0xbdf95168	-0.1217373
207	0xbe81de1a	-0.25364763
208	0x3e8bed86	0.27329654
209	0x3e454513	0.19264631
210	0x3c013f62	0.007888647
211	0xbeaac55f	-0.33353707
212	0x3e48da65	0.19614561
213	0x3e31db84	0.17368895
214	0x3d17727d	0.03697442
215	0x3ca05c59	0.019575285
216	0x3d422028	0.047393948
217	0xbec2b555	-0.3802897
218	0x3e346dbc	0.17619985
219	0x3de7d4f8	0.113199174
220	0xbe4f3bcc	-0.20237654
221	0x3e324051	0.17407347
222	0xbe26b653	-0.16280489
223	0x3e1e1c12	0.15440395
224	0x3c118f39	0.008884245
225	0x3e4ac35e	0.19801089
226	0x3e71be87	0.23607837
227	0xbdc04eb6	-0.09390013
228	0x3e4cb08e	0.19989225
229	0xbe0eae4f	-0.13933681
230	0xbce11bd1	-0.027479084
231	0x3e2034ed	0.1564519
232	0xbf1990e4	-0.5998671
233	0xbe2030c7	-0.15643607
234	0x3ca7164e	0.020396378
235	0xbd021c70	-0.0317654
236	0xbd26f956	-0.04076513
237	0x3e568b7c	0.20951647
238	0x3e9ccce4	0.3062507
239	0x3d8b3242	0.06796695
240	0x3e87c5a7	0.26517984
241	0x3e4aa5b9	0.1978978
242	0xbdc25884	-0.09489539
243	0xbdf60842	-0.12013294
244	0xbdf9dfe6	-0.12200908
245	0x3e5e7595	0.21724541
246	0x3d999d99	0.075007625
247	0x3db21c8c	0.08696851
248	0x3cf738b9	0.030178415
249	0x3c24f4cb	0.010068129
250	0x3daf0e71	0.08547676
251	0xbe9e8128	-0.30957913
252	0xbe1b06eb	-0.15139358
253	0x3eafa09f	0.34302232
254	0xbea07ad1	-0.313437
255	0xbd55b33d	-0.052172888

model.gnn.gnn_layers.0.graph_conv.bias f4 [64]
0	0x3d0ce6be	0.03439974
1	0xbd6c7e81	-0.05773783
2	0x3c1c9e67	0.00955925
3	0x3ccd7cf5	0.025083998
4	0xbda1fa27	-0.07909041
5	0x3d010b9f	0.031505223
6	0xbce975a8	-0.028498486
7	0xbd5a4d4a	-0.053296365
8	0xbd8b74f3	-0.06809416
9	0xbd3ad982	-0.045617588
10	0xbd24dd00	-0.040249825
11	0xbd2d5a30	-0.042322338
12	0x3d907c14	0.07054916
13	0x3cccbb28	0.024991587
14	0xbdc8b830	-0.09800756
15	0x3b47ff6a	0.003051723
16	0xbcb14400	-0.02163887
17	0xbd4ca63c	-0.04996322
18	0xbce0acea	-0.027426202
19	0xbda0630f	-0.07831394
20	0x3dabf058	0.08395451
21	0x3cb57de8	0.022154763
22	0xbdb5e14d	-0.08880863
23	0x3c1bf9bf	0.009519993
24	0xbd762eb0	-0.06010312
25	0xbd17b25c	-0.03703533
26	0xbcfc9fec	-0.030837975
27	0x3b934476	0.004494245
28	0xbdc86137	-0.09784167
29	0xbd78a951	-0.060708348
30	0xbb987048	-0.004652057
31	0xbcfd91e1	-0.03095335
32	0x3c6b6816	0.014368078
33	0x3c1fb4ab	0.009747664
34	0x3d3fdd1b	0.046841722
35	0x3de302a9	0.11084492
36	0xbae60f56	-0.0017552178
37	0xbc9bb596	-0.019007485
38	0xbd75ab4e	-0.059977822
39	0xbd2f257c	-0.042760357
40	0x3d8e7795	0.06956402
41	0xbda1139c	-0.07865068
42	0xbcb67dd2	-0.022276793
43	0xbbf356bb	-0.0074261106
44	0xbd31e75f	-0.043433543
45	0xbcba16ab	-0.022715887
46	0x3ce02161	0.027359666
47	0x3b903b4a	0.004401599
48	0xbccb49d4	-0.024815477
49	0xbcb1454c	-0.021639489
50	0x3cee0ca3	0.02905876
51	0x3a42ed27	0.0007435851
52	0x3d4cae63	0.049970996
53	0xbdb32320	-0.08746934
54	0x3cfe69ca	0.031056304
55	0xbb513e09	-0.0031927845
56	0x3c8da4db	0.017290523
57	0xbd313f24	-0.043273106
58	0x3e000e07	0.12505351
59	0xbcd6069f	-0.026126204
60	0xbc3e4477	-0.011613003
61	0xbd4eccae	-0.050488167
62	0xbc44740e	-0.01199056
63	0xbc63c5c5	-0.013902132

model.gnn.gnn_layers.0.res_connection.weight f4 [64, 30]
0	0x3d7ae5bb	0.061254244
1	0x3cc7295c	0.024311714
2	0xbd880eb0	-0.066434264
3	0xbe596bd8	-0.21232545
4	0xbe2721ca	-0.16321483
5	0xbe1642d4	-0.1467393
6	0x3d1dda58	0.038538307
7	0x3e4f2044	0.20227152
8	0x39cfb796	0.000396189
9	0xbdbef144	-0.093233615
10	0x3cb8bc81	0.022550823
11	0xbe5080f0	-0.20361686
12	0xbe2c6029	-0.16833557
13	0x3dd7ad9c	0.1053116
14	0x3cf85fa2	0.030319039
15	0xbe1070d1	-0.14105536
16	0xbb9d61c0	-0.0048029125
17	0xbcd71fe4	-0.026260324
18	0x3d58b80c	0.052909896
19	0x3c320285	0.0108648585
20	0xbe655279	-0.22394742
21	0x3e62c42e	0.22145149
22	0x39315400	0.00016911328
23	0xbcf36628	-0.029711798
24	0x3e0da4e9	0.1383244
25	0xbe91a53b	-0.28446373
26	0xbdee7a93	-0.11644473
27	0xbc0ff36d	-0.008786065
28	0x3e0b3308	0.13593686
29	0xbe3961fb	-0.18103783
30	0xbe5ad5da	-0.2137064
31	0xbe38c960	-0.18045568
32	0xbc566b2b	-0.013087074
33	0x3d697148	0.0569928
34	0x3da76179	0.08172888
35	0x3dcd95a5	0.10038308
36	0xbd5bce1c	-0.053663358
37	0xbccc1330	-0.024911493
38	0xbc4408d0	-0.011964992
39	0x3eacfc4f	0.33786246
40	0xbd285377	-0.041095223
41	0xbd1c5a04	-0.038171783
42	0xbe1a290a	-0.15054718
43	0x3d6e869c	0.058233842
44	0xbd9fb4fa	-0.077981904
45	0x3cd271e8	0.02568908
46	0x3dad770c	0.08469972
47	0xbd885690	-0.066571355
48	0xbe0f4cac	-0.13994092
49	0xbe1ecf37	-0.15508734
50	0xbea5b7e9	-0.32366875
51	0x3e3827dd	0.17983957
52	0xbe062259	-0.1309904
53	0xbdb96af3	-0.09053602
54	0x3da1edfb	0.07906719
55	0x3d5e1466	0.054218672
56	0xbc974e70	-0.01847002
57	0x3d6752d4	0.056475475
58	0x3cb9c6d8	0.022677824
59	0x3de6ddc8	0.1127277
60	0x3dbf3f7f	0.09338283
61	0x3d9040a8	0.07043582
62	0x3c1ebea4	0.009689007
63	0x3da1e51c	0.07905027
64	0xbe28fc06	-0.1650239
65	0xbc10d847	-0.008840627
66	0x3e272ea9	0.16326393
67	0xbe0b07ba	-0.13577166
68	0x3db9c3a4	0.090705186
69	0xbe2e4337	-0.17017828
70	0x3e4c1bc3	0.19932465
71	0xbc80ab45	-0.015706668
72	0x3d1e1744	0.038596407
73	0xbe8e7def	-0.27830455
74	0x3e67dcb0	0.2264278
75	0xbe104288	-0.1408788
76	0xbe8f9ca9	-0.2804921
77	0xbd0f8546	-0.03503921
78	0xbdc12995	-0.09431759
79	0xbe359d48	-0.1773578
80	0x3e1b76ac	0.15181988
81	0xbe2254d7	-0.15852676
82	0xbe0b9e32	-0.13634565
83	0x3d189c5c	0.03725849
84	0x3d07b481	0.033131126
85	0x3d42a4a5	0.0475203
86	0x3e4c2bd9	0.19938602
87	0xbd117e4c	-0.035520837
88	0xbc970940	-0.018437028
89	0x3d88e232	0.06683768
90	0x3c36e763	0.011163565
91	0x3deb4c03	0.114891075
92	0xbe1e1122	-0.15436223
93	0x3b973324	0.0046142507
94	0xbcbc5d3b	-0.022993675
95	0x3db22a92	0.08699526
96	0x3cf60efe	0.030036446
97	0xb9b08600	-0.00033669174
98	0xbdd6f702	-0.10496332
99	0xbe0dec9c	-0.1385979
100	0x3e3ec125	0.18628366
101	0xbddf7f98	-0.109130085
102	0x3d94790c	0.0724965
103	0xbed21974	-0.41035044
104	0xbe0fddba	-0.14049426
105	0x3e4646cf	0.19362949
106	0xbe3ca48f	-0.18422149
107	0x3da9c021	0.08288599
108	0xbe10f3b2	-0.14155462
109	0xbdeeb5f4	-0.116557986
110	0x3e24413b	0.16040508
111	0xbe133abb	-0.14377873
112	0x3d6c1ae4	0.057642832
113	0x3d58867c	0.05286263
114	0x3db9d6a3	0.09074142
115	0xbdec765a	-0.11546011
116	0xbe0bb93f	-0.13644885
117	0x3e30ae9a	0.17254105
118	0xbd81eed0	-0.06344378
119	0xbdef633a	-0.11688848
120	0x3d977f4a	0.07397325
121	0x3c9bd662	0.019023124
122	0xbe036a19	-0.12833442
123	0xbe41201e	-0.18859908
124	0xbd36e9f2	-0.0446567
125	0xbd97473e	-0.07386635
126	0x3df467b7	0.119338445
127	0x3df3c598	0.119029224
128	0xbdcf2f9f	-0.10116505
129	0xbe27d343	-0.16389184
130	0xbe7b2f39	-0.24529733
131	0x3db3f22b	0.08786424
132	0x3c9ffe3c	0.019530408
133	0x3cd3feb5	0.02587829
134	0x3e560fdf	0.20904492
135	0xbe98ea8c	-0.29866445
136	0x3d92787c	0.07151887
137	0xbe75e63f	-0.24013613
138	0xbd6d66d9	-0.05795941
139	0x3ddab59b	0.1067917
140	0xbe131e1f	-0.14366959
141	0xbe81b2f4	-0.25331843
142	0x3d763548	0.060109407
143	0x3dc083a0	0.094001055
144	0x3debf085	0.11520485
145	0xbbd3b38a	-0.0064606117
146	0xbe231dd4	-0.15929347
147	0x3d5fabb0	0.054607093
148	0xbe1c8feb	-0.15289275
149	0xbd283380	-0.04106474
150	0x3e3e8b79	0.18607892
151	0x3e15ba71	0.14621903
152	0xbde50738	-0.111830175
153	0xbe267d91	-0.16258837
154	0xbe0c606d	-0.13708659
155	0xbbd04d7f	-0.0063568945
156	0xbdf05aa0	-0.11736035
157	0x3d22c158	0.03973517
158	0xbe3589c0	-0.17728329
159	0xbe297eb0	-0.16552234
160	0xbe4259d1	-0.18979575
161	0x3c0e85d3	0.008698898
162	0x3e481736	0.19540104
163	0xbe05819c	-0.13037723
164	0x3db42f23	0.08798053
165	0x3d3cab9f	0.046062108
166	0xbe47eaa9	-0.1952311
167	0xbd7cff52	-0.06176693
168	0xbe5934ad	-0.212115
169	0xbd755254	-0.059892967
170	0x3e2c4f2b	0.16827075
171	0xbe0b156f	-0.13582395
172	0x3e199d9c	0.1500153
173	0x3d3915f4	0.04518695
174	0xbdbc5b63	-0.09197118
175	0xbe08f550	-0.1337483
176	0x3bcbd322	0.0062202374
177	0xbe1462a1	-0.14490749
178	0x3d0cd504	0.034382835
179	0xbd19af70	-0.037520826
180	0xbd874e8a	-0.06606777
181	0x3ce98626	0.02850635
182	0x3cdd75f0	0.027033776
183	0xbda10308	-0.07861906
184	0x3d7ae844	0.061256662
185	0x3d7af27c	0.061266407
186	0xbcd674c8	-0.026178733
187	0xbdde1fca	-0.10845907
188	0xbddc8618	-0.10767764
189	0xbdc9f47f	-0.09861087
190	0x3e8393c5	0.25698677
191	0x3e067a2a	0.1313254
192	0x3e252c79	0.16130246
193	0x3c8134f9	0.01577233
194	0x3ce5db39	0.028058635
195	0xbd4a5964	-0.049401656
196	0x3d896cf5	0.06710235
197	0xbe71e188	-0.2362119
198	0xbdf6721c	-0.120334834
199	0xbe4aa558	-0.19789636
200	0x3df22114	0.118227154
201	0x3cc9ddf3	0.024641966
202	0xbdc8cf5e	-0.09805177
203	0xbd0d386c	-0.034477636
204	0xbd9abad9	-0.075551696
205	0xbe6fc4a5	-0.23414858
206	0x3dd5c6dc	0.1043832
207	0xbe2b1526	-0.16707286
208	0xbce8b638	-0.028407201
209	0x3c051c70	0.008124456
210	0xbe124384	-0.14283568
211	0x3e02b984	0.12766081
212	0xbddc464d	-0.10755596
213	0xbce20181	-0.027588608
214	0x3e3fa360	0.18714666
215	0x3e1303ec	0.14356965
216	0xbe2090ae	-0.15680191
217	0xbe04de87	-0.12975512
218	0x3e23f402	0.1601105
219	0xbc37a5db	-0.011208977
220	0x3ca91374	0.020639159
221	0xbd5a071d	-0.05322944
222	0xbdfbb733	-0.12290802
223	0xbe6d5700	-0.23177719
224	0x3e1233ca	0.14277568
225	0x3e096988	0.13419163
226	0x3df9236d	0.1216496
227	0xbe0e661b	-0.13906138
228	0x3cf1e2db	0.029527118
229	0x3e0a0f76	0.1348246
230	0xbe2ccfcb	-0.16876142
231	0xbddf5b60	-0.109061
232	0x3e17fa7a	0.14841643
233	0x3d1b41f0	0.03790468
234	0x3d817767	0.06321602
235	0x3d0598c4	0.03261639
236	0xbe30c024	-0.17260796
237	0x3e297974	0.16550237
238	0x3e20bc62	0.15696862
239	0xbdb98da0	-0.09060216
240	0x3d43ab70	0.047770917
241	0xbcd527ea	-0.02602001
242	0x3e1ef8eb	0.15524642
243	0xbe354842	-0.17703345
244	0xbdbbc173	-0.09167757
245	0x3c81cd2e	0.015844908
246	0x3d3a5e90	0.045500338
247	0x3e058789	0.13039984
248	0xbda06934	-0.07832566
249	0x3e1bc742	0.1521273
250	0xbe764ebd	-0.24053474
251	0xbdb0871a	-0.086195186
252	0xbd641aaa	-0.05568949
253	0xbe16ad63	-0.1471458
254	0x3c8a6cb6	0.01689754
255	0xbddef318	-0.1088621

model.gnn.gnn_layers.0.res_connection.bias f4 [64]
0	0xbde8ed56	-0.11373393
1	0xbe0ec1e1	-0.13941146
2	0xbdc9ad0e	-0.09847461
3	0x3cda14da	0.02662127
4	0x3cd2c76e	0.025729861
5	0xbdf08744	-0.1174455
6	0xbdf1fc0a	-0.11815651
7	0xbcc98a75	-0.024602154
8	0xbdacc7a8	-0.08436519
9	0xbce03f31	-0.027373882
10	0xbdd0fe26	-0.10204725
11	0xbdd3beb1	-0.10339106
12	0x3de2d6fb	0.110761605
13	0xbc1baa59	-0.009501063
14	0xbe4313f9	-0.19050588
15	0xbe1de77f	-0.1542034
16	0xba946545	-0.0011321685
17	0xbcf3c0f5	-0.029755095
18	0xbddb2864	-0.10701063
19	0x3d8d67f4	0.06904593
20	0xbc8f7c6e	-0.017515387
21	0xbdfd1d56	-0.12359111
22	0xbdc45a74	-0.09587565
23	0x3e1540f6	0.14575562
24	0xbe4062d4	-0.187877
25	0x3d9b8393	0.07593455
26	0xbda93496	-0.08261983
27	0x3dec5d20	0.115412
28	0xbca9f383	-0.020745998
29	0x3df9c17b	0.121951066
30	0xbd6daa9c	-0.058024034
31	0xbcf4a6be	-0.029864665
32	0xbe06b563	-0.13155131
33	0xbc8d0a9f	-0.017216979
34	0xbc08f294	-0.008358616
35	0xbe0296bb	-0.12752812
36	0xbbe0e8b4	-0.006863678
37	0xbc9766a9	-0.01848157
38	0x3ce645aa	0.02810939
39	0xbdb228e6	-0.08699207
40	0xbdc82223	-0.09772136
41	0x3c7126e1	0.014718742
42	0x3e43e40f	0.19129966
43	0xbdde7270	-0.10861671
44	0x3d8b5174	0.06802645
45	0xbaf623c7	-0.0018778973
46	0xbe4d5159	-0.20050563
47	0xbe175354	-0.14777881
48	0xbce7d72b	-0.028300842
49	0xbce3fa97	-0.027829451
50	0xbe4eef86	-0.20208558
51	0x3dc7caef	0.097555034
52	0xbd935de7	-0.07195645
53	0xbd8d04a7	-0.06885653
54	0x3c9c24ab	0.019060453
55	0x3e01e396	0.12684473
56	0x3e14e865	0.14541776
57	0x3d949d0b	0.07256516
58	0x3d2681c7	0.04065111
59	0x3c67a8b0	0.014139339
60	0xbd412777	-0.047156777
61	0xbcde8b86	-0.02716614
62	0x3d9e1cec	0.0772036
63	0xbdeaf6f7	-0.11472886

model.gnn.gnn_layers.1.graph_conv.weight f4 [64, 64]
0	0xbeceafaf	-0.4036841
1	0x3ccf6610	0.025317222
2	0xbdadfe79	-0.084958024
3	0xbd50e6da	-0.051001407
4	0xbb4b3b5f	-0.003101073
5	0x3d06987f	0.032860275
6	0xbe73bfc8	-0.23803627
7	0x3e324e78	0.17412746
8	0x3cf5670f	0.029956369
9	0xbe4ff211	-0.20307185
10	0xbe747fcd	-0.23876877
11	0x3be04368	0.006843973
12	0xbe1e3364	-0.15449291
13	0xbc5226b4	-0.01282661
14	0x3d555110	0.05207926
15	0xbe973a06	-0.29536456
16	0xbe57e28e	-0.21082518
17	0xbe0bf15b	-0.13666289
18	0xbc1d1671	-0.00958787
19	0x3d963e8e	0.0733615
20	0xbdc6dd33	-0.09710159
21	0xbda8e922	-0.082475916
22	0x3de558a8	0.111985505
23	0x3cf76722	0.030200545
24	0xbe003b6c	-0.12522668
25	0xbe6a18f6	-0.22861084
26	0x3da55f8f	0.08074867
27	0x3e0bc647	0.13649856
28	0x3c66e493	0.014092582
29	0xbce5587b	-0.027996292
30	0xbe56f785	-0.20992859
31	0x3d800946	0.06251769
32	0xbd5db75f	-0.054129954
33	0x3d39c554	0.045354202
34	0xbe88f359	-0.2674816
35	0x3e3988b4	0.18118554
36	0xbdc4e7ed	-0.09614549
37	0xbd3e54cb	-0.046467584
38	0x3cc63e2c	0.024199568
39	0xbe5f41db	-0.21802466
40	0x3e3441de	0.17603251
41	0xbd6826f8	-0.05667779
42	0x3d5262e9	0.05136386
43	0x3e55e93b	0.20889752
44	0xbd3af27d	-0.04564141
45	0xbeab31ad	-0.33436337
46	0x3db599fa	0.08867259
47	0x3e45253f	0.1925249
48	0xbc726879	-0.014795416
49	0xbd306a45	-0.043070097
50	0x3d2d7d9a	0.04235611
51	0xbdcce9dc	-0.10005543
52	0xbe15c7a4	-0.14626938
53	0xbd14e724	-0.036353245
54	0x3e875ab7	0.26436397
55	0x3dbdcfbb	0.09268137
56	0x3e84364d	0.25822678
57	0xbe077d2e	-0.13231346
58	0xbdf7b902	-0.12095834
59	0x3de731bc	0.11288783
60	0xbd749caa	-0.05971972
61	0xbc6d319a	-0.014477158
62	0x3d949c3b	0.07256361
63	0xbe4e94e2	-0.20173982
64	0xbdbef896	-0.09324758
65	0xbe1b5ed2	-0.1517289
66	0xbe0f75cf	-0.14009784
67	0xbea416cd	-0.32048646
68	0x3e6e3b35	0.23264773
69	0xbe98f6e3	-0.2987586
70	0x3d1c591f	0.03817093
71	0x3dca903d	0.098907925
72	0xbe53cc4c	-0.20683402
73	0xbdf46e9a	-0.11935158
74	0xbd557ce5	-0.05212106
75	0xbb65bb30	-0.00350542
76	0xbcebadba	-0.028769363
77	0xbea209c5	-0.3164808
78	0x3e3db758	0.18526971
79	0xbd015f5a	-0.031585075
80	0x3c64a043	0.013954225
81	0xbe2284d0	-0.15870976
82	0x3cd419f0	0.025891274
83	0xbe0e2468	-0.13881075
84	0xbe3c46c7	-0.18386374
85	0xbe423b81	-0.18968011
86	0x3dce6494	0.100777775
87	0x3dbd8eee	0.09255777
88	0xbec543e1	-0.3852835
89	0x3e127456	0.14302191
90	0x3d87d04a	0.06631525
91	0xbe9b6cba	-0.3035639
92	0xbe77938a	-0.24177375
93	0x3d8169d8	0.06319016
94	0xbe3aecda	-0.18254414
95	0x3e2f182b	0.17099063
96	0x3e0cef35	0.13763125
97	0xbcf4ac9d	-0.029867465
98	0x3e1c16e5	0.15243109
99	0xbdb38b53	-0.08766808
100	0x3e0357c9	0.12826456
101	0xbe61c1d8	-0.22046602
102	0x3e6af542	0.22945121
103	0xbd01e28b	-0.03171019
104	0xbe115582	-0.14192775
105	0xbcf39258	-0.029732868
106	0x3dea1c70	0.11431205
107	0xbebe0176	-0.3711049
108	0x3de78c7f	0.113060944
109	0xbeaa50e7	-0.3326485
110	0xbe95b38e	-0.29238552
111	0xbd7f4f90	-0.062331736
112	0x3e3bd031	0.18341137
113	0x3e0f30a2	0.13983396
114	0xbe06069d	-0.1308846
115	0xbe60b510	-0.2194407
116	0xbdc6f620	-0.09714913
117	0x3db50b62	0.08840062
118	0x3dcb164a	0.09916361
119	0xbe2a3d47	-0.16624938
120	0x3d0e4fb2	0.034743972
121	0x3e194c51	0.14970519
122	0xbe670b41	-0.22562887
123	0xbe2c4eda	-0.16826954
124	0x3e6bb92c	0.23019856
125	0xbd868ea9	-0.06570179
126	0xbe3ee0a8	-0.18640387
127	0xbd8ce2d8	-0.068792045
128	0xbd957f95	-0.07299725
129	0xbda0fabb	-0.07860323
130	0xbd9c452d	-0.07630382
131	0x3c9ab016	0.018882792
132	0x3e3fa6ad	0.18715926
133	0xbd3a57bb	-0.045493823
134	0x3ccda6c9	0.025103943
135	0x3e3d225b	0.18470137
136	0xbe60b221	-0.21942951
137	0x3e3d8a8c	0.18509883
138	0x3d26aafc	0.040690407
139	0xbd14a427	-0.03628936
140	0xbe16574b	-0.14681737
141	0x3d434cf0	0.047680795
142	0x3e10929f	0.14118432
143	0x3de9d0eb	0.11416801
144	0x3e54e9bd	0.20792289
145	0x3d072019	0.032989595
146	0xbe406712	-0.18789318
147	0xbd301e16	-0.042997442
148	0xbe32b964	-0.17453533
149	0xbe1276ca	-0.14303127
150	0xbde6e72b	-0.112745605
151	0x3d368b7f	0.044566628
152	0x3dadd1eb	0.08487304
153	0x3e13b284	0.14423567
154	0xbc9eb791	-0.01937464
155	0x3e4a95f9	0.19783773
156	0x3dc42de8	0.095790684
157	0xbe17a61f	-0.14809464
158	0x3e470b6b	0.1943795
159	0x3d1c1859	0.038109157
160	0x3e224007	0.15844737
161	0xbe1941e4	-0.14966542
162	0x3e77b943	0.24191765
163	0x3e1f6186	0.15564546
164	0x3e92c1c5	0.2866346
165	0xbe822a19	-0.25422743
166	0x3e0cd33a	0.13752452
167	0xbe1887be	-0.14895532
168	0x3d779da0	0.060453057
169	0x3d0b503f	0.034012076
170	0xbde70f9a	-0.11282273
171	0x3dbded65	0.09273795
172	0x3e450fa1	0.19244243
173	0x3d3f34ef	0.04668134
174	0x3c2cda0a	0.010550031
175	0xbd406731	-0.04697341
176	0x3e2ce8ba	0.16885653
177	0xbdc345d3	-0.09534802
178	0xbe45b2e8	-0.19306529
179	0x3cc43e18	0.02395539
180	0xbe3f64ed	-0.18690844
181	0xbe2d5fb4	-0.16931039
182	0xbe192c80	-0.14958382
183	0xbe3b057d	-0.18263812
184	0x3e47cfeb	0.19512908
185	0x3d11b011	0.0355683
186	0xbd9dd12c	-0.07705912
187	0x3d9fa850	0.07795775
188	0xbe7fb109	-0.24969877
189	0xbe30313d	-0.17206283
190	0x3d7075a4	0.05870594
191	0xbde19640	-0.11014986
192	0xbe4e3e93	-0.20141058
193	0xbd0762fc	-0.033053383
194	0x3dbf8c60	0.09352946
195	0xbdeb694f	-0.114946954
196	0xbdc5b8b7	-0.09654372
197	0x3cbccbf1	0.023046466
198	0xbe0a1c2e	-0.13487312
199	0x3e0974e5	0.13423498
200	0xbdbd76ab	-0.0925115
201	0xbd31f896	-0.04344996
202	0x3dfebb10	0.12438023
203	0xbd35d79c	-0.044395074
204	0xbeab37f6	-0.33441132
205	0x3df3e907	0.11909681
206	0xbdb8c736	-0.090223715
207	0x3e28b892	0.16476658
208	0x3dfc0597	0.12305754
209	0x3d705f7a	0.058684804
210	0xbe1da396	-0.15394434
211	0xbe31e278	-0.17371547
212	0xbd49a329	-0.049227867
213	0x3da6eda4	0.08150795
214	0x3c9fe12c	0.01951655
215	0x3d50dad7	0.050989952
216	0x3e231902	0.15927508
217	0x3d53fbdc	0.051753864
218	0xbe04dd44	-0.12975031
219	0x3e4b4d82	0.19853786
220	0xbd4f90a5	-0.050675053
221	0xbda8d042	-0.08242847
222	0x3dd6d240	0.10489321
223	0xbe2248ed	-0.15848131
224	0xbdaa2dd9	-0.08309526
225	0x3e581674	0.21102315
226	0xbe43637b	-0.19080918
227	0x3d230adb	0.039805274
228	0xbe161592	-0.14656666
229	0xbd1f4ba4	-0.038890496
230	0xbe41c167	-0.18921433
231	0xbdb329f8	-0.08748239
232	0x3bbc848f	0.005753107
233	0x3d803322	0.06259753
234	0xbdfdbb99	-0.12389297
235	0x3d94fcdd	0.07274792
236	0xbdaeca6b	-0.08534702
237	0xbe364315	-0.17799027
238	0x3e1c084b	0.15237539
239	0xbe070a7a	-0.1318759
240	0xbe57d036	-0.2107552
241	0xbe8ca222	-0.27467448
242	0xbe452501	-0.19252397
243	0x3e08c101	0.13354875
244	0xbdbd802d	-0.09252963
245	0x3e546e9d	0.2074532
246	0xbc8c373e	-0.017116185
247	0x3c9ee7ad	0.019397581
248	0xbf045e76	-0.51706636
249	0x3e66ef54	0.22552234
250	0xbdbc958e	-0.09208213
251	0xbc878d79	-0.016546952
252	0xbe4da10f	-0.2008097
253	0x3d99c7a2	0.0750878
254	0xbe703636	-0.2345818
255	0x3d95fbe0	0.07323432

model.gnn.gnn_layers.1.graph_conv.bias f4 [64]
0	0x3c63d762	0.013906332
1	0xbda39647	-0.079876475
2	0xbcc5f78c	-0.024165891
3	0xbdcfa98a	-0.10139759
4	0xbc271f44	-0.010200325
5	0xbd11c8e1	-0.035591964
6	0x3bebcda9	0.0071961475
7	0xbcd5c076	-0.02609275
8	0xbdd31afc	-0.10307881
9	0xbd13619e	-0.035981767
10	0xbd3f8ef8	-0.046767205
11	0xbd6a9b0e	-0.057276778
12	0x3c04653a	0.008080775
13	0xbe3fa9fb	-0.18717186
14	0xbc82f77c	-0.01598715
15	0xbd1f341a	-0.038868047
16	0xbd71574d	-0.058921147
17	0xbd4345b9	-0.047673915
18	0xbdab7c53	-0.08373322
19	0xbcca04f5	-0.024660567
20	0xbb95da62	-0.0045731524
21	0xbd79029e	-0.06079351
22	0xbd6c7783	-0.057731163
23	0xbe2c3f01	-0.16820909
24	0xbe073fe1	-0.13207962
25	0xbdd8d495	-0.10587422
26	0xbd9f0c47	-0.077660136
27	0xbe0b54ad	-0.1360652
28	0xbdc98dbd	-0.098414876
29	0xbdba3e03	-0.09093859
30	0xbd99e9f4	-0.07515326
31	0xbd9d7427	-0.0768817
32	0xbd011a3b	-0.031519156
33	0xbdba11f5	-0.09085456
34	0xbd160599	-0.036626432
35	0xbd30e784	-0.04318954
36	0xbc9bcbf8	-0.019018158
37	0xbcd724b2	-0.026262615
38	0xbdb67a09	-0.08909995
39	0xbcc6d76c	-0.024272643
40	0xbce77e77	-0.028258545
41	0xbd93f02f	-0.07223546
42	0x3a904b22	0.001100872
43	0xbc86a3fe	-0.01643562
44	0xbd7b6eea	-0.061385073
45	0xbd99bfb2	-0.07507266
46	0xbc8fdd69	-0.017561631
47	0xbd2fc7f6	-0.042915307
48	0xbda0004c	-0.078125566
49	0xbd0c2413	-0.03421409
50	0xbe0b3b37	-0.13596807
51	0xbdaec5d9	-0.0853383
52	0xbd5e2901	-0.054238323
53	0xbcdcbbbf	-0.026944993
54	0xbd492305	-0.049105663
55	0xbb9ce979	-0.0047885743
56	0x3c010e50	0.0078769475
57	0xbd5d932d	-0.054095436
58	0x3d87b77d	0.066267945
59	0xbd07b01c	-0.033126935
60	0xbd880200	-0.066410065
61	0xbc86cd32	-0.016455267
62	0xbd4b47b9	-0.049628947
63	0xbdcf9322	-0.10135485

model.gnn.gnn_layers.1.res_connection.weight f4 [64, 64]
0	0xbe3343e4	-0.17506367
1	0x3dc383ce	0.09546624
2	0xbdbda87c	-0.092606515
3	0xbd91e75f	-0.07124209
4	0xbc86e24d	-0.01646533
5	0xbe51f064	-0.20501858
6	0x3dac3233	0.08408012
7	0xbd3abc38	-0.045589656
8	0xbcf46ed6	-0.029838007
9	0x3d073bc3	0.033015978
10	0xbccf9581	-0.025339844
11	0xbd377f7b	-0.04479931
12	0xbe1431a6	-0.14472064
13	0xbd5f6a7f	-0.054544922
14	0xbb7e69ab	-0.0038820307
15	0xbb1f1c3e	-0.0024278308
16	0xbe32ca9c	-0.17460102
17	0xbdbca51c	-0.092111796
18	0x3d939618	0.072063625
19	0xbd3ae9fd	-0.045633305
20	0x3b499045	0.0030756157
21	0xbe94c452	-0.2905603
22	0xbe027283	-0.12738995
23	0xbd04b4e8	-0.03239909
24	0xbc8e127b	-0.017342797
25	0xbc12dbd6	-0.008963546
26	0x3e3050e9	0.17218365
27	0xbda9d9e4	-0.082935125
28	0x3e020553	0.12697344
29	0x3c899112	0.016792808
30	0xbe226e80	-0.15862465
31	0x3ddd341b	0.10800954
32	0xbd37bd95	-0.044858534
33	0x3d517d2a	0.051144756
34	0x3d1969ff	0.0374546
35	0xbd19b23e	-0.0375235
36	0x3d5419b6	0.051782332
37	0x3d787ddb	0.0606669
38	0x3bf47107	0.007459763
39	0xbdfc4135	-0.12317125
40	0x3cdac53e	0.02670538
41	0xbdbb29a2	-0.091388
42	0xbcd76059	-0.02629106
43	0x3ca13d75	0.019682625
44	0x3d973270	0.07382667
45	0x3d219e52	0.039457627
46	0xbcb3f771	-0.021968575
47	0xbd330c00	-0.043712616
48	0x3da1e167	0.0790432
49	0x3d26e147	0.040742185
50	0xbe4818f9	-0.19540776
51	0x3d84ec3a	0.06490369
52	0xbce29adf	-0.027661739
53	0xbd821bf4	-0.06352988
54	0xbd4ae938	-0.04953882
55	0xbdacb947	-0.08433776
56	0x3d54b0fb	0.051926594
57	0xbda8295f	-0.08211016
58	0x3db34c11	0.08754743
59	0xbe0d1df7	-0.13780962
60	0xbd343fe3	-0.04400624
61	0xbd0c84e3	-0.03430642
62	0x3cb4d629	0.022074776
63	0x3c2c35d3	0.01051088
64	0xbe04273a	-0.12905589
65	0xbefa1358	-0.48842883
66	0x3e0b60b3	0.13611107
67	0x3d9f9606	0.077922866
68	0x3dc83dd9	0.097774215
69	0x3d4fb247	0.050707128
70	0xbe0e1102	-0.13873675
71	0xbdbff802	-0.093734756
72	0xbd200267	-0.03906479
73	0x3dc830b4	0.097749144
74	0x3e2ed68d	0.17074032
75	0xbd1d4cc1	-0.038403276
76	0x3cccc9cb	0.024998566
77	0xbe315487	-0.17317401
78	0xbd2648fa	-0.04059694
79	0x3e320d33	0.17387848
80	0xbb8ae11f	-0.0042382623
81	0xbe0ca200	-0.13733673
82	0xbc0577cf	-0.00814624
83	0x3e36efe3	0.17864947
84	0xbba27b94	-0.0049585793
85	0xbdc24e18	-0.094875515
86	0xbe27af97	-0.16375576
87	0x3d4bdcb3	0.049771022
88	0x3cc11bba	0.023572791
89	0xbe4ef7f1	-0.2021177
90	0x3d914041	0.070923336
91	0x3e4f21fd	0.20227809
92	0xbd015195	-0.031571943
93	0x3d9dedde	0.07711385
94	0x3e9045ef	0.28178355
95	0xbe6df7cd	-0.2323906
96	0xbbd34580	-0.006447494
97	0xbe116cb6	-0.14201626
98	0x3de04a2e	0.10951649
99	0xbda3ee3e	-0.080044255
100	0xbe0d44a0	-0.1379571
101	0xbb024f54	-0.001988371
102	0x3e7e08f2	0.248081
103	0xbe2424aa	-0.16029611
104	0x3d093352	0.03349621
105	0xba90265a	-0.0010997758
106	0x3be8fd2c	0.0071102586
107	0xbe2bc826	-0.1677557
108	0xbd75fd74	-0.060056165
109	0xbd6c3606	-0.05766871
110	0xbe89891e	-0.26862425
111	0xbdc9630d	-0.098333456
112	0x3c172ae6	0.009226536
113	0xbe0112da	-0.12604848
114	0x3e1566a0	0.1458993
115	0xbc36bfc9	-0.011154124
116	0x3986d3ba	0.0002571622
117	0xbe003356	-0.12519583
118	0x3dfc5546	0.12320952
119	0xbe276225	-0.16346033
120	0x3cef028a	0.029176015
121	0xbe81a1f0	-0.2531886
122	0x3e5c838e	0.21534559
123	0xbdbb4e3b	-0.09145781
124	0x3e37842f	0.17921518
125	0x3d7f637f	0.062350746
126	0xbab6bc8c	-0.0013941689
127	0xbe2ee09f	-0.17077874
128	0x3d8bc4c3	0.06824639
129	0xbd6055f4	-0.05476947
130	0xbe059716	-0.13045916
131	0xbe1aa64b	-0.15102498
132	0xbc55bd4e	-0.013045622
133	0xbe7410a3	-0.23834471
134	0xbdd743cd	-0.10510979
135	0x3e80468d	0.25053826
136	0x3e047bf6	0.12937912
137	0x3d1cc869	0.038277064
138	0xbd88c0d7	-0.06677406
139	0x3dcbb62a	0.099468544
140	0xbde5610b	-0.1120015
141	0x3ef44872	0.4771152
142	0xbe30cf1b	-0.17266504
143	0xbe6d863b	-0.23195736
144	0x3d83fa4d	0.064442255
145	0xbc93ab4a	-0.018026013
146	0xbe1c12cd	-0.15241547
147	0xbdb377f9	-0.08763117
148	0xbe0050b5	-0.12530787
149	0x3d9d9606	0.0769463
150	0x3e20dd2f	0.15709375
151	0xbeae548d	-0.34048882
152	0xbe457b0e	-0.19285223
153	0x3cedd6d5	0.029033104
154	0xbea6b447	-0.32559416
155	0xbdd24323	-0.102667116
156	0x3b82248b	0.0039716414
157	0x3c23a642	0.009988369
158	0xbe1c4fa5	-0.15264757
159	0x3e14311f	0.14471863
160	0xbbb44285	-0.005501094
161	0x3d160ce3	0.036633383
162	0x3da1a701	0.078931816
163	0x3dd158b1	0.10221995
164	0x3d3f1f87	0.046660926
165	0x3d8fa11f	0.07013153
166	0x3dbd3e52	0.09240402
167	0xbdebee22	-0.115200296
168	0x3e2805f9	0.16408528
169	0xbc9aad9b	-0.01888161
170	0xbddccc98	-0.10781211
171	0x3e0feddb	0.14055578
172	0x3d8f287b	0.06990143
173	0xbdb0a095	-0.086243786
174	0xbc8af17c	-0.016960852
175	0x3cd33da5	0.02578623
176	0xbd92fc79	-0.071770616
177	0x3dea68e1	0.11445785
178	0xbdb11e22	-0.086483255
179	0xbe2f32ed	-0.1710927
180	0x3e039f68	0.12853777
181	0x3d82408e	0.06359969
182	0x3db3e0c2	0.087831035
183	0x3dae734a	0.085180834
184	0x3d861baa	0.06548245
185	0xbd01f993	-0.031732153
186	0x3bc0eb58	0.00588743
187	0xbe1380b3	-0.14404564
188	0xbc7cb7af	-0.015424653
189	0xbe09a094	-0.13440162
190	0x3d0bdd33	0.0341465
191	0xbe81054b	-0.2519935
192	0xbe076bbd	-0.13224693
193	0xbe6d2af3	-0.23160915
194	0xbc8789d1	-0.016545208
195	0x3d5fee75	0.05467077
196	0xbe82e30c	-0.25563848
197	0x3e61bb83	0.22044186
198	0xbcd8fa47	-0.026486529
199	0xbe4ff5ba	-0.20308581
200	0x3e226f9f	0.15862893
201	0x3e2132f9	0.15742101
202	0xbda8f756	-0.082503006
203	0xbcd2e2c6	-0.0257429
204	0xbed082d6	-0.4072482
205	0xbdbe6db4	-0.09298268
206	0x3da520f1	0.08062924
207	0x3c1ac0e7	0.009445406
208	0x3dec076c	0.11524853
209	0xbdec77ee	-0.11546312
210	0x3da24f96	0.07925336
211	0xba83ec14	-0.0010064864
212	0xbd803878	-0.062607706
213	0x3dcee9d8	0.10103196
214	0x3d2abdba	0.041684844
215	0xbe458417	-0.1928867
216	0xbe9dc0e1	-0.30811217
217	0xbda94915	-0.082658924
218	0x3e5df2ea	0.21674696
219	0xbe41ab92	-0.18913105
220	0xbb0fae5e	-0.0021924
221	0x3d0f101d	0.034927476
222	0xbf0083cf	-0.50201124
223	0xbe895e87	-0.2682993
224	0x3e030319	0.1279415
225	0x3de26aa3	0.110554956
226	0xbea842e1	-0.32863525
227	0xbdb9c6e3	-0.09071138
228	0x3da09077	0.078400545
229	0xbd7c2ea6	-0.061567925
230	0x3d610939	0.054940436
231	0x3e5f4efb	0.21807472
232	0xbc7652ad	-0.01503436
233	0xbe20b1ff	-0.156929
234	0x3d8d955a	0.06913252
235	0x3d43b0ff	0.04777622
236	0x3d8b9294	0.06815067
237	0x3e2b22a4	0.16712433
238	0x3da47083	0.080292724
239	0xbea9da27	-0.3317425
240	0x3d832e01	0.06405259
241	0xbe1e0104	-0.15430075
242	0xbdc38baf	-0.09548127
243	0xbe1ac2fd	-0.15113445
244	0x3ce525ba	0.027972091
245	0xbd74c327	-0.059756424
246	0x3ea17d75	0.3154103
247	0x3de23cb4	0.110467345
248	0x3e0e43a8	0.13892996
249	0xbe47048c	-0.19435328
250	0x3c71aa5e	0.014750091
251	0xbe06d93a	-0.13168803
252	0x3d8eddae	0.06975876
253	0x3ccbd7b7	0.024883134
254	0xbd453a8f	-0.04815155
255	0xbdb900ce	-0.090333566

model.gnn.gnn_layers.1.res_connection.bias f4 [64]
0	0x3c8e32ae	0.01735815
1	0x3da7adaa	0.08187421
2	0xbe0c2863	-0.13687281
3	0xbdfcdef9	-0.12347216
4	0xbd2b1dc8	-0.04177645
5	0xbe56214a	-0.20911136
6	0x3dd8be0f	0.10583126
7	0xbd78c4cf	-0.060734566
8	0xbda5c5a9	-0.08094341
9	0x3da03731	0.07823027
10	0x3d16333c	0.036669955
11	0xbd798cd2	-0.060925312
12	0x3cc6ab90	0.02425173
13	0x3b8aaf6d	0.004232338
14	0xbdcbe084	-0.09954932
15	0x3da12b89	0.07869632
16	0x3da4f049	0.08053643
17	0xbd8a760e	-0.067607984
18	0xbda7e17f	-0.08197307
19	0xbe325e76	-0.17418846
20	0xbdabccdb	-0.083886825
21	0xbd9a0bdd	-0.07521794
22	0xbd755208	-0.059892684
23	0x3dfcd15f	0.12344622
24	0xbdbbdb62	-0.09172703
25	0xbd767f81	-0.06018019
26	0x3c28b680	0.010297418
27	0xbe03b5f9	-0.12862386
28	0xbd72579d	-0.059165586
29	0xbc49da37	-0.012320093
30	0x3d111743	0.035422575
31	0xbdd15501	-0.10221291
32	0x3ddddd19	0.10833187
33	0xbe05b2f2	-0.13056543
34	0x3d8ed564	0.06974295
35	0xbe10b04b	-0.1412975
36	0x3c2bf7d0	0.010496095
37	0xbd800437	-0.06250804
38	0x3db2ece5	0.0873659
39	0x3c831005	0.01599885
40	0xbccd5fcb	-0.025070092
41	0x3de34ed4	0.1109902
42	0xbc555d6f	-0.013022765
43	0xbd591232	-0.052995868
44	0x3d4480fd	0.047974575
45	0x3d0a0e4f	0.033705052
46	0xbdd443ab	-0.10364469
47	0xbdf522a8	-0.11969501
48	0x3c00add4	0.007853944
49	0x3db4b858	0.08824223
50	0x3dd41dcc	0.10357246
51	0xbe0bd3f8	-0.13655078
52	0xbc200d95	-0.009768863
53	0xbd8be8aa	-0.068314865
54	0x3d9fb8cf	0.07798921
55	0xbd5a8f9e	-0.05335962
56	0x3da740bf	0.08166646
57	0xbd2b05b7	-0.041753497
58	0x3db070be	0.08615254
59	0x3c57e7e3	0.013177845
60	0x3d9d2abc	0.076741666
61	0xbd5c3cb2	-0.05376882
62	0x3bc8afca	0.0061244713
63	0x3c1c70f4	0.0095484145

model.readout.weight_and_sum.atom_weighting.0.weight f4 [1, 64]
0	0xbe464f54	-0.19366199
1	0xbda4fda9	-0.08056194
2	0xbe0972c0	-0.1342268
3	0x3db88db6	0.09011404
4	0x3e6f5cfc	0.23375314
5	0xbd4686ca	-0.04846839
6	0x3ca03334	0.019555666
7	0xbe79e3de	-0.2440333
8	0xbddd9e35	-0.10821191
9	0xbde27296	-0.11057012
10	0xbe485666	-0.19564208
11	0xbe020a41	-0.12699224
12	0xbd4835fb	-0.048879605
13	0xbda37282	-0.07980825
14	0xbe7e857a	-0.24855605
15	0x3ce67f25	0.0281368
16	0x3e03c52a	0.12868181
17	0xbdeb6a27	-0.11494856
18	0xbdf91561	-0.12162281
19	0xbda60b5c	-0.081076354
20	0x3da5098e	0.08058463
21	0xbd6c04a2	-0.057621606
22	0xbea67ac5	-0.3251554
23	0xbda7a399	-0.08185501
24	0xbd9e48af	-0.07728707
25	0x3cb3c9e7	0.02194686
26	0xbe8801fc	-0.26564014
27	0x3ced9501	0.029001715
28	0xbe03c0d9	-0.12866534
29	0x3dd97c04	0.10619357
30	0xbe1a8afe	-0.15092084
31	0xbe86c0e1	-0.2631903
32	0x3bf8d021	0.0075931703
33	0xbddd3379	-0.10800833
34	0xbe872228	-0.26393247
35	0xbe49d2c4	-0.19709307
36	0xbd9985fa	-0.07496257
37	0xbdce6750	-0.10078299
38	0xbc51e55b	-0.01281103
39	0xbe5e5873	-0.21713428
40	0x3dfb4399	0.122687526
41	0x3ccec112	0.025238547
42	0xbd16ce98	-0.036818117
43	0xbdf09785	-0.1174765
44	0xbd502264	-0.050814047
45	0x3daf3954	0.08555856
46	0xbda902ff	-0.082525246
47	0xbe59c24d	-0.21265526
48	0x3d4b51e8	0.04963866
49	0xbe8e8947	-0.2783911
50	0xbcb24b18	-0.021764323
51	0x3e4f6917	0.20254932
52	0xbdffa134	-0.12481919
53	0xbe3809e5	-0.17972524
54	0xbe6a1c60	-0.22862387
55	0xbdbc52af	-0.09195458
56	0xbc6bc376	-0.014389863
57	0x3c991e01	0.018691065
58	0x3dcaff54	0.09911981
59	0xbe0c8cab	-0.13725536
60	0x3d15e27e	0.036592953
61	0x3b6f1c86	0.0036485507
62	0xbc844a51	-0.016148718
63	0xbd793fd9	-0.060851905

model.predict.predict.1.weight f4 [64, 128]
0	0xbdbb6a6e	-0.09151159
1	0xbd61bcfa	-0.055111863
2	0x3d1b19aa	0.037866272
3	0x3d047fdd	0.032348502
4	0xbe7cb5cd	-0.24678726
5	0x3dacefef	0.08444201
6	0xbe19acd7	-0.1500734
7	0x3d266e35	0.040632445
8	0x3d163e09	0.036680255
9	0xbd11a023	-0.03555311
10	0xbda70473	-0.081551455
11	0x3d8a0d8f	0.06740867
12	0xbe0716ce	-0.13192293
13	0xbe67db15	-0.22642167
14	0x3af35259	0.001856397
15	0xbd1fdc0e	-0.03902822
16	0x3c502aad	0.012705487
17	0xbe38c587	-0.180441
18	0xbe130c0b	-0.14360063
19	0x3d426920	0.047463536
20	0xbe72eb7a	-0.2372264
21	0xbe079cfb	-0.13243477
22	0xbc67b59e	-0.014142422
23	0x3e67be79	0.22631253
24	0xbd480431	-0.048832122
25	0x3a8cce02	0.0010742547
26	0xbce15850	-0.027507931
27	0xbd9c8513	-0.076425694
28	0xbd5a4e0e	-0.053297095
29	0x3d1a1328	0.037615925
30	0xbd9dab50	-0.07698691
31	0x3cd781c0	0.026306987
32	0xbd936c62	-0.07198407
33	0xbdc0d28a	-0.09415157
34	0xbc3e102c	-0.011600535
35	0x3bb9c5ba	0.005669323
36	0xbc4ca000	-0.012489319
37	0xbda91b99	-0.08257217
38	0xbd493f14	-0.04913242
39	0xbd5d9971	-0.05410141
40	0xbdc0e1b9	-0.09418053
41	0xbcf5f63c	-0.03002464
42	0xbd9f9998	-0.077929676
43	0xbccf962a	-0.025340158
44	0x3dc45153	0.09585824
45	0xbd300688	-0.04297498
46	0xbc277474	-0.010220636
47	0xbc5c26fc	-0.013437029
48	0xbd333249	-0.043749128
49	0xbe0e1dca	-0.13878551
50	0x3d34b097	0.04411372
51	0x3cd05b4a	0.025434155
52	0x3d206bb5	0.039165217
53	0xbc6f43ac	-0.014603537
54	0xbd000956	-0.031258903
55	0xbdc8877b	-0.09791466
56	0xbbb22adb	-0.0054372377
57	0x3d3c3ad1	0.04595453
58	0xbdb85cc2	-0.09002067
59	0xbdce90d9	-0.10086221
60	0x3ce6b5b8	0.028162822
61	0xbda4bd4e	-0.080439195
62	0xbdcb815f	-0.09936785
63	0xbd05e1b8	-0.032685965
64	0xbd2b6627	-0.041845467
65	0xbd985fd3	-0.07440152
66	0x3daebf58	0.0853259
67	0x3d2fdb72	0.04293389
68	0xbe85fc35	-0.2616898
69	0x3cf8165b	0.030284097
70	0xbe2b759a	-0.1674408
71	0xbb992be8	-0.0046744235
72	0x3d009463	0.031391513
73	0x3d88f99c	0.06688234
74	0x3d84f095	0.064912
75	0x3d6287b9	0.055305216
76	0xbdc8b88d	-0.09800825
77	0x3e25e448	0.16200364
78	0xbd222160	-0.03958261
79	0xbd36ed34	-0.04465981
80	0x3e9e96b1	0.30974343
81	0xbddc3caf	-0.10753762
82	0x3dac35f7	0.084087305
83	0xbd00ced3	-0.031447243
84	0xbbbbe7bd	-0.0057344125
85	0xbc274c7c	-0.010211106
86	0x3da5c2eb	0.08093818
87	0x3e4e6e7b	0.20159332
88	0x3ca156c2	0.01969469
89	0x3d27e17a	0.040986516
90	0x3cce8e46	0.025214326
91	0xbe152ab2	-0.14567068
92	0x3dea6f7d	0.11447046
93	0x3dbf335d	0.09335969
94	0xbd454e30	-0.04817027
95	0x3d1e8bb3	0.038707446
96	0x3c748ca2	0.014926108
97	0x3cd8aa50	0.026448399
98	0xbd5fba1c	-0.054620847
99	0xbdac6c7d	-0.0841913
100	0xb9609d45	-0.00021420892
101	0x3b98b393	0.004660079
102	0x3c9abc64	0.01888866
103	0x3b8ce7b4	0.004300082
104	0x3e27ba30	0.16379619
105	0x3d0df996	0.03466185
106	0xbd89167e	-0.06693743
107	0x3de0c96e	0.1097592
108	0x3d6dddcd	0.058072854
109	0xbbedb9aa	-0.007254799
110	0xbde82d42	-0.11336757
111	0xbab54bb4	-0.0013831765
112	0xbdd5b408	-0.10434729
113	0xbe72b05f	-0.23700093
114	0x3dc0a561	0.094065435
115	0xbdf60dd3	-0.120143555
116	0x3c8a2271	0.016862126
117	0x3dc741af	0.09729325
118	0x3e19802c	0.149903
119	0x3d423878	0.047417134
120	0xbd10a0bb	-0.035309535
121	0xbe4d65df	-0.20058392
122	0xbd640329	-0.055667076
123	0x3d30c53e	0.043156855
124	0x3d5172f9	0.051135037
125	0x3cd59e4a	0.026076455
126	0xbd6afaf8	-0.05736825
127	0xbccc7f78	-0.024963126
128	0x3c0b58a2	0.008505018
129	0x3c8494ac	0.016184174
130	0xba0d2cfd	-0.0005385427
131	0x3a904803	0.0011007789
132	0xbe7db48c	-0.24775904
133	0x3ca5ae93	0.020224845
134	0xbcf4177f	-0.02979636
135	0xbd740dcb	-0.059583467
136	0xbc706ca1	-0.014674337
137	0xbd288d70	-0.04115051
138	0x3c85fe7e	0.016356703
139	0xbc9b4838	-0.018955335
140	0x3ca110dc	0.01966136
141	0x3e1dcc4f	0.15409969
142	0x3d1f9bd2	0.03896696
143	0x3db59fa4	0.0886834
144	0xbd663fbd	-0.05621313
145	0xbe1d5edc	-0.15368217
146	0xbd461500	-0.04835987
147	0xbd8ae1a8	-0.06781322
148	0xbd148b53	-0.036265682
149	0x3d837f61	0.0642078
150	0x3b7c4d57	0.0038498247
151	0x3e061d1d	0.13097043
152	0x3c489ad8	0.012243949
153	0x3db49667	0.088177495
154	0xbcbe121e	-0.023201998
155	0x3ced7081	0.02898431
156	0xbe168522	-0.14699224
157	0x3c1badc1	0.009501875
158	0x3cc2e847	0.0237924
159	0x3c209d4e	0.009803129
160	0xbc3c03ef	-0.011475547
161	0xbd56faf9	-0.05248544
162	0x3d837d81	0.06420422
163	0xbb896b5f	-0.004193708
164	0xbd6ae35e	-0.05734574
165	0xbcb02d92	-0.021506105
166	0xbcf0bfff	-0.029388426
167	0x3b49aa79	0.0030771776
168	0x3d7c1539	0.061543677
169	0xbc8cff57	-0.0172116
170	0xbdb37b26	-0.08763723
171	0x3c10ec97	0.00884547
172	0x3c76be75	0.015060057
173	0x3caebd6b	0.021330556
174	0x3c701aa8	0.014654793
175	0xbd0249ab	-0.031808536
176	0x3d4dfcec	0.050290033
177	0x3dd08765	0.101820745
178	0x3dfa0249	0.12207467
179	0x3ddaf7ac	0.10691771
180	0xbe11f24a	-0.14252582
181	0xbbbd1087	-0.0057697925
182	0x3cf4ac54	0.029867329
183	0x3d91ca16	0.07118623
184	0xbe8379e4	-0.25678933
185	0x3cdb81fa	0.026795376
186	0xbd9bc0e4	-0.0760515
187	0x3c2eaf37	0.010661892
188	0xbd394eee	-0.04524129
189	0xbd3c3e36	-0.045957766
190	0xbdc5e50c	-0.09662828
191	0x3c367e1a	0.011138463
192	0x3bc8d38f	0.0061287354
193	0x3c88373e	0.016627904
194	0x3e0e009a	0.13867417
195	0xbc135647	-0.008992738
196	0xbe10a455	-0.14125188
197	0x3e0c7997	0.13718258
198	0x3dc69a23	0.09697368
199	0xbdafaff8	-0.08578485
200	0x3d661307	0.05617049
201	0xbd2fa2f2	-0.042880006
202	0x3d4393fd	0.047748554
203	0xbe4e0f34	-0.20122987
204	0xbe0fa55b	-0.14027922
205	0x3e10cb4c	0.14140052
206	0x3d6380cc	0.055542752
207	0x3e13e4e2	0.1444278
208	0x3dbe43bb	0.09290262
209	0xbe3a1195	-0.1817077
210	0x3df41bd0	0.11919367
211	0x3cab89ae	0.020939674
212	0xbda4a315	-0.08038918
213	0xbb286ab5	-0.0025698368
214	0x3cb66ed7	0.02226965
215	0x3dee8db1	0.11648119
216	0xbd975af0	-0.07390392
217	0xbd92a4dd	-0.071603514
218	0xbe55d3c5	-0.20881565
219	0xbb8a5745	-0.004221829
220	0x3d4c988d	0.04995017
221	0x3c89b1a0	0.016808331
222	0xbc522a94	-0.012827534
223	0xbc9c93ab	-0.019113382
224	0x3d8dbaf3	0.06920423
225	0xbd8422c9	-0.06451947
226	0xbd885749	-0.06657273
227	0xbcb60741	-0.022220256
228	0x3dbbf933	0.0917839
229	0xbcc61408	-0.024179474
230	0xbe28394d	-0.16428109
231	0xbcae5032	-0.021278474
232	0x3e0676bf	0.13131236
233	0xbc7aa010	-0.015296951
234	0xbe0ed771	-0.13949372
235	0x3d957297	0.07297247
236	0xbe03c051	-0.12866332
237	0x3d811023	0.06301906
238	0xbcde270a	-0.027118225
239	0x3c17d2a4	0.009266529
240	0xbe20113b	-0.15631573
241	0xbcbee657	-0.023303194
242	0x3c9f3925	0.019436428
243	0x3dc4c485	0.096077956
244	0xbe92f037	-0.28698894
245	0x3d8d95ea	0.069133595
246	0xbd3c63c1	-0.04599357
247	0xbdcb229c	-0.099187106
248	0xbeb5d332	-0.35512692
249	0xbe9aa9d0	-0.30207682
250	0xbd82c371	-0.06384934
251	0x3d08deec	0.03341572
252	0x3dafd65a	0.08585806
253	0xbd6681b8	-0.056276053
254	0xbc781a04	-0.015142921
255	0x3d11425d	0.03546368

model.predict.predict.1.bias f4 [64]
0	0x3e3e4884	0.1858235
1	0x3de2ea22	0.110798135
2	0x3d077acf	0.033076104
3	0x3dbb3d55	0.091425575
4	0x3b00d461	0.0019657838
5	0xbd30fd53	-0.04321034
6	0x3b605b55	0.0034234126
7	0xbddddf36	-0.1083359
8	0x3d72017a	0.05908344
9	0x3cbebbcc	0.023282908
10	0xbda7d138	-0.08194202
11	0x3d8e35df	0.06943869
12	0xbde74f12	-0.11294378
13	0xbcdf734b	-0.027276656
14	0x3d026cd3	0.031842064
15	0x3d086f42	0.03330923
16	0x3e149534	0.14510041
17	0xbdc8f7ae	-0.09812866
18	0xbdf245eb	-0.11829742
19	0x3e35bc81	0.1774769
20	0xbe63cb81	-0.222456
21	0xbddc14ad	-0.10746131
22	0x3c445be2	0.011984797
23	0x3dc20d08	0.09475142
24	0xbd217b63	-0.03942431
25	0x3d681057	0.056656208
26	0xbd42e170	-0.047578275
27	0xbdc8f261	-0.09811855
28	0xbd83ab0b	-0.06429108
29	0x3d830524	0.06397465
30	0xbc8888e9	-0.016666846
31	0x3d2f04d2	0.042729206
32	0xbdb66f3d	-0.08907936
33	0xba74c807	-0.0009337668
34	0xbda24d84	-0.07924941
35	0x3e459a2d	0.19297095
36	0x3dc00d96	0.09377591
37	0xbdc1fbab	-0.0947183
38	0x3df22fff	0.11825561
39	0xbc4eba51	-0.0126176635
40	0x3c49f05a	0.012325371
41	0xbc8ec5fd	-0.017428393
42	0xbd0ee211	-0.034883562
43	0x3dacd9e5	0.084399976
44	0x3d5ddd7b	0.0541663
45	0xbd2be2a9	-0.041964207
46	0xbd402cfa	-0.046917893
47	0x3e184541	0.14870168
48	0xbd9ddc85	-0.077080764
49	0xbc678be2	-0.014132472
50	0xbc6154f6	-0.013753166
51	0xbd94f30c	-0.0727292
52	0xbb71ec18	-0.0036914404
53	0x3d7dc435	0.061954696
54	0xbc51c9e2	-0.01280448
55	0xbdadf511	-0.08494008
56	0xbd480dea	-0.048841394
57	0x3dc3a711	0.0955335
58	0x3cd06747	0.025439871
59	0xbd71fb20	-0.059077382
60	0xbdd06f2d	-0.10177455
61	0xbe1aff16	-0.1513637
62	0xbb6e3d3f	-0.0036352423
63	0x3b3bf1ad	0.0028677986

model.predict.predict.3.weight f4 [64]
0	0x3f8ca652	1.0988257
1	0x3f901c4f	1.1258639
2	0x3f8a5171	1.0806104
3	0x3f755ba8	0.9584298
4	0x3f99f79d	1.202869
5	0x3f8a26f4	1.0793138
6	0x3f84ecf7	1.0384816
7	0x3f865103	1.0493473
8	0x3f98fe16	1.1952541
9	0x3f6fa36d	0.9360874
10	0x3f83db4b	1.0301298
11	0x3f905eb3	1.12789
12	0x3f71fdd2	0.94527924
13	0x3f6c6744	0.9234507
14	0x3f89fcba	1.0780251
15	0x3f783548	0.969563
16	0x3f89d680	1.0768585
17	0x3f8c6d31	1.0970823
18	0x3f7b918d	0.9826897
19	0x3f8e602a	1.1123097
20	0x3f7b3929	0.98134094
21	0x3f8a164b	1.0788053
22	0x3f92b14c	1.1460357
23	0x3f8c2d20	1.0951271
24	0x3f8cce98	1.1000547
25	0x3f8296d8	1.0202284
26	0x3f8fac2f	1.1224421
27	0x3f7bedc8	0.984097
28	0x3f91b233	1.1382507
29	0x3f6172fc	0.8806608
30	0x3f924066	1.1425903
31	0x3f8443e8	1.0333223
32	0x3f813cd9	1.0096694
33	0x3f923b1f	1.1424292
34	0x3f8051c8	1.0024958
35	0x3f8df076	1.1089008
36	0x3f734b10	0.9503641
37	0x3f84a81f	1.0363806
38	0x3f923cb2	1.1424773
39	0x3f8fdfaa	1.1240132
40	0x3f7079eb	0.9393603
41	0x3f801e83	1.0009311
42	0x3f871cde	1.0555685
43	0x3f6a3986	0.91494024
44	0x3f98cdcf	1.1937808
45	0x3f84477f	1.0334319
46	0x3f8c0c33	1.0941223
47	0x3f8c4a70	1.0960217
48	0x3f863bc5	1.048699
49	0x3f842284	1.0323033
50	0x3f7c3210	0.9851389
51	0x3f7a3f10	0.97752476
52	0x3f90c2af	1.1309413
53	0x3f8fe726	1.1242416
54	0x3f806aee	1.0032632
55	0x3f9560dd	1.1670185
56	0x3f8352ec	1.0259681
57	0x3f846c94	1.0345635
58	0x3f79bdf4	0.9755547
59	0x3f827585	1.0192114
60	0x3f80d084	1.0063634
61	0x3f8f4a52	1.1194556
62	0x3f8c61e0	1.0967369
63	0x3f84030b	1.0313429

model.predict.predict.3.bias f4 [64]
0	0x3c4725f4	0.012155045
1	0x3c037b0f	0.008024945
2	0x3b924fce	0.00446508
3	0xbb268e7a	-0.0025414512
4	0x3c24843c	0.010041293
5	0xbc23f51e	-0.010007171
6	0xbbe4998b	-0.0069763116
7	0x3c029460	0.007969946
8	0x3c40d55a	0.011769617
9	0xbb68230f	-0.0035421287
10	0xbc0899fe	-0.008337496
11	0x3c8dd731	0.017314525
12	0xbb444486	-0.002994807
13	0xbac16159	-0.0014753743
14	0xbc23cde6	-0.0099978205
15	0xbbee72e2	-0.0072768787
16	0x3c725639	0.014791065
17	0xbc21e04e	-0.009880139
18	0x3bca749e	0.0061784526
19	0x3c3adafe	0.011404751
20	0xbbaaf4a0	-0.00521715
21	0xbbd0547a	-0.0063577266
22	0x3cd7b747	0.02633251
23	0xbc000d24	-0.007815633
24	0x3c052ce3	0.008128378
25	0xbaeeb3a4	-0.0018211496
26	0x3c2bd2c0	0.010487258
27	0xbbe26b33	-0.006909752
28	0xbc14f39f	-0.009091287
29	0xbb72bb34	-0.0037037851
30	0x3c980837	0.018558605
31	0xbbec0d96	-0.007203768
32	0xbbce3450	-0.006292857
33	0xbc0c6d4c	-0.00857098
34	0x3cb9d9a4	0.022686787
35	0x3c02d893	0.007986206
36	0xbb242d5c	-0.002505145
37	0xbbfff5a7	-0.0078112665
38	0x3cde63a7	0.027147127
39	0xbc614946	-0.01375038
40	0xb9b3093a	-0.00034148415
41	0x3be8c1f6	0.0071032
42	0xbc134951	-0.008989648
43	0xbbbb1a4c	-0.005709922
44	0xbc393250	-0.011303499
45	0xbc32d9ff	-0.010916232
46	0xbc00ce1a	-0.007861638
47	0x3c34f032	0.011043595
48	0x3c0e67b1	0.008691714
49	0xbc4327e7	-0.011911369
50	0x3babffb7	0.0052489894
51	0x3c9542ec	0.018220387
52	0xbc262f02	-0.0101430435
53	0xbc431947	-0.011907882
54	0xbbe9920a	-0.007128005
55	0x3c0b8464	0.008515451
56	0x3c0ce198	0.008598708
57	0x3bf3d2bb	0.0074408925
58	0xbb7fcd5a	-0.0039032311
59	0x3bc2cbdc	0.005944712
60	0x3c08be23	0.008346113
61	0xbbef45f4	-0.0073020402
62	0xbc26a8c2	-0.010172071
63	0x3bf7e29f	0.007564857

model.predict.predict.3.running_mean f4 [64]
0	0x3e3edea3	0.18639617
1	0x3e1dfe7a	0.15429106
2	0x3abd358c	0.0014435514
3	0x3f2debde	0.6793803
4	0x3e6b5721	0.22982456
5	0x3e1b05f1	0.15138985
6	0x3a7e1782	0.0009692834
7	0x3d42752f	0.047475036
8	0x3e3a4392	0.18189839
9	0x3f5d2e78	0.8639903
10	0x38a9324a	8.067915e-05
11	0x3e589a4e	0.21152613
12	0x3ec700a2	0.3886767
13	0x3d9c1a46	0.07622199
14	0x3e411930	0.18857265
15	0x3f2d1464	0.6760924
16	0x3d941ec9	0.07232434
17	0x3f1d42a9	0.6142984
18	0x00000004	6e-45
19	0x3defbab3	0.11705532
20	0x3f326247	0.6968121
21	0x39341d13	0.00017176969
22	0x3e1c75b9	0.15279283
23	0x3e413dae	0.18871185
24	0x3a9c1314	0.0011907541
25	0x3ad16902	0.0015976729
26	0x3d487912	0.048943587
27	0x3f48b42a	0.7839991
28	0x3f09d6cc	0.5384338
29	0x3dcee56d	0.10102353
30	0x3f025d2a	0.5092341
31	0x3f063597	0.5242552
32	0x3d891040	0.066925526
33	0x3f30e1c7	0.6909451
34	0x3c5bb533	0.0134099005
35	0x3ea74655	0.32670847
36	0x3f4cab69	0.7994905
37	0x3f20d53e	0.6282538
38	0x3c36f413	0.01116659
39	0x3e246d35	0.16057284
40	0x3fb5e118	1.4209318
41	0x38181fa6	3.62691e-05
42	0x3b1e79e8	0.0024181549
43	0x3f878d66	1.0590026
44	0x3d13add0	0.036054432
45	0x3b57caf9	0.0032927378
46	0x3e4e239f	0.20130776
47	0x3e6d1950	0.23154187
48	0x3c5e6ec1	0.0135762105
49	0x3e9b492b	0.3032926
50	0x0dc20c02	1.1959064e-30
51	0x390c2462	0.00013364994
52	0x3ec55cb7	0.38547298
53	0x3e1b15a3	0.15144973
54	0x3f0beae5	0.54655296
55	0x3eb7a8a0	0.35870838
56	0x3eed288b	0.46319994
57	0x3e238d8a	0.15971962
58	0x3c3dbb32	0.011580275
59	0x3e622a15	0.22086366
60	0x3efdeba9	0.49593857
61	0x3e837a65	0.25679317
62	0x3e8731b2	0.26405102
63	0x3b398f34	0.0028314115
