models/model_epigenetic/checkpoint3.pt (torch, 267911 bytes, 47 tensors)

model.gnn.gnn_layers.0.graph_conv.weight f4 [30, 64]
0.1730981 0.25861457 0.13756026 0.118479215 -0.04263595 -0.26011133 0.21713752 -0.08179204
-0.13861518 -0.19972306 -0.10780973 0.19556776 -0.13036126 -0.34152666 0.19225997 0.21886352
0.15326774 0.11476826 0.08054748 -0.25437567 -0.19282515 -0.24474904 0.17814909 0.20730019
-0.2801336 -0.11550507 -0.02942562 0.0624072 0.0030042918 0.18397395 0.09079959 -0.3034278
-0.14289692 0.24346435 -0.21615192 0.0769211 0.0066593746 -0.08694952 0.11006991 0.036074687
-0.24844521 0.104291305 -0.18130031 -0.004942139 0.2380602 -0.085634194 -0.01659907 -0.15197822
0.010667538 0.0242889 -0.18959172 -0.14000699 -0.07815774 0.101473786 0.14359945 0.034521297
0.047254555 -0.03736916 -0.56486005 0.035490997 -0.12020312 0.23381314 0.16469954 0.15779337
-0.29404685 0.17901652 0.062078383 -0.12204126 0.16067986 0.15890527 -0.2254048 0.064345814
-0.27261114 -0.07457093 0.21810673 0.14546189 -0.022925112 0.24427602 0.014909065 -0.27009958
0.13644907 -0.013168379 0.01480404 0.088221155 0.17852113 0.22870629 0.2924088 0.058069468
0.019154163 0.17680474 -0.35447127 -0.051198535 -0.06957758 -0.07784317 -0.046201985 0.23488903
0.24322312 0.26349965 0.08178007 -0.41106945 0.06543105 0.07004102 0.10904182 -0.24874738
0.2701401 0.056386497 0.049229637 0.1185142 -0.0040552784 -0.021767557 -0.115871064 -0.13493606
-0.08260849 0.2311844 -0.023089688 0.005765488 0.06663376 -0.10847954 -0.1347452 0.18729602
0.012998067 0.015313899 0.36651176 -0.19941719 -0.25906017 -0.12623605 0.044552732 -0.16898084
0.07755458 -0.10827156 0.08247768 -0.17003003 0.17835443 -0.08956763 0.017209895 0.05844323
0.11225522 -0.13676402 0.33387107 -0.12905827 -0.23509271 -0.023003625 -0.005845009 -0.11231814
-0.20125091 -0.0968368 -0.09534575 0.20431323 -0.19153784 0.041600857 -0.08885125 -0.12843291
-0.051658418 -0.027079845 -0.11104616 -0.20581931 0.069234155 0.25039893 -0.013447675 -0.16121154
0.07203645 0.015175569 -0.0033840484 -0.11504456 -0.0028045527 -0.21018077 -0.17766008 0.15320486
-0.022467148 -0.012282386 0.2558295 0.20174333 0.08698875 -0.019340739 0.13400103 -0.101629436
0.25179604 -0.22365189 0.06482378 -0.03440874 0.2102033 -0.15484987 -0.14794602 -0.0010468444
-0.32144886 0.18669745 -0.24519695 0.24170534 -0.25719708 -0.17515895 -0.36430702 -0.23532785
0.027570717 0.046443865 -0.045942962 -0.029317586 -0.16663997 -0.03769196 -0.13102245 -0.23902124
0.09710541 -0.09403491 0.26769674 0.07021536 0.21422932 -0.19247065 -0.09677035 -0.21248195
0.22258513 0.17939454 -0.012330869 -0.31843695 0.1630491 0.051672876 0.07258394 0.006336472
0.047393948 -0.36135522 0.18353793 0.10622955 -0.17515434 0.17414191 -0.16779 0.13135903
0.013223414 0.1439437 0.23191173 -0.0825623 0.17733797 -0.10379314 -0.031314835 0.08442071
-0.47739172 -0.17103171 0.0070547345 -0.030266356 -0.04987699 0.1985455 0.26886517 0.05780954
0.2632344 0.15333678 -0.048001 -0.12013294 -0.088632 0.18264599 0.09306196 0.088302754
0.05120302 -0.021314364 -0.008083956 -0.2555437 -0.10027226 0.37141603 -0.27991962 -0.030325117
00000000: a140 313e 2169 843e 99dc 0c3e 3ba5 f23d
00000010: 09a3 2ebd 502d 85be 4c59 5e3e 9682 a7bd
00000020: 23f1 0dbe 3484 4cbe 59cb dcbd ea42 483e
00000030: 6c7d 05be 95dc aebe ccdf 443e c21d 603e
00000040: 38f2 1c3e 9f0b eb3d 14f6 a43d 873d 82be
00000050: f573 45be 7e9f 7abe b76c 363e 8046 543e
00000060: ac6d 8fbe ec8d ecbd ff0d f1bc b19e 7f3d
00000070: a7e3 443b ab63 3c3e 23f5 b93d e35a 9bbe
00000080: 9253 12be b84e 793e ee56 5dbe cf88 9d3d
00000090: e236 da3b 9712 b2bd 556c e13d 0dc3 133d
000000a0: 6c68 7ebe ae96 d53d caa6 39be abf1 a1bb
000000b0: 0ec6 733e fb60 afbd c6fa 87bc 2ea0 1bbe
000000c0: e6c6 2e3c 84f9 c63c 5524 42be fe5d 0fbe
000000d0: 2a11 a0bd 7dd1 cf3d bc0b 133e 3466 0d3d
000000e0: fe8d 413d 6810 19bd ab9a 10bf 025f 113d
000000f0: 0e2d f6bd b66c 6f3e ffa6 283e 9694 213e
00000100: 4f8d 96be 1b50 373e e745 7e3d c5f0 f9bd
00000110: 4389 243e 10b8 223e 84d0 66be bdc7 833d
00000120: b093 8bbe a5b8 98bd 5f57 5f3e f6f3 143e
00000130: 72cd bbbc 7e23 7a3e 2745 743c 7e4a 8abe
00000140: 4eb9 0b3e 2fc0 57bc a58c 723c 4bad b43d
00000150: 3ece 363e fb31 6a3e 9bb6 953e 40da 6d3d
00000160: 31e9 9c3c 4d0c 353e 427d b5be 8eb5 51bd
00000170: b17e 8ebd 3d6c 9fbd 4b3e 3dbd c086 703e
00000180: 7b0f 793e 6de9 863e 4f7c a73d b277 d2be
00000190: b700 863d ab71 8f3d 5151 df3d a2b7 7ebe
000001a0: ce4f 8a3e 87f5 663d 04a5 493d 93b7 f23d
000001b0: 24e2 84bb e051 b2bc cf4d edbd ae2c 0abe
000001c0: a42e a9bd 9abb 6c3e 9626 bdbc 6bec bc3b
000001d0: 4877 883d 852a debd a5fa 09be 87ca 3f3e
000001e0: d8f5 543c 26e7 7a3c 6ea7 bb3e 0534 4cbe
000001f0: 89a3 84be 0644 01be ed7c 363d 5009 2dbe
00000200: f0d4 9e3d 7bbd ddbd 0fea a83d 5a1c 2ebe
00000210: 8ba2 363e 3c6f b7bd c4fb 8c3c 2b62 6f3d
00000220: 11e6 e53d de0b 0cbe 26f1 aa3e da27 04be
00000230: 25bc 70be 1972 bcbc 7d87 bfbb 0e07 e6bd
00000240: b814 4ebe 5f52 c6bd a244 c3bd 7d37 513e
00000250: 7f22 44be a965 2a3d a5f7 b5bd eb83 03be
00000260: c797 53bd 8dd6 ddbc 2b6c e3bd 4cc2 52be
00000270: a3ca 8d3d 4a34 803e a353 5cbc a314 25be
00000280: d987 933d f3a2 783c e9c6 5dbb 7b9c ebbd
00000290: 96cc 37bb a139 57be 86ec 35be bce1 1c3e
000002a0: 060d b8bc 103c 49bc 16fc 823e ce95 4e3e
000002b0: 2827 b23d 7870 9ebc 9137 093e 1823 d0bd
000002c0: 69eb 803e 0005 65be 54c2 843d 2ef0 0cbd
000002d0: 893f 573e f790 1ebe 297f 17be 4536 89ba
000002e0: f294 a4be 9e2d 3f3e e914 7bbe 9b81 773e
000002f0: 56af 83be de5c 33be 7386 babe c9f9 70be
00000300: fcdb e13c ec3b 3e3d b02e 3cbd 6f2b f0bc
00000310: aba3 2abe e262 1abd c02a 06be fcc1 74be
00000320: 34df c63d 6095 c0bd 8c0f 893e 12cd 8f3d
00000330: ee5e 5b3e 0717 45be 892f c6bd de94 59be
00000340: 5bed 633e 34b3 373e 6a07 4abc 2b0a a3be
00000350: 58f6 263e f0a6 533d e4a6 943d 2ea2 cf3b
00000360: 2820 423d 8d03 b9be 5ef1 3b3e e18e d93d
00000370: a95b 33be 4252 323e 24d1 2bbe fb82 063e
00000380: 05a7 583c fa65 133e 457a 6d3e 6c16 a9bd
00000390: 1698 353e 7f91 d4bd fc43 00bd c4e4 ac3d
000003a0: b06c f4be f022 2fbe 672b e73b 26f1 f7bc
000003b0: d14b 4cbd 834f 4b3e b2a8 893e b2c9 6c3d
000003c0: a9c6 863e 5104 1d3e b29c 44bd 4208 f6bd
000003d0: b284 b5bd 8d07 3b3e 4597 be3d 13d8 b43d
000003e0: 42ba 513d 769b aebc 9272 04bc a0d6 82be
000003f0: 8b5b cdbd 3e2a be3e a051 8fbe 616c f8bc

model.gnn.gnn_layers.0.graph_conv.bias f4 [64]
0.03795125 -0.04148721 0.009487112 0.007913247 -0.06394548 0.01774308 -0.02671943 -0.04026964
-0.0554761 -0.03893972 -0.030645905 -0.028056022 0.07108006 0.029665465 -0.08717335 -0.0046707573
-0.02313249 -0.039888076 -0.029476544 -0.067297556 0.07197271 0.013450945 -0.06685683 0.013027423
-0.04962715 -0.035341747 -0.038799275 0.011060821 -0.08336254 -0.05425846 -0.0025977476 -0.0060478444
0.010321743 0.0067024496 0.03932033 0.09931663 -0.006780319 -0.013663988 -0.04682754 -0.035888333
0.046128713 -0.061454505 -0.010019602 -0.009245806 -0.030190364 -0.028445154 0.017207246 0.012787424
-0.032119248 -0.014036278 0.02348688 0.010412832 0.055271193 -0.07230512 0.02447892 0.01112454
0.033055566 -0.019807946 0.09785464 -0.009657136 0.006783404 -0.047292333 0.0015026644 -0.013439187
00000000: c572 1b3d 7eee 29bd d56f 1b3c 90a6 013c
00000010: d9f5 82bd f059 913c b5e2 dabc c7f1 24bd
00000020: e83a 63bd 417f 1fbd 1f0d fbbc bed5 e5bc
00000030: 6c92 913d fd04 f33c f187 b2bd 270d 99bb
00000040: 5980 bdbc ae61 23bd cb78 f1bc 4dd3 89bd
00000050: 6e66 933d 5a61 5c3c 3cec 88bd f970 553c
00000060: d745 4bbd 82c2 10bd fdeb 1ebd 7238 353c
00000070: fbb9 aabd 1e3e 5ebd f93e 2abb ff2c c6bb
00000080: 871c 293c 39a0 db3b 5b0e 213d 8466 cb3d
00000090: 702d debb ebde 5fbc 3cce 3fbd a5ff 12bd
000000a0: 76f1 3c3d b8b7 7bbd 4229 24bc b97b 17bc
000000b0: c851 f7bc d005 e9bc 36f6 8c3c 5882 513c
000000c0: 798f 03bd 6bf8 65bc 8f67 c03c 959a 2a3c
000000d0: 0c64 623d b514 94bd 0488 c83c b443 363c
000000e0: 4665 073d 4644 a2bc 0368 c83d f738 1ebc
000000f0: 5147 de3b 9bb5 41bd 0df5 c43a 0930 5cbc

model.gnn.gnn_layers.0.res_connection.weight f4 [64, 30]
0.031394865 0.02312406 -0.019218192 -0.20531963 -0.13480815 -0.110720344 0.04474773 0.2508496
0.023598626 -0.08631274 -0.0031560517 -0.20361686 -0.16833557 0.09107225 0.030319039 -0.14105536
-0.0048029125 -0.031732757 0.08193113 0.0023872408 -0.22394742 0.19773516 0.00016911328 -0.029711798
0.120168924 -0.26078624 -0.144478 0.03528613 0.13593686 -0.18103783 -0.19383284 -0.14985836
0.026851602 0.0569928 0.08299685 0.08980495 -0.053663358 -0.024911493 -0.011964992 0.32401955
-0.13673231 -0.038171783 -0.13145778 0.063033104 -0.077981904 0.02568908 0.08469972 -0.11136447
-0.101225294 -0.15508734 -0.24659729 0.17945568 -0.1309904 -0.09053602 0.0684274 0.055104285
-0.01847002 0.0744637 0.022677824 0.1127277 0.10552529 0.036034618 0.022112696 0.07905027
-0.1650239 -0.008840627 0.16326393 -0.13577166 0.090705186 -0.1511489 0.20187035 -0.015706668
0.033163607 -0.28191048 0.17679173 -0.12845516 -0.2404978 -0.015099601 -0.09431759 -0.0808469
0.13714537 -0.15852676 -0.13634565 0.03725849 0.04418459 0.022513146 0.19577882 -0.035520837
-0.018437028 0.06683768 0.00065929274 0.104683906 -0.14717057 0.0046142507 -0.022993675 0.06446574
0.030036446 -0.00033669174 -0.10496332 -0.12361303 0.18970218 -0.07648049 0.059978526 -0.3481651
-0.14091831 0.18047923 -0.16969074 0.097797744 -0.15325196 -0.0981105 0.14890727 -0.14377873
0.057642832 0.05286263 0.07272195 -0.07515065 -0.16320832 0.17254105 -0.06344378 -0.11688848
0.08177418 0.019519161 -0.12553172 -0.18859908 -0.052220076 -0.029602898 0.11316481 0.10001628
-0.0919789 -0.16389184 -0.20395726 0.123002775 0.025157996 0.023906788 0.22281675 -0.28102702
0.089098245 -0.22883856 -0.054909565 0.12174109 -0.14659178 -0.22067979 0.060109407 0.094001055
0.114729665 0.011030419 -0.14288743 0.054607093 -0.15289275 -0.04106474 0.1916411 0.11987393
-0.111830175 -0.16258837 -0.13708659 -0.006058529 -0.11736035 0.03973517 -0.17728329 -0.14119177
-0.2166961 0.008698898 0.19661237 -0.18813913 0.07680543 0.07752784 -0.20299597 -0.06176693
-0.21181665 -0.012017763 0.15777062 -0.13582395 0.1500153 0.04518695 -0.0960846 -0.12759395
-0.007247356 -0.14490749 0.034382835 -0.037520826 -0.057494815 0.0114111155 0.027033776 -0.07861906
0.04129253 0.117916666 -0.026178733 -0.10845907 -0.10767764 -0.06657108 0.25456068 0.1313254
0.15737073 0.050755654 0.01730347 -0.049401656 0.07382217 -0.20317182 -0.120334834 -0.19789636
0.12364577 0.025617499 -0.09805177 -0.034477636 -0.0664167 -0.21057472 0.08400095 -0.16707286
-0.028407201 0.008124456 -0.11662981 0.108899646 -0.13517359 0.030469706 0.18500283 0.15483405
-0.15680191 -0.12975512 0.18297967 0.0047514886 0.03711458 -0.0625196 -0.14166382 -0.22319216
0.114952244 0.09588262 0.095467634 -0.13906012 0.043596454 0.10143647 -0.15092355 -0.109061
0.14841643 0.03790468 0.06811947 -0.009272734 -0.17260796 0.16550237 0.15696862 -0.09060216
0.079558305 0.01147404 0.0958134 -0.17703345 -0.09167757 -0.0070523247 0.049500838 0.09050682
-0.07832566 0.11320868 -0.15319093 -0.086195186 -0.14916383 -0.11945105 0.075178735 -0.06964149
00000000: e797 003d ab6e bd3c 786f 9dbc 4f3f 52be
00000010: 260b 0abe 59c1 e2bd 6549 373d 5c6f 803e
00000020: e851 c13c bcc4 b0bd c3d5 4ebb f080 50be
00000030: 2960 2cbe 1684 ba3d a25f f83c d170 10be
00000040: c061 9dbb 35fa 01bd 82cb a73d 4173 1c3b
00000050: 7952 65be 167b 4a3e 0054 3139 2866 f3bc
00000060: 201b f63d c685 85be 0af2 13be 3088 103d
00000070: 0833 0b3e fb61 39be 1e7c 46be 7874 19be
00000080: e4f7 db3c 4871 693d 41fa a93d a8eb b73d
00000090: 1cce 5bbd 3013 ccbc d008 44bc e4e5 a53e
000000a0: 8e03 0cbe 045a 1cbd de9c 06be 8017 813d
000000b0: fab4 9fbd e871 d23c 0c77 ad3d 0e13 e4bd
000000c0: 354f cfbd 37cf 1ebe 0084 7cbe 3bc3 373e
000000d0: 5922 06be f36a b9bd aa23 8c3d 08b5 613d
000000e0: 704e 97bc 6d80 983d d8c6 b93c c8dd e63d
000000f0: a51d d83d 0999 133d af25 b53c 1ce5 a13d
00000100: 06fc 28be 47d8 10bc a92e 273e ba07 0bbe
00000110: a4c3 b93d c7c6 1abe 1ab7 4e3e 45ab 80bc
00000120: 90d6 073d 9256 90be e408 353e c089 03be
00000130: 0e45 76be 5164 77bc 9529 c1bd 0f93 a5bd
00000140: d66f 0c3e d754 22be 329e 0bbe 5c9c 183d
00000150: e7fa 343d 7d6d b83c 3e7a 483e 4c7e 11bd
00000160: 4009 97bc 32e2 883d 63d4 2c3a 8464 d63d
00000170: e2b3 16be 2433 973b 3b5d bcbc 9d06 843d
00000180: fe0e f63c 0086 b0b9 02f7 d6bd d428 fdbd
00000190: 4a41 423e cea1 9cbd 0bac 753d b242 b2be
000001a0: e44c 10be 8ccf 383e 69c3 2dbe 2f4a c83d
000001b0: 15ee 1cbe 28ee c8bd 267b 183e bb3a 13be
000001c0: e41a 6c3d 7c86 583d 3fef 943d 96e8 99bd
000001d0: 1520 27be 9aae 303e d0ee 81bd 3a63 efbd
000001e0: 3979 a73d a6e6 9f3c 638b 00be 1e20 41be
000001f0: b8e4 55bd c781 f2bc f4c2 e73d 56d5 cc3d
00000200: 6f5f bcbd 43d3 27be 2cda 50be e1e8 fb3d
00000210: 2418 ce3c 2bd8 c33c 132a 643e c6e2 8fbe
00000220: 2479 b63d a854 6abe dae8 60bd 6553 f93d
00000230: 281c 16be e2f9 61be 4835 763d a083 c03d
00000240: 63f7 ea3d eeb8 343c 1551 12be b0ab 5f3d
00000250: eb8f 1cbe 8033 28bd 913d 443e 7780 f53d
00000260: 3807 e5bd 917d 26be 6d60 0cbe a086 c6bb
00000270: a05a f0bd 58c1 223d c089 35be 9394 10be
00000280: 95e5 5dbe d385 0e3c c154 493e 8ba7 40be
00000290: 2a4c 9d3d ebc6 9e3d 2dde 4fbe 52ff 7cbd
000002a0: 77e6 58be 27e6 44bc 9f8e 213e 6f15 0bbe
000002b0: 9c9d 193e f415 393d 01c8 c4bd fda7 02be
000002c0: 3b7b edbb a162 14be 04d5 0c3d 70af 19bd
000002d0: af7f 6bbd b0f5 3a3c f075 dd3c 0803 a1bd
000002e0: 5b22 293d 4b7e f13d c874 d6bc ca1f debd
000002f0: 1886 dcbd 6b56 88bd c755 823e 2a7a 063e
00000300: cb25 213e 29e5 4f3d 02c0 8d3c 6459 4abd
00000310: 1430 973d 460c 50be 1c72 f6bd 58a5 4abe
00000320: fe39 fd3d cadb d13c 5ecf c8bd 6c38 0dbd
00000330: 7b05 88bd e6a0 57be b108 ac3d 2615 2bbe
00000340: 38b6 e8bc 701c 053c 9cdb eebd c706 df3d
00000350: f26a 0abe 9b9b f93c 6271 3d3e d18c 1e3e
00000360: ae90 20be 87de 04be 065f 3b3e 60b2 9b3b
00000370: 7505 183d 470a 80bd 5210 11be 7c8c 64be
00000380: 156c eb3d 1b5e c43d 8984 c33d c765 0ebe
00000390: 3292 323d edbd cf3d b48b 1abe 605b dfbd
000003a0: 7afa 173e f041 1b3d 3882 8b3d aaec 17bc
000003b0: 24c0 30be 7479 293e 62bc 203e a08d b9bd
000003c0: 77ef a23d 9dfd 3b3c d139 c43d 4248 35be
000003d0: 73c1 bbbd 3017 e7bb 64c1 4a3d a45b b93d
000003e0: 3469 a0bd f4d9 e73d 15de 1cbe 1a87 b0bd
000003f0: 67be 18be c1a2 f4bd 4ff7 993d 33a0 8ebd

model.gnn.gnn_layers.0.res_connection.bias f4 [64]
-0.12804678 -0.1423706 -0.1047529 0.018737165 0.033590313 -0.119973734 -0.11214295 -0.040482882
-0.107957415 -0.040058296 -0.09343366 -0.10653769 0.097778544 -0.017476778 -0.1873705 -0.13280493
0.011023943 -0.03646441 -0.09252803 0.087161474 -0.006208406 -0.12359111 -0.09140022 0.17521885
-0.17584802 0.07470433 -0.061780605 0.09878987 0.012364423 0.14015988 -0.04688841 -0.030379353
-0.12670754 -0.0044980124 -0.007086013 -0.123262644 -0.01840119 -0.0022567722 0.03552458 -0.07749489
-0.10313644 0.021384723 0.19033529 -0.099632606 0.067288 0.01043546 -0.19106963 -0.14792104
-0.03155802 -0.022572663 -0.19706064 0.11516563 -0.071716435 -0.053805124 0.022633066 0.11977137
0.14614362 0.07504961 0.041753523 0.014139339 -0.07299203 -0.019525163 0.0774333 -0.10833767
00000000: b21e 03be 99c9 11be b088 d6bd af7e 993c
00000010: ff95 093d cab4 f5bd 34ab e5bd 61d1 25bd
00000020: c718 ddbd 2b14 24bd 265a bfbd 6f30 dabd
00000030: 1e40 c83d 762b 8fbc 0dde 3fbe 04fe 07be
00000040: c59d 343c b55b 15bd 567f bdbd b781 b23d
00000050: e26f cbbb 561d fdbd 0a30 bbbd 926c 333e
00000060: 8111 34be 95fe 983d a90d 7dbd 5852 ca3d
00000070: 2694 4a3c 1286 0f3e 100e 40bd 1fde f8bc
00000080: 9fbf 01be 1064 93bb c931 e8bb 2071 fcbd
00000090: 18be 96bc 5be6 13bb 3982 113d a4b5 9ebd
000000a0: 3339 d3bd 042f af3c 41e7 423e 2e0c ccbd
000000b0: 4ace 893d 7ef9 2a3c c2a7 43be 9d78 17be
000000c0: fb42 01bd 4eea b8bc 44ca 49be f5db eb3d
000000d0: 11e0 92bd c362 5cbd fb68 b93c b14a f53d
000000e0: aca6 153e 9cb3 993d be05 2b3d b0a8 673c
000000f0: d87c 95bd 3cf3 9fbc 5a95 9e3d 24e0 ddbd

model.gnn.gnn_layers.1.graph_conv.weight f4 [64, 64]
-0.33962464 0.029189043 -0.06634463 -0.051001407 0.05902674 0.06311926 -0.26860628 0.17437291
0.06284786 -0.20972481 -0.22319473 0.011456421 -0.15820605 -0.024619233 0.031827595 -0.25513804
-0.17272358 -0.10902239 0.004549331 0.10287882 -0.08053106 -0.062921144 0.15209071 0.020441163
-0.11271466 -0.199102 0.12554014 0.12456547 0.03087489 -0.032809094 -0.2011688 0.106055565
-0.054129954 0.053871308 -0.23685779 0.2082491 -0.11074302 -0.055683818 0.021678535 -0.21802466
0.17603251 -0.054066733 0.08433057 0.19153684 -0.037411653 -0.30211085 0.112255745 0.16391636
-0.030341469 -0.043070097 0.048210517 -0.08465684 -0.15599294 -0.0927837 0.25584492 0.1155922
0.24980909 -0.13231346 -0.07339892 0.09836171 -0.06141862 0.061476313 0.073096864 -0.1971535
-0.102109045 -0.14123283 -0.11752211 -0.31579265 0.20363262 -0.26093954 0.016033716 0.111507036
-0.13394232 -0.11587057 -0.061237507 0.0049233935 -0.01620893 -0.31934017 0.18979545 0.0398083
-0.0044933655 -0.13434799 0.042501826 -0.11461501 -0.19644895 -0.1352082 0.11902119 0.11799034
-0.31498528 0.16240722 0.06843017 -0.30038452 -0.25458583 0.09686801 -0.16056113 0.18791609
0.13763125 0.014187418 0.15538912 -0.14309599 0.11257696 -0.20094262 0.21456958 -0.03171019
-0.14192775 -0.024594385 0.113905914 -0.3076912 0.11107599 -0.30891377 -0.29764003 -0.052082036
0.16334425 0.13983396 -0.14498405 -0.1615115 -0.10713149 0.10147713 0.09043846 -0.14386794
0.030383613 0.14970519 -0.22517344 -0.15354384 0.21749768 -0.05780952 -0.18585268 -0.051844865
-0.08861861 -0.07483551 -0.0622441 0.021592204 0.18312038 -0.038223386 0.07438838 0.18343474
-0.18007824 0.1636588 0.031187462 -0.018761039 -0.14129515 0.05027821 0.1428359 0.10158472
0.21492934 0.032989595 -0.23345976 -0.043411173 -0.19899268 -0.12981403 -0.094151005 0.048573118
0.11019052 0.16160889 0.023104679 0.15396076 0.09792197 -0.14291108 0.20188308 0.062259525
0.15844737 -0.14804536 0.21769634 0.05046105 0.27278405 -0.25412557 0.1666698 -0.14895532
0.060453057 0.037777655 -0.13837866 0.13139153 0.18774201 0.0836202 0.03428878 -0.045996062
0.17911986 -0.09534802 -0.16886239 0.01343776 -0.14518878 -0.15797532 -0.13612589 -0.1509943
0.20230252 0.0355683 -0.068350606 0.11019624 -0.28153697 -0.14704013 0.05870594 -0.12070058
-0.22035661 -0.028967679 0.09164967 -0.113191366 -0.1105599 0.026115043 -0.15681902 0.1499295
-0.08702977 -0.04263528 0.12634075 -0.029140664 -0.2901317 0.14173998 -0.06279436 0.16239874
0.1254827 0.089441404 -0.15312932 -0.19521935 -0.04350748 0.061559465 0.025519324 0.065835126
0.16439 0.058629926 -0.08972272 0.21161684 -0.022914413 -0.06936596 0.0945958 -0.1345169
-0.08309526 0.19579528 -0.18568449 0.068951614 -0.13147551 -0.015642555 -0.119585566 -0.08748239
0.005753107 0.0697678 -0.10161697 0.086336754 -0.060248576 -0.18452613 0.17456171 -0.12778333
-0.16600575 -0.27467448 -0.18902661 0.12942807 -0.069816485 0.21525788 -0.017843094 -0.040882222
-0.43041354 0.22552234 -0.08527116 -0.0070857145 -0.1459218 0.0485035 -0.23456135 0.07048901
00000000: 48e3 adbe dc1d ef3c b2df 87bd dae6 50bd
00000010: 06c6 713d ac44 813d c386 89be d08e 323e
00000020: 61b6 803d 1ac2 56be 298d 64be b6b3 3b3c
00000030: c400 22be 46ae c9bc a75d 023d 74a1 82be
00000040: 73de 30be 2147 dfbd 8e12 953b 21b2 d23d
00000050: 78ed a4bd cddc 80bd abbd 1b3e 3a74 a73c
00000060: f2d6 e6bd 65e1 4bbe 988d 003e 2e1c ff3d
00000070: 56ed fc3c d462 06bd 32ff 4dbe a933 d93d
00000080: 5fb7 5dbd 29a8 5c3d d98a 72be 413f 553e
00000090: 3dcd e2bd b714 64bd 2f97 b13c db41 5fbe
000000a0: de41 343e 1475 5dbd 82b5 ac3d 3c22 443e
000000b0: f63c 19bd 46ae 9abe 57e6 e53d b1d9 273e
000000c0: ac8e f8bc 456a 30bd 6478 453d 9160 adbd
000000d0: 9dbc 1fbe 6105 bebd 1bfe 823e 9abb ec3d
000000e0: f4cd 7f3e 2e7d 07be 2c52 96bd dd71 c93d
000000f0: 1792 7bbd 96ce 7b3d cfb3 953d 9be2 49be
00000100: 8c1e d1bd 579f 10be 6faf f0bd 93af a1be
00000110: 1285 503e de99 85be 2459 833c cd5d e43d
00000120: 2d28 09be 8d4d edbd 2ed4 7abd 6b54 a13b
00000130: 97c8 84bc 8e80 a3be bd59 423e 070e 233d
00000140: 153d 93bb 8592 09be 6516 2e3d 46bb eabd
00000150: ea29 49be 0574 0abe 62c1 f33d eba4 f13d
00000160: c045 a1be 144e 263e 1e25 8c3d 00cc 99be
00000170: 1359 82be bc62 c63d 236a 24be 136d 403e
00000180: 35ef 0c3e 5872 683c 531e 1f3e c187 12be
00000190: c08e e63d e7c3 4dbe 21b8 5b3e 8be2 01bd
000001a0: 8255 11be 2a7a c9bc 8147 e93d b389 9dbe
000001b0: cf7b e33d f229 9ebe 4664 98be f953 55bd
000001c0: b743 273e a230 0f3e b376 14be 4563 25be
000001d0: c167 dbbd 3ed3 cf3d cd37 b93d 1e52 13be
000001e0: 0ee7 f83c 514c 193e de93 66be 993a 1dbe
000001f0: b6b7 5e3e adc9 6cbd 2a50 3ebe 485b 54bd
00000200: ac7d b5bd 5c43 99bd abf3 7ebd 22e2 b03c
00000210: e983 3b3e 2090 1cbd ef58 983d 51d6 3b3e
00000220: 6e66 38be 2c96 273e d97c ff3c c0b0 99bc
00000230: adaf 10be 86f0 4d3d 9343 123e a60b d03d
00000240: 7016 5c3e 1920 073d 1310 6fbe eacf 31bd
00000250: bdc4 4bbe f8ed 04be 3ed2 c0bd 9bf4 463d
00000260: 91ab e13d cd7c 253e 0646 bd3c e4a7 1d3e
00000270: 508b c83d 4857 12be 70ba 4e3e d803 7f3d
00000280: 0740 223e 3499 17be caeb 5e3e 3fb0 4e3d
00000290: 5aaa 8b3e bf1c 82be 7dab 2a3e be87 18be
000002a0: a09d 773d bebc 1a3d 23b3 0dbe 808b 063e
000002b0: 713f 403e 1141 ab3d 6472 0c3d 5e66 3cbd
000002c0: 326b 373e d345 c3bd 43ea 2cbe 0d2a 5c3c
000002d0: 5eac 14be 48c4 21be 9664 0bbe 409e 1abe
000002e0: 6428 4f3e 11b0 113d 67fb 8bbd 91ae e13d
000002f0: 9d25 90be b091 16be a475 703d de31 f7bd
00000300: 2aa5 61be a04d edbc d2b2 bb3d e0d0 e7bd
00000310: 3b6d e2bd 37ef d53c 2a95 20be 1e87 193e
00000320: aa3c b2bd 55a2 2ebd 785f 013e 67b8 eebc
00000330: 248c 94be 4924 113e 549a 80bd db4b 263e
00000340: 897e 003e 0e2d b73d efcd 1cbe 95e7 47be
00000350: e634 32bd c725 7c3d e70d d13c 91d4 863d
00000360: da55 283e ef25 703d 8cc0 b7bd 16b2 583e
00000370: 02b7 bbbc be0f 8ebd 71bb c13d ccbe 09be
00000380: d92d aabd 8f7e 483e 1324 3ebe 8136 8d3d
00000390: 84a1 06be d124 80bc 47e9 f4bd f829 b3bd
000003a0: 8f84 bc3b 6ce2 8e3d 8f1c d0bd 53d1 b03d
000003b0: 36c7 76bd 6bf4 3cbe 4ec0 323e a2d9 02be
000003c0: 69fd 29be 22a2 8cbe 3190 41be cb88 043e
000003d0: f2fb 8ebd 906c 5c3e ae2b 92bc 1e74 27bd
000003e0: 2a5f dcbe 54ef 663e a5a2 aebd 482f e8bb
000003f0: 866c 15be 9bab 463d da30 70be 8b5c 903d

model.gnn.gnn_layers.1.graph_conv.bias f4 [64]
0.00687096 -0.050044734 -0.020701997 -0.09896808 0.013749447 -0.028036539 0.023576787 -0.0250364
-0.09595163 -0.023534508 -0.042981435 -0.036998913 0.017135914 -0.14027645 -0.016875774 -0.045683466
-0.048700385 -0.020144433 -0.09029821 -0.027224265 0.003912184 -0.03777975 -0.039171793 -0.15017934
-0.098882735 -0.10198917 -0.04451899 -0.11606285 -0.09474305 -0.07402698 -0.055007577 -0.05664897
-0.031519156 -0.06982987 -0.010894482 -0.023698244 -0.005271269 -0.008592368 -0.06570797 -0.024272643
-0.028258545 -0.044947587 0.017724678 -0.029905375 -0.059045423 -0.08005248 -0.027749786 -0.051200747
-0.06302973 -0.03421409 -0.113196604 -0.052122068 -0.04717781 -0.021297783 -0.025142955 -0.009729838
0.014051466 -0.054095436 0.06775963 -0.0066385935 -0.06482049 -0.021507733 -0.04954128 -0.0861352
00000000: ca25 e13b b5fb 4cbd 3c97 a9bc c7af cabd
00000010: 5c45 613c e2ac e5bc 1b24 c13c 2319 cdbc
00000020: 4a82 c4bd 71cb c0bc 4d0d 30bd 2c8c 17bd
00000030: 9e60 8c3c a1a4 0fbe 103f 8abc 961e 3bbd
00000040: 0e7a 47bd f005 a5bc 45ee b8bd 6c05 dfbc
00000050: c731 803b f0be 1abd 9a72 20bd 9dc8 19be
00000060: 0883 cabd b3df d0bd 8b59 36bd 5cb2 edbd
00000070: a508 c2bd 759b 97bd a04f 61bd c008 68bd
00000080: 3b1a 01bd f602 8fbd c57e 32bc d222 c2bc
00000090: 9cba acbb 01c7 0cbc e691 86bd 6cd7 c6bc
000000a0: 777e e7bc f61a 38bd 5833 913c 1efc f4bc
000000b0: 9dd9 71bd 8ef2 a3bd 8553 e3bc e0b7 51bd
000000c0: bb15 81bd 1324 0cbd 9fd3 e7bd f37d 55bd
000000d0: 853d 41bd b078 aebc 99f8 cdbc e669 1fbc
000000e0: 1f38 663c 2d93 5dbd 90c5 8a3d 8f88 d9bb
000000f0: 9bc0 84bd fc30 b0bc cceb 4abd a767 b0bd

model.gnn.gnn_layers.1.res_connection.weight f4 [64, 64]
-0.20347849 0.07780471 -0.10114925 -0.06728086 -0.017333237 -0.17588907 0.08552874 -0.0038429308
-0.018271836 0.023245925 -0.053058766 -0.024390992 -0.11132984 -0.07597431 0.008713578 -0.0030503012
-0.14122614 -0.07560042 0.073161446 -0.05796264 -0.00094304903 -0.28319526 -0.1246456 -0.024337485
0.020358616 -0.005767427 0.14785685 -0.08737013 0.104637876 0.032373715 -0.16613315 0.092077754
-0.0429402 0.035273455 0.039562475 -0.057166353 0.05423896 0.057607975 0.034738615 -0.116622075
0.038147926 -0.06735779 -0.03470754 0.018278413 0.04812334 0.0066344687 -0.046021268 -0.008441373
0.07574383 0.051739544 -0.17963003 0.039709155 -0.028664004 -0.04553025 -0.064351924 -0.027510958
0.07304279 -0.069274336 0.09690506 -0.120781906 0.020635579 -0.034684878 0.03189448 0.019893305
-0.11475877 -0.45171255 0.13848908 0.08944904 0.11085199 0.0524615 -0.12577261 -0.12902409
-0.041414708 0.08032032 0.16559091 -0.022804262 -0.00473621 -0.1973977 -0.046606064 0.17926623
0.0049641887 -0.14311588 -0.033252753 0.17131826 0.014813546 -0.09428042 -0.12829392 0.05286234
0.065726824 -0.20307504 0.05688362 0.16863863 -0.016324807 0.077371866 0.25711966 -0.16858622
-0.03990044 -0.11651364 0.106041364 -0.051615115 -0.121738784 0.01415335 0.18361999 -0.13878779
0.0052077216 -0.028855287 0.025187798 -0.15978582 -0.040538795 -0.0414528 -0.26491636 -0.12332826
0.03698536 -0.06886318 0.15238032 0.0067483783 0.024492234 -0.07523609 0.13706724 -0.16904947
0.06365156 -0.24115178 0.16026355 -0.06867335 0.16208832 0.06281079 0.0062247124 -0.12061469
-0.034598757 -0.097975254 -0.08858389 -0.12022484 -0.010316631 -0.14992663 -0.07617595 0.18390661
0.012880941 0.0030448667 -0.04366567 0.09949609 -0.11399015 0.41503224 -0.17896582 -0.21413125
0.056637432 0.012839036 -0.122647434 -0.05243302 -0.06878681 0.07821139 0.14730003 -0.262832
-0.15629274 0.07969377 -0.26430216 -0.057948027 0.002082081 0.014333189 -0.12949905 0.15673068
0.04997804 0.011195952 0.07917778 0.04928782 0.049640402 0.05368028 0.12624744 -0.11478085
0.18511294 -0.0055371043 -0.06712238 0.15555981 0.06770161 -0.08825244 0.008334375 0.0283238
-0.09297988 0.12045493 -0.068348646 -0.14632678 0.05433232 0.07565529 0.048601143 0.099923015
0.08582214 0.01088181 0.02553161 -0.20406906 -0.004762477 -0.1064143 0.025209187 -0.21906134
-0.077244595 -0.16391079 0.04958862 0.038817815 -0.13882716 0.23305008 -0.0046281554 -0.16545063
0.17231591 0.09956686 -0.06902031 -0.025960745 -0.32107806 -0.010061136 0.07108148 -0.002410406
0.12672678 -0.10713529 0.05888969 0.024909072 -0.018815294 0.11474595 0.08094937 -0.16487671
-0.28627956 -0.04155855 0.19527236 -0.14685391 -0.017806776 0.041942064 -0.3448317 -0.2582598
0.13458607 0.043417614 -0.26009452 -0.07402347 0.08642703 -0.068118446 0.080448054 0.1723318
0.021419507 -0.095644 0.08716228 0.052936073 0.061425656 0.16817304 0.03896148 -0.2765089
0.07732376 -0.15545629 -0.061403785 -0.12923756 0.040041983 -0.038834378 0.20280924 0.101352796
0.12748621 -0.15047555 0.030121874 -0.11335743 0.06236966 0.00087252026 -0.06342989 -0.0053394223
00000000: aa5c 50be 1358 9f3d 5727 cfbd 8cca 89bd
00000010: 6ffe 8dbc 441c 34be b129 af3d aed9 7bbb
00000020: d1ae 95bc 3d6e be3c 2654 59bd 9ecf c7bc
00000030: e600 e4bd 6b98 9bbd 65c3 0e3c 90e7 47bb
00000040: 969d 10be 65d4 9abd abd5 953d 3c6a 6dbd
00000050: f336 77ba f8fe 90be 3146 ffbd 685f c7bc
00000060: 1dc7 a63c affc bcbb c967 173e 1cef b2bd
00000070: 624c d63d 4d9a 043d cf1e 2abe 4393 bc3d
00000080: 10e2 2fbd e67a 103d 430c 223d 4427 6abd
00000090: ac29 5e3d 57f6 6b3d 144a 0e3d 8ed7 eebd
000000a0: 0041 1c3d e2f2 89bd 7e29 0ebd 9cbc 953c
000000b0: fb1c 453d f565 d93b cc80 3cbd af4d 0abc
000000c0: 951f 9b3d d8ec 533d eff0 37be 11a6 223d
000000d0: c6d0 eabc ed7d 3abd f1ca 83bd a95e e1bc
000000e0: 7597 953d b4df 8dbd 2976 c63d 815c f7bd
000000f0: f20b a93c bb11 0ebd c9a3 023d 49f7 a23c
00000100: a506 ebbd de46 e7be 15d0 0d3e 0f31 b73d
00000110: 5e06 e33d dfe1 563d 89ca 00be e41e 04be
00000120: 78a2 29bd fb7e a43d aa90 293e 01d0 babc
00000130: 3632 9bbb 9f22 4abe 00e6 3ebd 9191 373e
00000140: a2aa a23b f88c 12be 0a34 08bd 0e6e 2f3e
00000150: 84b4 723c 1816 c1bd 7b5f 03be 2e86 583d
00000160: c99b 863d e7f2 4fbe ccfe 683d 9baf 2c3e
00000170: 9abb 85bc 2475 9e3d 30a5 833e dea1 2cbe
00000180: a56e 23bd b49e eebd 372c d93d 5f6a 53bd
00000190: 2f52 f9bd 74e3 673c e106 3c3e 631e 0ebe
000001a0: 89a5 aa3b ec61 ecbc a456 ce3c e59e 23be
000001b0: 020c 26bd 69ca 29bd 1ea3 87be 8793 fcbd
000001c0: f67d 173d 2408 8dbd 9609 1c3e 8021 dd3b
000001d0: f0a3 c83c 6115 9abd 5b5b 0c3e 4e1b 2dbe
000001e0: c05b 823d 7ef0 76be 211c 243e 9da4 8cbd
000001f0: 7bfa 253e f2a2 803d acf8 cb3b d604 f7bd
00000200: 6db7 0dbd 40a7 c8bd 786b b5bd 7138 f6bd
00000210: 1607 29bc 5e86 19be 2302 9cbd 0452 3c3e
00000220: 950a 533c 638c 473b c6da 32bd 9bc4 cb3d
00000230: ab73 e9bd 1b7f d43e d142 37be 3945 5bbe
00000240: a7fc 673d d25a 523c 942e fbbd 02c4 56bd
00000250: 19e0 8cbd 4b2d a03d d2d5 163e ea91 86be
00000260: 340b 20be 7d36 a33d 9d52 87be e95a 6dbd
00000270: 8673 083b c1d5 6a3c 669b 04be 027e 203e
00000280: c6b5 4c3d 3a6f 373c f627 a23d 06e2 493d
00000290: bc53 4b3d dadf 5b3d 0247 013e 3912 ebbd
000002a0: 3f8e 3d3e 9970 b5bb 7577 89bd 124b 1f3e
000002b0: 24a7 8a3d b2bd b4bd e78c 083c 5007 e83c
000002c0: 3c6c bebd 13b1 f63d 60fa 8bbd b0d6 15be
000002d0: 918b 5e3d 29f1 9a3d fe11 473d 70a4 cc3d
000002e0: 85c3 af3d 9f49 323c ab27 d13c 7bf7 50be
000002f0: 8d0e 9cbb beef d9bd 7f83 ce3c 9e51 60be
00000300: 6a32 9ebd 3bd8 27be 701d 4b3d 6eff 1e3d
00000310: b528 0ebe aea4 6e3e c8a7 97bb e46b 29be
00000320: 9573 303e b6e9 cb3d 855a 8dbd a1ab d4bc
00000330: 5864 a4be 77d7 24bc 2b93 913d e7f7 1dbb
00000340: aac4 013e bf69 dbbd 5136 713d 1c0e cc3c
00000350: 8822 9abc edff ea3d c9c8 a53d 71d5 28be
00000360: 3c93 92be 4c39 2abd 7af5 473e df60 16be
00000370: 84df 91bc 71cb 2b3d c88d b0be a13a 84be
00000380: eed0 093e abd6 313d 1c2b 85be 9e99 97bd
00000390: a800 b13d af81 8bbd f3c1 a43d bf77 303e
000003a0: f677 af3c 00e1 c3bd 2382 b23d 7fd3 583d
000003b0: 7899 7b3d 8e35 2c3e 1396 1f3d 9392 8dbe
000003c0: eb5b 9e3d ef2f 1fbe 8982 7bbd da56 04be
000003d0: 1003 243d cc10 1fbd 3aad 4f3e 0e92 cf3d
000003e0: bf8b 023e 4316 1abe 26c2 f63c f127 e8bd
000003f0: 5477 7f3d d8b9 643a 88e7 81bd 52f6 aebb

model.gnn.gnn_layers.1.res_connection.bias f4 [64]
0.008896216 0.08950321 -0.11608913 -0.08715051 -0.04177645 -0.19076206 0.094184786 -0.05757845
-0.08094341 0.05467263 0.06844025 -0.056499965 0.018132577 0.00904564 -0.097733974 0.076227844
0.07651465 -0.0647995 -0.092018455 -0.17418846 -0.080993816 -0.07579264 -0.06639912 0.10850769
-0.09172703 -0.05961407 0.010297418 -0.12862386 -0.059165586 -0.022029828 0.0464424 -0.07848616
0.10423573 -0.131004 0.09226162 -0.13760255 0.010496095 -0.055322252 0.09165252 -0.002855809
-0.028266924 0.11160641 0.0017111925 -0.0282008 0.049406156 0.04337709 -0.09071793 -0.13989423
0.007853944 0.11163558 0.0848377 -0.1283647 0.0017186244 -0.068314865 0.042464912 -0.035890292
0.06634648 -0.013580356 0.086772345 0.043913506 0.07383873 -0.0521151 0.022520833 0.038243275
00000000: 6fc1 113c 754d b73d 23c0 edbd f77b b2bd
00000010: c81d 2bbd 2157 43be f4e3 c03d 61d7 6bbd
00000020: a9c5 a5bd 68f0 5f3d 672a 8c3d 826c 67bd
00000030: c58a 943c 2a34 143c c028 c8bd 581d 9c3d
00000040: b6b3 9c3d 9ab5 84bd 2c74 bcbd 765e 32be
00000050: 16e0 a5bd 2c39 9bbd 43fc 87bd 4839 de3d
00000060: 62db bbbd e22d 74bd 80b6 283c f9b5 03be
00000070: 9d57 72bd e677 b4bc 633a 3e3d 5abd a0bd
00000080: 8b79 d53d ea25 06be a9f3 bc3d afe7 0cbe
00000090: d0f7 2b3c 9699 62bd 51b4 bb3d 8628 3bbb
000000a0: 0990 e7bc e791 e43d 184a e03a 5d05 e7bc
000000b0: 1c5e 4a3d 2dac 313d 52ca b9bd 6f40 0fbe
000000c0: d4ad 003c 32a1 e43d 63bf ad3d 0972 03be
000000d0: 7743 e13a aae8 8bbd b0ef 2d3d b301 13bd
000000e0: aae0 873d 2480 5ebc b3b5 b13d a6de 333d
000000f0: c338 973d a576 55bd 9c7d b83c fba4 1c3d

model.readout.weight_and_sum.atom_weighting.0.weight f4 [1, 64]
-0.16359742 -0.09442641 -0.0835226 0.08905184 0.2346071 -0.03769659 0.02763993 -0.22825325
-0.099511944 -0.07935837 -0.17096952 -0.13576335 -0.056917455 -0.05167265 -0.21551596 0.01672161
0.09874338 -0.09339852 -0.07544064 -0.08401102 0.066012464 -0.019054176 -0.2726327 -0.024143124
-0.081062496 0.04855731 -0.22855599 0.04741254 -0.08777183 0.0837031 -0.15059116 -0.2280853
0.04142868 -0.07203617 -0.24475338 -0.16430624 -0.012746662 -0.08848572 0.014936725 -0.1544231
0.07444927 0.024723288 -0.08891953 -0.095714875 -0.02648598 0.09453617 -0.08418297 -0.19482327
0.041880336 -0.18444192 -0.01987058 0.1751765 -0.12456916 -0.18676025 -0.17452984 -0.067776576
-0.035966847 0.005287639 0.09968733 -0.12705438 0.006463852 -0.018996976 0.005138671 -0.053553484
00000000: 1586 27be a262 c1bd e60d abbd d060 b63d
00000010: d83c 703e bd67 1abd 226d e23c 38bb 69be
00000020: ebcc cbbd a486 a2bd a212 2fbe 8c05 0bbe
00000030: 4722 69bd b3a6 53bd 37b0 5cbe c2fb 883c
00000040: f839 ca3d b947 bfbd 9f80 9abd f80d acbd
00000050: 8b31 873d 8117 9cbc 8396 8bbe cdc7 c5bc
00000060: 1804 a6bd 08e4 463d 950a 6abe a733 423d
00000070: b8c1 b3bd 886c ab3d 9234 1abe 318f 69be
00000080: 1fb1 293d b387 93bd a1a0 7abe e53f 28be
00000090: 60d7 50bc 0038 b5bd 2ab9 743c 1721 1ebe
000000a0: dc78 983d 7e88 ca3c 711b b6bd 2906 c4bd
000000b0: 20f9 d8bc 2e9c c13d 1f68 acbd c07f 47be
000000c0: b78a 2b3d 58de 3cbe a0c7 a2bc 7861 333e
000000d0: 1e1e ffbd 143e 3fbe f3b7 32be 72ce 8abd
000000e0: f951 13bd ee43 ad3b df28 cc3d 8b1a 02be
000000f0: b8ce d33b 8c9f 9bbc 4c62 a83b e65a 5bbd

model.predict.predict.1.weight f4 [64, 128]
-0.09233548 -0.019994633 0.006898504 0.03077041 -0.19516817 0.06961068 -0.07711711 0.047096964
-0.022214185 -0.014560254 -0.08451169 0.039873943 -0.09632959 -0.144318 0.020748751 -0.0009373305
0.05501685 -0.11742887 -0.16342723 0.04684598 -0.22014378 -0.10000395 -0.044204123 0.2472051
-0.06510639 0.023913963 -0.018095542 -0.059302475 -0.08348937 0.023704128 -0.06445165 0.009190232
-0.040685814 -0.07219475 -0.0040390245 -0.006463038 -0.038766723 -0.050165404 -0.062607974 -0.023055071
-0.026516864 0.014816528 -0.06227689 -0.03322295 0.087967 -0.02926192 -0.013793127 -0.028353022
-0.057169426 -0.11556794 0.050240926 0.057012644 0.04515126 -0.02550658 -0.048298188 -0.07806179
-0.03992062 0.03418084 -0.10114318 -0.12689526 0.031725816 -0.10506521 -0.06408633 -0.039812192
-0.037262827 -0.08246902 0.093040526 0.042161465 -0.22700165 0.04051961 -0.13753693 -0.0075944676
-0.022000244 0.07181799 0.064602286 0.04995971 -0.0838749 0.14267592 -0.06099131 -0.01372785
0.260737 -0.11725644 0.08515643 -0.02764727 -0.028547432 -0.015046537 0.07793344 0.22528005
-0.005166054 0.023015598 0.049455043 -0.119001634 0.09466381 0.089413896 -0.03386511 0.03135231
0.0021627657 0.026755387 0.007350868 -0.057495993 -0.0050574928 -0.0009371415 0.011362657 -0.023982637
0.14161067 0.044467404 -0.061672695 0.1116146 0.060823638 0.03615595 -0.07508642 -0.010683565
-0.096833974 -0.23545095 0.07074022 -0.09424999 -0.011491503 0.105104536 0.11995173 0.10183046
-0.043567408 -0.15240072 -0.04348606 -0.0011290367 0.07502886 0.05722413 -0.044585668 -0.035452813
0.010645897 0.019022992 -0.005944896 0.04876203 -0.22852863 0.036130127 -0.031030102 -0.03296345
-3.084443e-05 -0.00983027 0.026092459 -0.007992014 0.039233726 0.15820166 0.046988275 0.08534255
-0.0056348043 -0.107548274 -0.005185669 -0.06135296 -0.001168458 0.070860535 -0.021596013 0.11695263
0.016846986 0.10502818 -0.005221526 0.051390186 -0.1492281 0.029771183 0.010757624 0.034420438
-0.03464461 -0.059088774 0.09089059 0.021432111 -0.058163464 -0.0076107914 0.028358728 0.04346772
0.113157764 -0.02987224 -0.10040364 0.017152393 0.060098544 0.012385446 0.024698032 -0.033182237
0.05785073 0.08717909 0.0889145 0.14402066 -0.08663704 -0.025418542 0.050400324 0.08087333
-0.17784223 0.046003703 -0.07136294 0.031156689 -0.014772724 -0.0050076987 -0.02313917 0.037638377
0.023274243 -0.01939409 0.10876245 0.01222675 -0.13638133 0.12458464 0.056770947 -0.05695376
0.043304775 -0.060648054 0.05881516 -0.10479639 -0.076902464 0.11524749 0.03272837 0.12679811
0.11227826 -0.10712467 0.14946018 0.035870757 -0.08343318 -0.018554086 0.007384996 0.11725332
-0.05310762 -0.044239484 -0.17436044 0.031048939 0.057838324 0.015015929 -0.032776814 -0.028121833
0.055242486 -0.0694918 -0.07900526 -0.07361311 0.11228827 0.0037621974 -0.07692387 -0.043704093
0.17880465 0.0025088356 -0.09814457 0.06633721 -0.0995739 0.03579942 0.035784602 0.045570366
-0.13574488 -0.06778841 0.0614127 0.107499346 -0.2347056 0.057013113 -0.035798788 -0.0817672
-0.3063174 -0.24103794 -0.044135835 0.022202317 0.067476906 -0.04068832 0.031375304 0.0076156277
00000000: 621a bdbd c9cb a3bc d90c e23b 3a12 fc3c
00000010: 2ada 47be 0b90 8e3d 93ef 9dbd bfe8 403d
00000020: 86fa b5bc 228e 6ebc 7714 adbd dc52 233d
00000030: 7348 c5bd 19c8 13be 49f9 a93c 2fb7 75ba
00000040: 5959 613d 8c7e f0bd 7859 27be 92e1 3f3d
00000050: 5f6d 61be dfce ccbd 620f 35bd 5523 7d3e
00000060: 8056 85bd 37e7 c33c 1a3d 94bc 27e7 72bd
00000070: 7afc aabd 292f c23c 3aff 83bd a092 163c
00000080: 2ba6 26bd d7da 93bd cb59 84bb e4c7 d3bb
00000090: dbc9 1ebd 3d7a 4dbd 9c38 80bd fddd bcbc
000000a0: e539 d9bc 06c1 723c 0d16 7fbd ca14 08bd
000000b0: 0b28 b43d b2b6 efbc 91fc 61bc 9944 e8bc
000000c0: 7d2a 6abd e2ae ecbd 6ec9 4d3d 1786 693d
000000d0: 87f0 383d 2df3 d0bc 52d4 45bd dcde 9fbd
000000e0: ce83 23bd 3501 0c3d 2824 cfbd d5f0 01be
000000f0: eef2 013d 6e2c d7bd b23f 83bd 1c12 23bd
00000100: e8a0 18bd 84e5 a8bd 088c be3d 80b1 2c3d
00000110: 1f73 68be e4f7 253d 7bd6 0cbe 03db f8bb
00000120: db39 b4bc 4f15 933d 344e 843d 8ea2 4c3d
00000130: 9bc6 abbd a319 123e 06d2 79bd c7ea 60bc
00000140: 527f 853e 2524 f0bd 7f66 ae3d 877c e2bc
00000150: 4edc e9bc c085 76bc 919b 9f3d d0af 663e
00000160: 0048 a9bb 358b bc3c 5f91 4a3d 21b7 f3bd
00000170: 1adf c13d a21e b73d 24b6 0abd 486b 003d
00000180: 30bd 0d3b 1d2e db3c 8ddf f03b eb80 6bbd
00000190: 53b9 a5bb 80aa 75ba 702a 3a3c 3c77 c4bc
000001a0: 6302 113e 7423 363d 829c 7cbd 3296 e43d
000001b0: 3522 793d 4318 143d e9c6 99bd 1f0a 2fbc
000001c0: e450 c6bd 0e1a 71be 40e0 903d 2406 c1bd
000001d0: db46 3cbc 0c41 d73d 41a9 f53d 7d8c d03d
000001e0: bd73 32bd ef0e 1cbe 701e 32bd 2ffc 93ba
000001f0: bba8 993d d963 6a3d 769f 36bd f836 11bd
00000200: 216c 2e3c 1bd6 9b3c 67cd c2bb b2ba 473d
00000210: 6903 6abe 2ffd 133d d732 febc af04 07bd
00000220: f45e 01b8 240f 21bc dabf d53c f0f0 02bc
00000230: 8bb3 203d 9eff 213e c776 403d 13c8 ae3d
00000240: 2aa4 b8bb 4542 dcbd 8bec a9bb 3e4d 7bbd
00000250: f226 99ba 541f 913d 1fea b0bc dc84 ef3d
00000260: b102 8a3c 0419 d73d 5619 abbb 847e 523d
00000270: 40cf 18be b2e2 f33c bf40 303c 72fc 0c3d
00000280: 82e7 0dbd 1207 72bd d824 ba3d 6592 af3c
00000290: d03c 6ebd f263 f9bb 9050 e83c 350b 323d
000002a0: 42bf e73d a1b6 f4bc 6ca0 cdbd 2d83 8c3c
000002b0: e429 763d 53ec 4a3c 8753 ca3c 19ea 07bd
000002c0: e3f4 6c3d f38a b23d ce18 b63d 277a 133e
000002d0: c36e b1bd 8c3a d0bc 9270 4e3d eba0 a53d
000002e0: 461c 36be 616e 3c3d bc26 92bd 503c ff3c
000002f0: 4c09 72bc 9f17 a4bb 5b8e bdbc b32a 1a3d
00000300: a0a9 be3c 5be0 9ebc d9be de3d b552 483c
00000310: 8ca7 0bbe 3b26 ff3d a788 683d 5948 69bd
00000320: 5960 313d 186a 78bd 2ae8 703d 7d9f d6bd
00000330: 0a7f 9dbd e006 ec3d 2f0e 063d 5dd7 013e
00000340: 25f2 e53d 2e64 dbbd 170c 193e 37ed 123d
00000350: 04df aabd bdfe 97bc d6fd f13b 8222 f03d
00000360: 6087 59bd 7634 35bd 8b8b 32be 585a fe3c
00000370: e1e7 6c3d 5f05 763c fb40 06bd c25f e6bc
00000380: f245 623d b851 8ebd 82cd a1bd 78c2 96bd
00000390: 64f7 e53d 338f 763b 438a 9dbd 1003 33bd
000003a0: 9118 373e 476b 243b 0500 c9bd cedb 873d
000003b0: 67ed cbbd 6aa2 123d e092 123d fea7 3a3d
000003c0: b500 0bbe a6d4 8abd e28b 7b3d 9e28 dc3d
000003d0: aa56 70be 9586 693d c0a1 12bd 9075 a7bd
000003e0: a2d5 9cbe a6d2 76be c7c7 34bd a2e1 b53c
000003f0: 5531 8a3d cca8 26bd 6483 003d 848c f93b

model.predict.predict.1.bias f4 [64]
0.1274084 0.08383335 0.009336069 0.078777686 0.017280674 -0.035372455 0.0052769636 -0.09725742
0.049000565 0.05485692 -0.04293465 0.079217404 -0.08802179 -0.03761894 0.025316082 0.05335997
0.09013083 -0.04934486 -0.11829742 0.13932909 -0.0047929473 -0.03915399 -0.04931357 0.056164127
-0.035282046 0.060604513 -0.043495584 -0.0001870653 -0.049888667 0.06254853 0.025725048 0.08910009
-0.021726249 0.021465508 -0.07900707 0.17591776 0.09638743 -0.03134735 0.11539263 -0.012042096
0.034158904 -0.0059078913 0.05163446 0.061743904 0.045002397 -0.043369792 0.0015705796 0.109270975
-0.066006795 0.031108705 0.01597904 -0.057480678 0.07218682 0.055853326 0.042947978 -0.049415182
-0.043196358 0.08937941 0.037409235 0.027743295 -0.080564134 -0.092537895 0.02790335 0.029194044
00000000: 5977 023e d2b0 ab3d 50f6 183c 3256 a13d
00000010: 3390 8d3c b5e2 10bd 61ea ac3b e62e c7bd
00000020: d1b4 483d a6b1 603d 3edc 2fbd bc3c a23d
00000030: c544 b4bd 5116 1abd ac63 cf3c fc8f 5a3d
00000040: 8396 b83d d61d 4abd eb45 f2bd 49ac 0e3e
00000050: 280e 9dbb ef5f 20bd 07fd 49bd 5b0c 663d
00000060: e883 10bd 703c 783d 6d28 32bd f626 44b9
00000070: 0f58 4cbd 7219 803d 56bd d23c 1c7a b63d
00000080: 3ffb b1bc 6fd8 af3c 75ce a1bd c923 343e
00000090: c666 c53d 1466 00bd f952 ec3d 364c 45bc
000000a0: 35ea 0b3d fc96 c1bb a87e 533d 2de7 7c3d
000000b0: 6f54 383d 86a4 31bd e8db cd3a 76c9 df3d
000000c0: 922e 87bd afd7 fe3c 7ae6 823c dc70 6bbd
000000d0: afd6 933d 75c6 643d 38ea 2f3d 9367 4abd
000000e0: aaee 30bd 8d0c b73d 6d3a 193d e845 e33c
000000f0: cffe a4bd 8284 bdbd 9195 e43c 5928 ef3c

model.predict.predict.3.weight f4 [64]
1.0678748 1.0838454 1.0770535 0.97051513 1.1452261 1.0315778 0.9924047 1.0618596
1.1518077 0.9575781 1.0126851 1.078718 0.9571989 0.93858796 1.0864309 0.961824
1.0285075 1.0669353 0.9826897 1.0659217 0.9917 1.0605446 1.0557815 1.0507249
1.09989 0.96908355 1.1482588 0.98448557 1.0905744 0.91642016 1.0904896 1.02519
0.9828669 1.0997111 1.0211787 1.0577126 0.9626789 1.0308249 1.0907003 1.0785197
0.96120965 1.0058064 1.0319138 0.93896484 1.1173689 1.0206594 1.0359036 1.0569456
1.0570401 1.026083 0.99221706 0.98001856 1.1037174 1.0751157 1.0121453 1.124381
1.0094072 1.0103607 0.93373424 0.9711273 1.0002418 1.074459 1.0850302 1.0472279
00000000: 1fb0 883f 72bb 8a3f e4dc 893f ae73 783f
00000010: c596 923f be0a 843f 3c0e 7e3f 04eb 873f
00000020: 6f6e 933f d723 753f aa9f 813f 6e13 8a3f
00000030: fd0a 753f 4d47 703f 2b10 8b3f 193a 763f
00000040: 22a6 833f 5691 883f 8d91 7b3f 1f70 883f
00000050: 0de0 7d3f edbf 873f d923 873f 277e 863f
00000060: 32c9 8c3f dc15 783f 25fa 923f 3f07 7c3f
00000070: f197 8b3f 839a 6a3f 2a95 8b3f 6d39 833f
00000080: 2a9d 7b3f 55c3 8c3f fcb5 823f 2063 873f
00000090: 2072 763f 12f2 833f 119c 8b3f ef0c 8a3f
000000a0: d611 763f 44be 803f c015 843f 0060 703f
000000b0: f205 8f3f f8a4 823f 7d98 843f fe49 873f
000000c0: 174d 873f b056 833f f001 7e3f 7fe2 7a3f
000000d0: 9d46 8d3f 649d 893f fa8d 813f b7eb 8f3f
000000e0: 4134 813f 8053 813f 3509 6f3f cc9b 783f
000000f0: ec07 803f df87 893f 45e2 8a3f 900b 863f

model.predict.predict.3.bias f4 [64]
0.0032556516 0.00022376566 -0.0030141654 -0.0049646623 0.001378117 -0.002317203 -0.0004770767 -0.002381436
0.0032565473 -0.0016493157 -0.0005071701 0.0058363224 0.0045516766 -0.005845847 -0.0023712865 -0.0013784292
0.006089961 -0.0012396491 -8.231995e-05 0.0023564077 0.0008385987 0.0015221057 0.016139295 -0.00030313042
0.0010507782 0.002479354 0.002919843 -0.0013419115 -0.0011823544 -0.0074787717 0.008513832 -0.0008187464
0.0013023448 -0.0012189359 0.015727252 -0.0015253593 0.0013861905 -0.0010098463 0.01783819 -0.0036431137
0.0015091728 -0.0011912066 0.0005693081 -0.003490754 -0.001992276 -0.0031750882 -0.00064369524 0.002545468
0.0018006027 -0.0027756921 -0.00055435905 0.013126029 -0.0015104613 -0.0020047834 -0.0006450587 -4.5328925e-05
0.00035121923 0.00073071657 0.0070242714 -0.003541243 0.0009131698 0.002417523 -0.0030222067 0.0013511346
00000000: c55c 553b a3a2 6a39 4e89 45bb 9bae a2bb
00000010: efa1 b43a 37dc 17bb 2720 fab9 de11 1cbb
00000020: cc6b 553b da2d d8ba 9cf3 04ba 9f3e bf3b
00000030: 3b26 953b 858e bfbb 9667 1bbb 69ac b4ba
00000040: 4c8e c73b b97b a2ba 30a3 acb8 f66d 1a3b
00000050: 68d5 5b3a 6481 c73a 8e36 843c 7aed 9eb9
00000060: 44ba 893a a87c 223b d65a 3f3b 14e3 afba
00000070: 3bf9 9aba 7c10 f5bb 9a7d 0b3c 24a1 56ba
00000080: 71b3 aa3a b4c4 9fba 70d6 803c 91ee c7ba
00000090: d6b0 b53a d25c 84ba 6521 923c 4ec1 6ebb
000000a0: 70cf c53a 4322 9cba 9f3d 153a 22c5 64bb
000000b0: d890 02bb 2415 50bb a8bd 28ba ded1 263b
000000c0: 3302 ec3a 63e8 35bb 6852 11ba 8e0e 573c
000000d0: acfa c5ba af62 03bb 2819 29ba 901f 3eb8
000000e0: d923 b839 8f8d 3f3a dc2b e63b 3314 68bb
000000f0: ca61 6f3a 4e6f 1e3b 3710 46bb 8e18 b13a

model.predict.predict.3.running_mean f4 [64]
0.19980878 0.28194585 2.9682778e-05 0.74189657 0.35994765 0.14815156 0.0043846816 0.20735718
0.10294981 1.2906326 0.24540402 0.111176655 0.5665856 0.088168606 0.121302634 0.63180983
0.10591806 0.51935756 3.1145128e-29 0.2720258 1.5025525 0.2534016 0.3930789 0.05035593
0.00019631586 0.0002760741 0.035424147 1.2169857 0.34203845 0.38233536 0.16582215 0.46919248
0.31189138 0.7441007 0.007918876 0.80026996 0.8768184 1.0666307 0.14797074 0.01391783
1.6463311 0.00055664947 0.418499 0.66628987 0.16789274 0.015923994 0.2207141 0.08821809
0.0024366823 0.32012713 8.7179236e-11 0.0016595294 0.4563269 0.14368826 0.7992647 0.13136306
0.5835925 0.68997407 0.03218275 0.74584424 0.50882375 0.40448174 0.27085137 0.00046790618
00000000: ac9a 4c3e 355b 903e 48ff f837 efec 3d3f
00000010: 0f4b b83e 0bb5 173e 60ad 8f3b 7155 543e
00000020: 5ad7 d23d 7333 a53f 314b 7b3e 96b0 e33d
00000030: c10b 113f be91 b43d 846d f83d 4abe 213f
00000040: 91eb d83d 9ef4 043f b0ec 1d10 f746 8b3e
00000050: a453 c03f dbbd 813e a341 c93e 0542 4e3d
00000060: 23da 4d39 0abe 9039 e918 113d 30c6 9b3f
00000070: aa1f af3e 76c1 c33e 48cd 293e ff39 f03e
00000080: 3ab0 9f3e 627d 3e3f 2cbe 013c 7ede 4c3f
00000090: 2c77 603f 5b87 883f a485 173e 9c07 643c
000000a0: faba d23f 1dec 113a 8045 d63e f991 2a3f
000000b0: 13ec 2b3e 0973 823c e102 623e b0ab b43d
000000c0: bfb0 1f3b b4e7 a33e 8cb5 bf2e 9184 d93a
000000d0: aea3 e93e 0423 133e 9d9c 4c3f 0a84 063e
000000e0: 5166 153f 24a2 303f 0fd2 033d a6ef 3e3f
000000f0: 4642 023f 3b18 cf3e 08ad 8a3e 4e51 f539

model.predict.predict.3.running_var f4 [64]
0.10239216 0.1983835 4.0182185e-06 0.3111611 0.36987898 0.08532009 0.0019571234 0.16649982
0.06141319 0.8074275 0.15440579 0.08185668 0.38212317 0.036046274 0.06729501 0.33603317
0.044332553 0.3671853 1.4588283e-28 0.110485666 1.7155846 0.15174901 0.34010273 0.044581052
7.3921794e-05 5.2947966e-05 0.018425616 1.1123711 0.19641249 0.12335153 0.13668591 0.32799917
0.17128351 0.4279506 0.0030902768 0.35126653 0.73548377 1.0890683 0.08745212 0.004489323
1.3165483 9.9292185e-05 0.21190988 0.24247079 0.0755879 0.009866883 0.1424928 0.047170535
0.0008702701 0.19589312 8.49656e-12 0.0006404344 0.32820645 0.056319907 0.9739734 0.07426272
0.86298734 0.32517186 0.012959605 0.3702066 0.4306505 0.2811311 0.13394189 7.064542e-05
00000000: fbb2 d13d 0b25 4b3e 3cd4 8636 8250 9f3e
00000010: c760 bd3e 4dbc ae3d 1543 003b ee7e 2a3e
00000020: 668c 7b3d 92b3 4e3f 8d1c 1e3e 7aa4 a73d
00000030: a6a5 c33e 42a5 133d f7d1 893d 8a0c ac3e
00000040: 0d96 353d b6ff bb3e afed 3811 4f46 e23d
00000050: 4798 db3f 1864 1b3e f221 ae3e 9f9a 363d
00000060: 7606 9b38 7214 5e38 51f1 963c 2d62 8e3f
00000070: 5b20 493e ba9f fc3d 64f7 0b3e 82ef a73e
00000080: f264 2f3e 571c db3e 3e86 4a3b 35d9 b33e
00000090: aa48 3c3f 9766 8b3f 191a b33d 2c1b 933b
000000a0: a884 a83f 163b d038 e7fe 583e 434a 783e
000000b0: d4cd 9a3d b5a8 213c a2e9 113e e435 413d
000000c0: d622 643a 3598 483e 1b79 152d d3e2 273a
000000d0: ad0a a83e b4af 663d 5256 793f 0e17 983d
000000e0: bdec 5c3f ed7c a63e 8654 543c b88b bd3e
000000f0: 397e dc3e 6af0 8f3e 1028 093e 7927 9438

model.predict.predict.4.weight f4 [2, 64]
0.16871116 0.16997018 0.16243769 -0.020043775 0.18680556 -0.09542078 -0.08138317 0.0031022264
0.16832979 0.043553125 -0.11104959 0.027472567 0.021012096 -0.018565219 -0.06298695 -0.11590725
0.07417688 -0.095849715 0.037358403 0.12526676 -0.013448737 -0.06551298 0.04484629 -0.119877614
0.1854448 -0.008285899 0.24290906 0.054653823 -0.19861613 0.025545917 0.037606407 -0.06935003
-0.15079759 -0.0807058 -0.055181827 0.013116555 0.058283467 -0.0982199 0.16321528 -0.18981804
0.046601065 0.10571246 -0.15707731 -0.03127929 -0.18101096 0.0030033714 -0.15326707 0.13609466
0.0922698 -0.12724622 0.064895034 0.080866545 -0.08664402 -0.04304795 -0.10536985 0.055512637
0.057970244 0.11191907 0.061819483 0.006819124 0.044289924 -0.13966614 -0.1329614 0.10219075
-0.043311078 -0.1277978 0.028090583 -0.040169064 -0.067427754 0.12912521 0.029443247 -0.14428702
-0.10077383 0.0654145 0.045344833 -0.12539524 0.056811165 -0.045880638 0.13321108 -0.05678844
-0.10995702 0.10476659 -0.10280755 -0.14252773 0.116330795 0.11543994 -0.08868718 0.14774689
-0.15689555 0.017876802 -0.18434705 0.12210799 0.08760305 0.012809612 -0.14676943 0.044274345
-0.0764738 0.18048605 -0.14886534 -0.12203906 0.10082326 0.14759679 -0.0087725995 -0.021241358
0.07655227 -0.05012084 -0.014219832 -0.044335987 0.110252075 0.13302338 -0.030792553 -0.112763
-0.14800817 0.07467025 0.012214031 0.041563004 0.17041455 0.12899415 0.12830268 -0.18419306
-0.043674804 -0.087680764 0.086890504 -0.045233507 -0.08480244 0.03808155 0.14074892 -0.03864625
00000000: 9ec2 2c3e aa0c 2e3e 1156 263e d832 a4bc
00000010: f549 3f3e f86b c3bd 38ac a6bd b94e 4b3b
00000020: a55e 2c3e c364 323d f86d e3bd 260e e13c
00000030: 8f21 ac3c 1616 98bc 4dff 80bd c860 edbd
00000040: 0cea 973d db4c c4bd 2005 193d ee45 003e
00000050: 1758 5cbc ab2b 86bd beb0 373d 6582 f5bd
00000060: 3ee5 3d3e 94c1 07bc 27bd 783e b0dc 5f3d
00000070: 0762 4bbe ac45 d13c 2d09 1a3d 6307 8ebd
00000080: af6a 1abe 1549 a5bd 5706 62bd d2e6 563c
00000090: a5ba 6e3d 8427 c9bd e821 273e a95f 42be
000000a0: c2e0 3e3d c67f d83d e0d8 20be b61e 00bd
000000b0: f05a 39be 36d4 443b 0bf2 1cbe 665c 0b3e
000000c0: f3f7 bc3d d54c 02be b0e7 843d 5c9d a53d
000000d0: 6c72 b1bd 0c53 30bd 26cc d7bd 3861 633d
000000e0: 3572 6d3d d335 e53d 6d36 7d3d f572 df3b
000000f0: 5a69 353d a404 0fbe 0927 08be 6249 d13d
00000100: f566 31bd 6ddd 02be 391e e63c 5188 24bd
00000110: 9017 8abd 6639 043e f732 f13c fabf 13be
00000120: 8362 cebd 0af8 853d 81bb 393d 9c67 00be
00000130: d3b2 683d 56ed 3bbd 7c68 083e ff9a 68bd
00000140: 2531 e1bd de8f d63d c48c d2bd caf2 11be
00000150: d73e ee3d c66b ec3d a0a1 b5bd f64a 173e
00000160: 3aa9 20be 5f72 923c 79c5 3cbe c113 fa3d
00000170: 3a69 b33d 68df 513c ba4a 16be 0459 353d
00000180: 4c9e 9cbd 56d1 383e 2870 18be 9def f9bd
00000190: 6d7c ce3d 9d23 173e f3ba 0fbc 5b02 aebc
000001a0: 70c7 9c3d 834b 4dbd 4cfa 68bc a799 35bd
000001b0: d7cb e13d 4837 083e aa40 fcbc 4af0 e6bd
000001c0: 748f 17be b7ec 983d 5c1d 483c f83d 2a3d
000001d0: 2781 2e3e 0b17 043e c761 033e 1b9d 3cbe
000001e0: 5ae4 32bd f991 b3bd a6f3 b13d c546 39bd
000001f0: e7ac adbd 66fb 1b3d 7c20 103e 884b 1ebd

model.predict.predict.4.bias f4 [2]
0.11251856 0.073135726
00000000: 2170 e63d 2fc8 953d
